AutogluonModels/ag-20220702_011935/models/NeuralNetTorch_BAG_L1/S1F4/net.params (torch, 211783 bytes, 9 tensors)

weight f4 [128, 14]
000000 a0 37 7f 3b c9 50 b1 3d 65 8e 7d be 58 db 45 be
       0.0038943067 0.08657987 -0.2476135 -0.19321954
000010 5e 5d fa bd c3 67 18 3d 57 ee 84 bc ba 75 73 3e
       -0.1222484 0.03720833 -0.01622693 0.23775378
000020 2d 6f 3c 3a 5c 27 fe 3d 1b 79 84 bd 32 1f a0 bd
       0.00071881973 0.12409851 -0.064684115 -0.0781845
000030 97 1b bf be 53 6a 46 be 9e 74 fe bd a7 35 09 bb
       -0.37325737 -0.19376497 -0.12424587 -0.002093652
000040 d6 c0 be 3d 62 2a 5a 3e 01 e9 b9 bd 02 57 1f be
       0.09314124 0.2130523 -0.09077645 -0.15560535
000050 25 d7 fe 3d 41 14 59 3e 0d 77 16 bd ec a7 69 3e
       0.12443379 0.21199133 -0.03673463 0.22817963
000060 36 cb 28 bc ff eb 96 bb 20 3c 8f 3e 23 78 87 be
       -0.0103023555 -0.0046057696 0.2797556 -0.26458845
000070 a4 e6 3d be 60 17 c4 bd 04 78 12 be 70 a4 7f 3e
       -0.18545014 -0.09574771 -0.14303595 0.24965072
000080 3b 01 4d be d5 fa 46 be c3 ac 48 be 61 13 82 be
       -0.2002 -0.19431622 -0.19597153 -0.2540541
000090 bb 6b a8 bd 7f 5a 7f 3e f7 0c 44 3e 87 63 e7 3d
       -0.08223673 0.24936865 0.1914557 0.1129828
0000a0 89 74 7b bd 1b b9 e5 bd f0 5b 38 3d 0b 12 9f be
       -0.061390433 -0.11216947 0.045009553 -0.31068453
0000b0 f0 aa 4f be 02 23 53 be 42 17 00 3e 57 98 07 3e
       -0.20280051 -0.20618823 0.12508872 0.13241707
0000c0 ba af fc bd 8a 28 23 3d f1 f7 1c 3e 3d 53 a3 3e
       -0.12338205 0.039833583 0.15328957 0.31899443
0000d0 b2 07 da 3d be b0 6e 3c 3a 81 24 3e db ce 28 be
       0.10645999 0.014568506 0.16064921 -0.16485159
0000e0 d4 fd 1e 3c 0c ec 99 be 32 c2 68 be 6a 24 90 bd
       0.009704072 -0.30062902 -0.2273033 -0.070381954
0000f0 60 a9 e3 3d c1 6f ac 3d a1 87 3c be 5d 91 e7 3d
       0.1111629 0.08419753 -0.18411113 0.11307023
000100 3d 64 c4 3d be 4c fd 3b 8a 87 9d bc 1b 8c 31 3d
       0.095894314 0.0077300956 -0.01922967 0.043346506
000110 cb c6 53 3e 96 36 87 3e 82 7d 7f be 39 7b 8f bd
       0.20681302 0.26408833 -0.24950221 -0.07005925
000120 4d b8 f5 3d bb 6e 9e 3e aa 19 83 3e f1 21 2a 3e
       0.11998043 0.30943856 0.25605518 0.1661451
000130 a4 30 f6 bc b2 97 71 be 7a bf 34 3d b2 69 0c be
       -0.03005249 -0.23593023 0.04412792 -0.13712195
000140 90 25 60 be 48 67 58 3e a2 97 a2 3e be 29 a4 be
       -0.21889329 0.21133149 0.31756312 -0.32063097
000150 d0 68 88 3d b3 49 29 be f2 57 be bd 50 ec c5 bd
       0.066606164 -0.1653202 -0.09294118 -0.09664214
000160 8e b7 25 bd 6a 7a 7c be 26 64 b8 3d 8f 93 2d 3e
       -0.040458255 -0.24656072 0.09003477 0.1695082
000170 ea de 80 3e 12 36 cb 3d d9 08 45 be 97 36 62 be
       0.2517007 0.099224225 -0.19241656 -0.22091137
000180 8b cd 2e 3e a6 fd 9a bb 29 af 52 be 3f a7 89 be
       0.17070596 -0.0047299443 -0.20574631 -0.2688541
000190 e0 f7 1e 3e 84 02 34 3e 48 4e 21 bd 33 ef 92 bd
       0.15524244 0.17579085 -0.039381295 -0.0717453
0001a0 73 5b a6 be c5 92 b2 3c 38 a7 04 be 72 83 44 be
       -0.32491645 0.0217985 -0.12954414 -0.19190767
0001b0 2a ca 58 bd db 22 5e 3d 48 83 07 be ed 65 14 3e
       -0.052927174 0.05423246 -0.13233674 0.14492007
0001c0 47 36 18 be 79 01 83 3e f8 7f 33 3e 0d 69 70 be
       -0.14864455 0.2558706 0.17529285 -0.23477574
0001d0 b5 23 7c bc 66 bd 18 3d 79 b1 b6 3d 3a 71 30 3d
       -0.015389373 0.03729 0.08920569 0.04307673
0001e0 a6 79 b6 3c ef 54 88 3c 30 ca 49 be 08 12 bb 3d
       0.022274803 0.016642062 -0.19706035 0.091342986
0001f0 17 b5 ab be ba a6 4f be 5d 53 4c bd 4d bc 87 be
       -0.33536598 -0.20278445 -0.04988419 -0.2651085
000200 59 9f 3d be 78 1e 31 be 04 9d b5 bd 6f d5 b2 bb
       -0.18517818 -0.17296779 -0.08867839 -0.005457572
000210 7b ca 2d be 7b 4e 27 ba 9b 67 28 3e 5f 42 1d bc
       -0.16971771 -0.0006382239 0.16445772 -0.009598344
000220 64 18 55 3c ac ab ec bd 59 b6 eb 3d f8 fd f5 3d
       0.013006303 -0.11556181 0.115093894 0.12011331
000230 45 8b 98 3e 88 27 19 3e ae 9d 73 3e 50 5f 68 bd
       0.29793754 0.14956486 0.23790619 -0.056731522
000240 ff 21 89 be 43 dc 1b be 65 52 b0 3e 6d 65 70 3d
       -0.2678375 -0.15220742 0.34437862 0.058690477
000250 d6 f1 11 be 9b 36 cd bd f1 69 89 be 3e 21 ba be
       -0.1425241 -0.10020181 -0.2683864 -0.36353487
000260 05 6e 86 be fd 9b fc 3d 7f 53 29 3e 22 9a a4 be
       -0.26255813 0.1233444 0.16535757 -0.32148844
000270 d7 9b f5 3d aa d2 1e be 4f 10 6c bd 1d ba 4d be
       0.11992615 -0.1551005 -0.05763274 -0.20090528
000280 a9 d4 23 3d 5f ad bb bc 1c bb 95 be d8 d7 28 be
       0.03999773 -0.022909818 -0.29244316 -0.16488588
000290 99 7d 8a 3b 5c 7f 0a be 47 1c 76 be 64 1a 07 3e
       0.004226398 -0.13525146 -0.24034224 0.13193661
0002a0 22 d2 d2 be 5d 03 da 3d e8 88 b0 3e 5e 88 b1 bd
       -0.41175944 0.10645173 0.3447945 -0.08668588
0002b0 b5 e7 75 3e 84 fd 80 3d c1 a3 d4 be a2 bf a8 3d
       0.2401417 0.06298354 -0.41531184 0.08239676
0002c0 5c 19 8f bd 97 0f 25 bd aa 7e 12 3e 64 5b 60 be
       -0.06987259 -0.04029807 0.14306131 -0.21909863
0002d0 a0 85 f7 bc 50 ac 55 bd 76 92 1d 3e bf ce d3 bc
       -0.030215085 -0.052166283 0.15387902 -0.02585542
0002e0 ae 92 a2 3d b4 d5 23 3e 9a e4 d8 bd 18 50 d7 bd
       0.07938133 0.1599949 -0.10590477 -0.105133235
0002f0 15 c3 7a be 22 34 12 3e bb 0c 42 3e 97 e9 3f 3e
       -0.2448848 0.142777 0.18950169 0.18741451
000300 6e b4 16 be 42 9c ae 3a 8d 00 b7 be 90 af ab bd
       -0.14717266 0.0013321715 -0.35742608 -0.08383095
000310 7d f4 42 be c9 36 2e 3d a1 42 24 be 57 7d 57 bd
       -0.19038577 0.042532716 -0.16041042 -0.052609768
000320 63 68 06 bd 4f 0b 29 3e 70 f6 69 be a1 88 f5 bd
       -0.032814395 0.1650822 -0.22847915 -0.119889505
000330 8a 71 d2 bd 56 dc 68 3e c0 be 1c be 17 9f 64 3e
       -0.10275562 0.22740301 -0.1530714 0.22326313
000340 68 a2 03 3d 6c 8e 84 3d ec 94 55 3c 12 f8 85 bd
       0.032137305 0.06472477 0.013035994 -0.06541456
000350 5a 31 e8 3c ab 9c 04 be 2e a7 91 bb 61 46 67 3d
       0.028343845 -0.12950389 -0.004444978 0.056463603
000360 f9 51 57 be 8b 23 36 be 88 e1 42 3e b4 24 dd bd
       -0.21027364 -0.17786996 0.19031346 -0.10798016
000370 09 fa bc bd ae 0c 6d 3e c7 ff 37 3d 7a d0 7d bd
       -0.09227378 0.23149368 0.044921663 -0.061966397
000380 75 f2 7c be 08 20 07 3e 86 ee 76 be 76 7d 44 be
       -0.24701865 0.13195813 -0.24114427 -0.19188485
000390 2d a8 03 bd 58 07 21 bd a0 55 71 3c 8a bf 3e 3e
       -0.032142807 -0.039313644 0.014729887 0.18627754
0003a0 f5 56 12 3e be 3d 93 3e d3 bd 29 3e 01 53 35 be
       0.14290984 0.28758043 0.16576318 -0.17707445
0003b0 b5 96 e2 3d 5e b4 88 be 03 29 0f be c3 a5 a1 3c
       0.11063901 -0.2670011 -0.13980488 0.019732362
0003c0 8a 13 fa 3c ab b7 90 3e 0b 1a ad bd 3a 36 8c bd
       0.030526895 0.28265128 -0.08452233 -0.068462804
0003d0 47 d1 c0 3c d5 08 83 be 89 47 38 3e e7 d9 32 be
       0.023537291 -0.25592676 0.17996038 -0.17465936
0003e0 81 1e 79 bd ff 0e d4 bd 66 67 36 be bd c7 89 bd
       -0.060820106 -0.10354423 -0.17812881 -0.0672755
0003f0 55 1f 7d 3e 16 28 21 be 0d 7a 62 be f0 89 aa bd
       0.24718983 -0.15737948 -0.22116871 -0.08327091

bias f4 [128]
000000 63 87 4d 3e f6 dc 06 3e 9b 89 0c 3e 80 45 b6 bd
       0.20071177 0.13170227 0.13724367 -0.08899975
000010 3f 13 ea 3d 3c a3 f8 3d fb cb f2 3d 89 43 37 bc
       0.11429452 0.121405095 0.118553124 -0.011185535
000020 e2 c8 c8 bc 28 eb 80 bd 1e ca a0 be fb 87 90 bc
       -0.02450985 -0.062948525 -0.31404203 -0.017642966
000030 d0 84 71 be 74 65 11 3e d1 0e 30 be 6a 63 1a be
       -0.2358582 0.14198858 -0.17193152 -0.15076986
000040 78 9f 03 be 34 ca 03 3e e5 74 28 be 0c e8 d1 3d
       -0.12853801 0.12870103 -0.16450842 0.102493376
000050 0c af 2d 3e e4 1d 30 3e 8a ab 8d 3d ae f4 a9 3d
       0.16961306 0.17198902 0.06917484 0.08298622
000060 ab eb 2f 3e fd e1 cf 3d 97 20 bf 3c 7e f5 53 be
       0.17179744 0.10150526 0.02333097 -0.20699117
000070 e5 b3 ec bc bc 6d bf 3b 8d ae 5e 3d 80 1a c6 bd
       -0.028894374 0.005841939 0.054365683 -0.09673023
000080 dc 02 7d be 91 6a 68 bd 2d 35 bb 3d 28 10 50 3e
       -0.24708122 -0.056742255 0.09141002 0.20318663
000090 a0 e8 83 be 22 64 ae 3d dd 9d 57 be 2a 6b 6f be
       -0.25763416 0.085151926 -0.21056314 -0.23380724
0000a0 2f d9 ef bd 46 76 ab bd 13 50 f3 3c 5b ec 8d be
       -0.11711346 -0.08372168 0.029701268 -0.27719387
0000b0 52 19 c3 3d 62 ac 59 3e b3 cf 34 bc 65 8a 78 3e
       0.09526314 0.21257165 -0.0110358475 0.24271543
0000c0 90 df 09 be a7 18 15 be 99 dc 7a 3c e7 5e 59 bd
       -0.13464189 -0.14560185 0.015311384 -0.05306902
0000d0 dc 89 52 be 97 34 4a be a6 b8 3e 3d c0 b9 14 bc
       -0.20560402 -0.19746624 0.046562813 -0.009077489
0000e0 8d 89 8b 3e fe a9 02 be d2 c7 b9 3d fa f3 0b be
       0.2725338 -0.1276016 0.09071316 -0.13667288
0000f0 c2 52 d2 3d a1 e5 88 bd 64 dc 3d 3e 95 47 07 3e
       0.10269691 -0.06684423 0.18541104 0.132109
000100 b6 4c 40 3e 70 94 13 3e 99 ee 79 bc 48 1c 1e 3e
       0.18779263 0.14412093 -0.01525464 0.15440476
000110 9e 53 f4 bd e7 89 82 3e 52 91 8f 3e aa 6b 20 3e
       -0.11930011 0.25495836 0.28040558 0.1566607
000120 64 84 00 be 24 ca 2e be 36 ba a4 3d 43 4d 66 3d
       -0.12550503 -0.17069298 0.080433294 0.056226026
000130 e6 eb c2 3d f9 85 6d 3c 88 14 53 3e 1e b1 eb bd
       0.0951765 0.014497274 0.20613301 -0.11508392
000140 bc 8f e7 bd be 32 49 3d 84 11 25 3c 04 54 42 be
       -0.11306712 0.049120657 0.010074977 -0.18977362
000150 b3 bf 09 bd c4 73 84 be 73 1c e2 bd 5d b2 89 bd
       -0.033630084 -0.25869572 -0.110405825 -0.06723473
000160 13 70 6d 3e 36 76 67 be 36 7e 13 be e1 64 5a be
       0.23187284 -0.22603688 -0.14403614 -0.21327545
000170 16 33 8e 3d cf 64 7a be bb 7e 86 3d 3c 65 0b be
       0.069433376 -0.24452518 0.06567141 -0.13612837
000180 79 c1 33 be b0 98 34 be b0 e8 c9 bc fe e2 55 3e
       -0.17554273 -0.1763637 -0.024647087 0.20887372
000190 c7 90 53 3e 02 ae bf bd c9 e7 9a be 98 35 db bd
       0.20660697 -0.09359361 -0.30254963 -0.107035816
0001a0 c2 46 19 be bb 54 f0 bc be c2 05 3d 8f 82 89 3d
       -0.14968398 -0.029337278 0.032656424 0.06714355
0001b0 c2 76 d1 3d ba d2 0b 3c 5c 72 de bd fb 36 ab bd
       0.102277294 0.008534128 -0.10861656 -0.08360096
0001c0 81 0d 02 3c 21 0d 2f be b5 67 b0 bd 15 44 ae bc
       0.00793779 -0.17094852 -0.086135305 -0.021272698
0001d0 d7 b2 8c be 0c 8d 04 3e 5f 62 27 bd 40 4c 8d be
       -0.27480194 0.1294443 -0.0408653 -0.27597237
0001e0 fa 84 7f 3e 0d 33 14 be 5c 09 5d 3d f9 31 6b 3e
       0.2495307 -0.144726 0.053964004 0.22968282
0001f0 63 24 40 bd 87 32 a9 3c 60 c7 e0 3d ec 1e 9d 3d
       -0.0469097 0.020653976 0.10975528 0.076719135

weight f4 [128, 128]
000000 24 af 21 3c e6 42 6b bc c1 d7 68 3c 26 f3 a7 3d
       0.009868417 -0.014359212 0.014211596 0.08200674
000010 77 90 c3 3b 38 ed 9d 3d 6f d2 26 3d 47 7d 08 3c
       0.0059681493 0.077112615 0.04072803 0.00833065
000020 25 83 b7 bc f2 4a 36 3d ef 45 ed bd 81 59 6f bd
       -0.022401402 0.044505067 -0.115856044 -0.058434967
000030 30 84 d1 bd 16 aa 81 3d f6 0e 8a 3d 36 43 2e 3c
       -0.10230291 0.063312694 0.06741135 0.0106361415
000040 4c 51 80 3d eb fa 6f 3d a4 bb 48 bd 18 e0 dd bd
       0.06265506 0.058588903 -0.049007073 -0.10833758
000050 53 3b 90 bd 9f c7 45 bd 6b bc a3 bd bc 66 ca bc
       -0.07042565 -0.048286077 -0.07994922 -0.02470719
000060 a1 13 9e bc b9 86 f2 bc b4 b4 a3 bc 10 cc 4a 3d
       -0.01929647 -0.029605256 -0.019983627 0.049511015
000070 68 9a b3 3d ff f2 08 bd 2f a0 45 3d 5b 9c 11 3d
       0.08769685 -0.033434864 0.048248466 0.035549503
000080 e9 d1 f3 3d 5f 8b 9e bb b8 6c df bc 80 e9 17 bd
       0.119052716 -0.0048383917 -0.02727352 -0.037087917
000090 29 89 ce 3d 7f b9 d9 bc bc 4c 91 bd 7c 7c 07 3e
       0.10084755 -0.02657771 -0.07094714 0.13231081
0000a0 0f b8 c8 3d 62 ed 83 bd 0e 29 41 bd 98 20 75 3c
       0.098007314 -0.064417616 -0.047158293 0.014961384
0000b0 08 ff 99 bc 65 75 4f bd fe 02 5f bd d1 f8 6c bd
       -0.018798366 -0.050649066 -0.054446213 -0.057854477
0000c0 c8 64 86 bd 32 ce 68 bd 72 9c ff bd d0 41 b6 bc
       -0.06562191 -0.05683727 -0.124810115 -0.022248179
0000d0 95 1a 0b 3d 0d 77 06 bd e3 9f 3c bc 11 57 08 bd
       0.033960897 -0.03282838 -0.011512729 -0.033286158
0000e0 0c 50 cd 3d 35 9a 68 3d e8 20 30 3c e7 94 fb bc
       0.10025033 0.05678769 0.010750033 -0.03071065
0000f0 5e d2 86 bd 9f c0 bb bc 0f aa ae 3d 26 e9 3f 3b
       -0.06583093 -0.022918997 0.0852853 0.0029283254
000100 4a 77 a4 3c 15 ae 18 bd 36 ab c9 3c df 75 70 bd
       0.020076413 -0.037275393 0.024617773 -0.05870616
000110 4e b4 34 3d f8 b0 a8 3d 40 9a c7 bd 0a 5f 0b bd
       0.044117264 0.08236879 -0.09746218 -0.034026183
000120 f6 b7 b6 3d 27 5d 8a bc 66 dc b7 bc b7 f0 58 3d
       0.089218065 -0.016890122 -0.022443961 0.05296394
000130 4e bf f8 3b 46 ee 98 bd e6 9c d6 bc f9 22 85 3d
       0.0075911647 -0.07467322 -0.026197862 0.06500811
000140 ad 31 ad 3d e7 b6 1b 3d cf 69 99 3c 26 42 dc 3c
       0.084567405 0.038016226 0.018727211 0.02688701
000150 f5 34 b2 3d e5 bc a2 3c c7 28 bc b9 e4 85 69 3c
       0.08701507 0.019865463 -0.00035888536 0.014253113
000160 a0 42 5a bd ac 7a c8 3d 47 12 a9 bd f5 43 4f 3d
       -0.053286195 0.09789023 -0.08255439 0.05060192
000170 9f fe 03 bd c7 b4 03 bd 0e bf d2 3d ff 3b ae 3c
       -0.032225247 -0.032154825 0.10290347 0.021268843
000180 bc 7c 84 3c 79 97 5d 3d 07 4e 8a bd 0a bf 6a bd
       0.01617276 0.054099534 -0.06753164 -0.057311095
000190 96 2a 66 bd f3 90 89 bd c4 9d 86 3c be 62 84 3c
       -0.056192957 -0.067171 0.01643265 0.016160365
0001a0 11 44 7b 3d e3 eb 1b 3c 54 f2 3b 3d 49 c5 9f bd
       0.06134421 0.009516689 0.0458854 -0.07801301
0001b0 97 85 17 3c 71 02 e4 3c 33 fe e8 3b 57 1e d3 3d
       0.009248159 0.027833195 0.007110381 0.10308521
0001c0 3d e5 c8 bc 48 0b e6 ba 97 9c 66 bd 87 12 8a 3d
       -0.024523372 -0.001755097 -0.05630168 0.06741815
0001d0 78 1e b9 bc a8 67 ac bd 6f 81 ab 3d 5b a1 12 be
       -0.022597536 -0.08418208 0.08374297 -0.14319365
0001e0 79 44 a2 bd cb 60 06 3d 3f bf bc 3d eb dd bf 3d
       -0.079232164 0.032807153 0.09216165 0.09368499
0001f0 2a 1c 54 3d 2b 09 70 3c 47 45 83 3d 50 38 0c bd
       0.05178467 0.014650623 0.06409698 -0.03423339
000200 0f 3d b1 bb 3f a2 b9 bb 38 67 f2 bd 7c e0 56 3b
       -0.00540889 -0.005665093 -0.11836094 0.0032787612
000210 fa 5c 50 bd ba 8a 75 3c c0 da 68 bd 2f c0 6b bc
       -0.05086992 0.014986688 -0.05684924 -0.014389082
000220 46 1f db 3d e9 80 af 3d 57 19 77 bd 35 c7 fa 3c
       0.10699324 0.085695095 -0.0603269 0.030612567
000230 12 0e 3f 3d ce ff 98 3d ec 78 4a bd a2 9d 0b 3d
       0.046644278 0.07470666 -0.049431726 0.034085877
000240 17 02 e4 3c c1 63 bc 3d 01 2f c3 bd f4 43 f7 bc
       0.027833028 0.09198714 -0.0953045 -0.03018377
000250 b4 89 2c be 8e 68 2d be 4d 07 c6 bd 23 a5 27 3d
       -0.16849405 -0.16934416 -0.09669361 0.04092897
000260 54 e2 9b bd 6f 2a 32 3a 67 21 59 3d 55 4b f2 bc
       -0.07611528 0.0006796484 0.05301037 -0.029576937
000270 28 90 28 bc 99 ee 78 bd 2b 2f 19 bd 7a db 51 bd
       -0.010288276 -0.06077442 -0.0373985 -0.0512347
000280 1c 73 f1 bd 36 eb dc bd a5 45 a9 bd f2 31 bf 3d
       -0.117895335 -0.107870504 -0.08265237 0.09335698
000290 fe d8 be bd 66 47 14 3b ed 51 43 be 9c 89 f6 3c
       -0.09318732 0.0022625565 -0.19074221 0.030094914
0002a0 17 12 bd bd c1 f6 d1 3c 92 69 35 bd fb 99 92 bd
       -0.09231966 0.025630357 -0.044290133 -0.07158276
0002b0 d1 c1 b3 3d 31 1a 2f bd 3e 7c 0c bd 56 6f 87 bd
       0.08777202 -0.042749587 -0.034298174 -0.066130325
0002c0 6c 08 c0 3c e5 5e 51 bc 16 d2 63 bd d0 82 b8 3d
       0.023441516 -0.012778972 -0.055620275 0.090093255
0002d0 ac 08 18 be 3d 25 08 3b c1 69 af bc af 96 d7 38
       -0.14847058 0.002077415 -0.021412732 0.00010280066
0002e0 13 4b fd 3d 94 d7 bb 3d a1 fc af 3b 81 28 d7 bd
       0.12367835 0.09171978 0.005370692 -0.105057724
0002f0 77 bf 91 3d e4 56 ca 3c 40 b7 99 3d 10 93 f6 bc
       0.07116597 0.024699636 0.07505655 -0.030099422
000300 ab e3 0b 3c c0 52 c9 3d 87 7e bb 3c 2b 6c e7 bc
       0.008538167 0.098302364 0.022887481 -0.02824982
000310 ff 35 7f be a2 fd d7 bd 11 c5 95 b9 c1 4f ad 3b
       -0.24922942 -0.105464235 -0.0002856632 0.0052890484
000320 a6 6e 1e 3d d1 c3 ac 3d 60 d2 ca bd 4c ef 94 bc
       0.03867974 0.084357865 -0.09903407 -0.018180512
000330 3d ca d0 bc 7f 14 83 3d c7 f2 39 3d 41 c7 03 3d
       -0.02548706 0.06400394 0.045397546 0.032172445
000340 63 33 83 3d b3 eb 98 bd df 68 13 bd cb f1 15 3d
       0.064062856 -0.07466831 -0.035988685 0.036607545
000350 a2 92 96 bd 23 34 83 3d e6 9e ed bc 44 0e a9 bd
       -0.07352187 0.06406429 -0.029006433 -0.08254674
000360 af c5 e0 3d a0 b1 01 be 82 b6 1b 3e c5 7f 07 3d
       0.10975205 -0.12665415 0.1520634 0.033080835
000370 d5 9b 76 bd d9 d6 93 3d ad b3 ef bd 27 5e ab bd
       -0.060207207 0.07218713 -0.11704192 -0.083675675
000380 fe fa 2c bc 69 6a b1 bc b9 cb e5 3b d1 f6 32 bd
       -0.010557888 -0.021657186 0.007012811 -0.043692414
000390 0a af a8 bd 7b c0 16 3c 43 71 a1 3d 54 48 83 bc
       -0.08236511 0.009201164 0.07882931 -0.0160257
0003a0 9b 60 6b 3d 5c ac 6f 3d c5 68 eb 3c ab 5b 6a bd
       0.057465177 0.058513984 0.028736481 -0.057216328
0003b0 3c 3a 1c 3c 6e 37 bf bd a5 2b 93 bd 58 f6 34 bd
       0.0095353685 -0.09336744 -0.07186059 -0.044180244
0003c0 90 5a 76 3d 60 78 8a 3d 50 3c 1e bd 3d 51 d9 bd
       0.06014496 0.06761241 -0.038631737 -0.10611198
0003d0 e5 78 44 bd 15 32 df bb e5 16 ff bb 70 ad 06 3d
       -0.047966857 -0.00681139 -0.0077847117 0.032880247
0003e0 90 28 8d bd f4 d5 7b 3d 6b ca 59 3c b1 3a 42 bd
       -0.06892502 0.06148334 0.013292889 -0.047419254
0003f0 e2 cd cb 3d 00 37 7e 3d 8b 76 91 bd f9 29 f4 3c
       0.099513784 0.06206417 -0.071026884 0.02980517

bias f4 [128]
000000 79 44 c2 3d a4 6a 0c bb 9f fb d3 3d bb 16 cf 3d
       0.094857164 -0.0021425867 0.10350727 0.10111757
000010 95 f9 8b 3d 4c 4e 5b bd 64 bf 89 bc c4 f7 56 3c
       0.06834713 -0.053541467 -0.016814895 0.013120595
000020 a3 13 31 3d 57 2b 1d 3c cd 70 93 3d 7f 19 97 bb
       0.043231618 0.009592853 0.071992494 -0.0046111937
000030 07 8b 72 3d 3c 8f 84 bd 64 6a 97 bc 66 c7 b9 3d
       0.059214618 -0.06472632 -0.018483348 0.09071235
000040 11 d8 6b bd dd ea 37 bc a3 c0 ed bc 41 c3 9a bd
       -0.057579104 -0.011225429 -0.02902252 -0.07556773
000050 81 f5 6e bd 99 81 78 bb fb 2f 9d bb d2 71 06 3d
       -0.0583396 -0.0037919043 -0.0047969795 0.03282339
000060 a9 9c 89 3b 99 0d 9e 3d 79 c2 8c 3d c8 0e 7b 3d
       0.0041995835 0.07717437 0.0687303 0.061293393
000070 37 6b 6c 3b c0 3f 1d 3d 3c 68 83 bd c2 d9 88 3d
       0.0036074647 0.038390875 -0.064163655 0.06682159
000080 69 4e 30 3d 24 d3 aa 3c df f7 37 bd b4 b4 c1 3d
       0.043043528 0.020852633 -0.044914123 0.094582945
000090 95 d6 b7 bd 1f f1 60 3d 28 cf b2 3d 18 fd 40 3d
       -0.08976475 0.05491745 0.08730918 0.04711637
0000a0 57 ad a4 3d 6d bb 54 bd 1a 88 b6 3d 40 8d b2 3d
       0.080408745 -0.051936556 0.08912678 0.087183475
0000b0 ac 98 aa bc ff 03 bd 3d e2 04 cc bc 66 d2 8e bd
       -0.020824753 0.09229278 -0.024904672 -0.06973724
0000c0 b8 12 c7 3d 5d 14 52 3d 43 02 49 3d ff d2 39 3d
       0.09720367 0.05128895 0.049074423 0.045367237
0000d0 cb 0b 0a bc fb 88 ad 3c ec fe 51 3d 54 b0 16 bd
       -0.008425663 0.021183481 0.051268503 -0.036789253
0000e0 14 00 a8 3d 64 39 04 3d 7d f3 f4 3c d9 48 b7 bd
       0.0820314 0.032281294 0.02990126 -0.089494415
0000f0 e3 dd d7 bc 59 2f 04 bd c0 bf 44 bd 7a a1 d6 3d
       -0.026350921 -0.032271717 -0.04803443 0.10480018
000100 de ca 01 3d 4e 43 8e bd ec f5 27 bd 54 96 24 bd
       0.03168761 -0.06946431 -0.041006014 -0.040182427
000110 d6 f7 a8 3d 76 f6 54 bd 80 85 62 3d 86 84 32 3d
       0.08250396 -0.051992856 0.055303097 0.043583415
000120 39 58 b4 bd 22 31 8c bd 6d 9b 00 b9 5f ad 95 3d
       -0.0880589 -0.06845309 -0.00012264932 0.073084585
000130 10 df 86 39 d3 ce 8b bd 9d 76 b8 3c f1 19 5e bc
       0.00025724666 -0.06826558 0.022517497 -0.01355599
000140 0e c7 81 bd 3b 1b 83 3c f2 31 be 3d 13 68 b4 bd
       -0.06336795 0.016004195 0.0928687 -0.08808913
000150 69 c6 13 3d b4 6f e9 ba 87 6c 23 bd bf 68 8f 3d
       0.03607789 -0.0017809779 -0.03989842 0.070024006
000160 91 ed 8d bc ba c4 d0 3d 8c 55 ca bd d8 f3 8b 3c
       -0.017325195 0.101937726 -0.09879598 0.017084047
000170 53 79 89 bb 71 fd 36 3d ff e8 bc bd 04 2f 40 3d
       -0.004195371 0.044675294 -0.09224128 0.046919838
000180 5c 9a 9b bd dc 5a 85 3d 6c 15 94 bd 35 f6 a6 3c
       -0.07597801 0.06511471 -0.072306484 0.020381073
000190 03 0d 8e bd 91 61 b5 bd 58 17 f8 3c 8a 21 9e 3d
       -0.069360755 -0.088565 0.030284569 0.07721241
0001a0 d2 f4 86 3d 06 80 95 bd 1b 5b 09 bd d6 fe bb 3d
       0.065896645 -0.07299809 -0.03353415 0.091794655
0001b0 5e f1 e4 3c 84 dd 59 3c 1d 80 2a 3d f2 a4 3e bd
       0.027947124 0.013297442 0.041626085 -0.046544023
0001c0 18 0b 8a bb 24 99 8a 3c e4 a1 a9 bd 97 7c ae bc
       -0.0042127483 0.016918726 -0.08282831 -0.021299643
0001d0 d5 d2 d0 3d f0 26 6c 3b 49 56 0a bd 92 61 4e bd
       0.10196463 0.003603395 -0.033773694 -0.05038602
0001e0 37 69 1c bb 99 ce 3a bc 3b e1 c6 bd 8d cd 6e 3d
       -0.0023866424 -0.011401796 -0.09710928 0.058301497
0001f0 4b 12 d7 bd 46 6f e8 bc e7 a9 7b bd 95 b2 19 bd
       -0.10501536 -0.028373372 -0.06144133 -0.037523825

weight f4 [128, 128]
000000 9f df 5e 3d b2 7e 18 be c8 bc 7b bc 92 bb ce bd
       0.05441248 -0.1489208 -0.015364833 -0.1009437
000010 f8 81 7a bb 8f 1b 5b 3d 56 ec dc 3d 15 ea 6d 3d
       -0.003822444 0.05349308 0.10787265 0.058084566
000020 f0 0a 50 bd af 26 bb bb 42 40 5d 3d 5a 50 e0 3a
       -0.05079168 -0.0057113986 0.05401636 0.001711379
000030 b8 ba f7 3d 62 34 7d bd a6 7b e7 bd 44 44 8e bd
       0.12096161 -0.061817534 -0.11302881 -0.069466144
000040 09 25 0d bd cf 63 a6 3d b8 fb d2 bd 1b cb d8 bc
       -0.034459148 0.08124506 -0.10301918 -0.026464036
000050 60 16 0e bb 5e 1b 1c 3d 98 45 7b bd 02 fc 15 3b
       -0.0021680817 0.038112037 -0.061345667 0.0022885804
000060 49 1d be bc 1c 03 8c bd a7 b7 5c bc 20 32 d5 3b
       -0.023207324 -0.068365306 -0.0134715205 0.0065062195
000070 ee 78 88 bd a3 7c 26 3d f2 c8 fb 3c 0c 3d c3 3c
       -0.066636905 0.040646207 0.030735467 0.02383282
000080 1c 3f 86 bb 27 ef 87 bd 44 6f af 3d c4 aa 2c 3d
       -0.0040968787 -0.066374116 0.08566144 0.042155042
000090 9e e6 f4 3c 1a bd 0d 3c 63 e0 67 bd da a5 8d bd
       0.029895123 0.008651042 -0.056610476 -0.06916399
0000a0 7d 49 67 bc ac 87 24 bd b0 08 5f 3d 6f e1 50 bd
       -0.014116642 -0.04016845 0.054451644 -0.05099624
0000b0 11 f6 ad 3b 8e af 36 3d 9d 57 3d bd c0 4a 66 bc
       0.0053088744 0.044601016 -0.046226133 -0.014055908
0000c0 7b 9c f1 3b 96 06 5a bc 57 d8 62 3d a7 94 29 3d
       0.0073733903 -0.013307234 0.0553821 0.04140153
0000d0 1a 6c 75 3d f7 0c 20 bd cd e2 89 bd 06 34 03 bd
       0.059917547 -0.039074864 -0.06732712 -0.032032035
0000e0 16 ab da bc a9 d2 d6 3d 9e d2 87 3c 45 7b 6f 3d
       -0.026692908 0.10489399 0.016579922 0.05846717
0000f0 96 7d 97 bd d9 98 8e 3c 71 af 35 3d f1 b2 9d 3d
       -0.073970005 0.017406868 0.044356767 0.07700146
000100 10 f0 a3 3d dc 45 51 3d 39 ff 75 3d 0e d9 16 bd
       0.08004773 0.051092014 0.060057852 -0.036828093
000110 a5 a2 3c 3d e4 6f 32 3b d1 9c cf bd 76 d9 da 3c
       0.046053547 0.0027227337 -0.10137332 0.026715022
000120 b3 63 a1 bb dc fb de 3c 0a d9 b1 bd 68 6e 6c 3c
       -0.004925215 0.027219705 -0.08683975 0.01443062
000130 89 8c 44 bd 67 82 c4 3b 0d 06 41 bd 03 cd c8 3c
       -0.047985587 0.0059969905 -0.04712491 0.02451182
000140 36 ac 7c bd 36 9e 57 3c b1 cf 26 3c 77 fd 79 3d
       -0.06168767 0.013160279 0.010181353 0.06103274
000150 91 10 bb 3d b7 e0 6d bd 1d e3 3b 3d 57 21 a1 bd
       0.09134019 -0.058075633 0.04587089 -0.07867687
000160 40 0f 1f bd 11 00 18 bd 8c 23 de bd b2 61 18 3d
       -0.038832903 -0.03710944 -0.10846624 0.037202545
000170 73 a4 0a bd 43 58 d3 bc f2 50 b9 3d 94 14 be 3c
       -0.033848237 -0.025798922 0.09048642 0.023203172
000180 10 69 36 3d 75 55 a9 3c 18 d1 74 bd a1 21 15 bd
       0.04453379 0.020670632 -0.05976972 -0.036409024
000190 32 91 fb 3d 83 8d 02 be e4 fd 2e be c6 52 13 3d
       0.12283553 -0.12749295 -0.17089039 0.03596761
0001a0 6d 6d 3d 3d fd c8 95 3d b5 55 6f bc e0 1f 03 3c
       0.046246935 0.07313726 -0.0146078365 0.008003205
0001b0 d3 07 96 bd f2 88 42 bd 98 a5 88 bd 01 b8 a5 bd
       -0.07325711 -0.047493882 -0.066722095 -0.080917366
0001c0 41 98 4f 3d 51 63 ac 3d 68 72 b0 3d 11 e8 14 bd
       0.05068231 0.084173806 0.08615571 -0.03635413
0001d0 8c 0c 9d 3d c8 57 9c bc f6 bc 7a 3d cb ef a5 bd
       0.07668409 -0.019084826 0.061215363 -0.081023775
0001e0 e3 a4 7a bc 99 5a d2 bb 89 70 f9 bb e4 46 08 3d
       -0.015298101 -0.0064194915 -0.007612292 0.03327073
0001f0 f8 db 79 bc 76 96 4e bd 39 b3 96 3d 08 aa 96 3b
       -0.015250199 -0.05043646 0.07358403 0.004597906
000200 36 01 a2 3c 88 9d 97 bd 19 0a 79 3c 11 77 b9 3d
       0.019775968 -0.074030936 0.015200161 0.09055913
000210 e7 1f 23 3d ed f6 19 3d 34 e3 7e bd d1 da aa 3d
       0.039825346 0.037589002 -0.062228397 0.08342517
000220 13 b4 91 3b 0f 68 23 3d f9 ae a0 3c ef 76 56 bd
       0.0044465153 0.03989416 0.019614683 -0.052359518
000230 79 a2 2c 3c 53 06 0c 3d ec 29 18 be 29 bf 5b 3c
       0.010536783 0.03418572 -0.14859742 0.013412275
000240 29 41 bc bd 65 37 28 3d e8 a0 b2 bd 63 01 02 be
       -0.09192116 0.041068453 -0.08722097 -0.12695841
000250 31 9f c1 bc d6 0c 48 3c 02 be dd 3d da 1f 8a 3d
       -0.023635479 0.012210092 0.10827257 0.067443565
000260 a1 ce d3 3b 69 0a 93 3d 5b da ba 3c c0 a4 98 bc
       0.006463841 0.0717972 0.022809198 -0.018633246
000270 aa 37 63 3a c4 d8 44 bb f7 1b b6 bc 81 4b 90 bc
       0.00086676574 -0.003003643 -0.022230132 -0.017614128
000280 50 fc 77 bd 63 1f 90 bd 57 73 3b 3c 97 f4 f1 3c
       -0.06054336 -0.070372365 0.011441073 0.029535575
000290 48 d5 db bd a6 2d 96 3c 00 9f 0d 3e e5 32 23 bd
       -0.107340395 0.018332314 0.13830185 -0.03984346
0002a0 8a 2c 86 bc 84 b3 09 3d 79 74 71 bd d6 f4 74 3c
       -0.01637866 0.033618465 -0.058948968 0.014950952
0002b0 b6 17 64 bd cf cb d1 bd da c7 98 bd 09 ae 05 3d
       -0.055686675 -0.102439515 -0.07459994 0.032636676
0002c0 3b b8 e1 3d 37 81 ba bd 7c 31 38 bd 6c ad 4b 3a
       0.11021467 -0.09106677 -0.044969067 0.00077696773
0002d0 9e 64 44 3b 1e 30 52 bd c7 b3 12 bc a5 28 80 3d
       0.00299672 -0.05131542 -0.008953995 0.06257752
0002e0 94 cd 0d be 18 85 50 3b a6 a7 07 3e 6f 36 b0 bd
       -0.13847953 0.0031817611 0.13247547 -0.086041324
0002f0 15 e6 33 bd 14 9b 57 bd 0c ec ea ba 97 db 6e bc
       -0.043920595 -0.05263813 -0.0017923131 -0.0145787215
000300 6c 74 a7 3c 80 f6 09 bd 6f 1a 38 3c 11 53 b7 bc
       0.020441256 -0.033682346 0.011236771 -0.022378476
000310 11 48 3d bc 68 b5 71 bd 92 86 d5 bd a2 56 5a 3d
       -0.0115528265 -0.059010893 -0.10426058 0.053305276
000320 b0 96 aa 3d 71 19 58 bc a0 9a 8c bd 4d 7a 98 3d
       0.083295226 -0.013189659 -0.0686543 0.07445202
000330 a9 76 0c be 50 b2 42 bd f4 de 76 3d 67 9b 37 bd
       -0.1371714 -0.047533333 0.06027122 -0.044825938
000340 28 7b 9c bd f7 d4 2e 3d 1c b4 e4 bd e7 0a f5 3d
       -0.07640678 0.042683568 -0.11167166 0.1196497
000350 6f d6 aa 3d 25 b3 86 bd 03 e2 8b bd 9c c3 c3 bd
       0.08341681 -0.06577138 -0.06830218 -0.09558794
000360 78 1b ab bd 02 ea be 3b c3 79 c3 3c 97 11 47 3d
       -0.083548486 0.0058262357 0.023861771 0.04860076
000370 bc 6b 20 bd bd b7 aa bd 67 ba 66 bd 31 cf 2c 3d
       -0.039165244 -0.083358265 -0.05633011 0.04218978
000380 de 96 82 3d 03 cb 35 3d e9 0f 48 bc c7 9d a4 bd
       0.06376432 0.04438306 -0.0122108245 -0.08037906
000390 25 0e 07 3e 0f 27 8c bd 51 54 99 bd e5 bc a4 bc
       0.1318899 -0.06843387 -0.07486785 -0.020109603
0003a0 08 1e b7 bd c3 ac b8 bc 54 10 ad 3b 0d e0 7c bd
       -0.08941275 -0.022543317 0.0052814875 -0.06173711
0003b0 78 3f 49 bd c9 ca e0 ba 01 64 ad 3c df 17 18 3d
       -0.049132794 -0.0017150278 0.02116585 0.03713214
0003c0 8f b6 bb 3c 63 7c af 3d e8 9f 33 3d 79 be 0e bd
       0.0229142 0.08568647 0.04385367 -0.034849618
0003d0 af 1d ab bc 2f 00 c5 bd b3 8c 20 3e f8 dc 91 bb
       -0.020888178 -0.09619176 0.15678672 -0.0044513904
0003e0 6a b4 0f 3d 13 86 47 3d 1f fd f5 3c ff d2 cf bd
       0.035084166 0.048711848 0.030027924 -0.10147666
0003f0 75 1c a0 3d b5 bb c5 bd 77 c3 82 3c 01 71 40 bd
       0.07817928 -0.09654943 0.015962346 -0.04698277

bias f4 [128]
000000 26 0f c6 3d 29 81 1e bd 72 c1 fa 3c 97 66 07 bd
       0.09670858 -0.038697395 0.03060982 -0.03305682
000010 51 d4 e8 b9 41 da 91 bd 96 29 4e 3d 93 65 54 3d
       -0.00044408676 -0.07121707 0.05033263 0.05185468
000020 3a bd 9c 3d 02 1d be 3d 2a ea 28 bd 81 05 e8 bc
       0.076532796 0.092828766 -0.04123894 -0.028322937
000030 56 34 b4 3d bb fc 26 bd 95 9a 80 3a cf 0c 99 bc
       0.08799045 -0.040768366 0.0009811694 -0.018682865
000040 dd 81 28 3d 95 e0 d2 bb 21 9d 95 3c ec 06 63 3d
       0.041139472 -0.0064354637 0.018263401 0.055426523
000050 30 c5 da bc 73 68 bb 3d 31 85 5d bd 83 4d b3 3d
       -0.026705354 0.091507815 -0.0540821 0.087550186
000060 32 c8 3b bc 33 6f 33 bc dc 21 37 3d 7b da d4 bb
       -0.0114613045 -0.010951805 0.044710025 -0.0064957715
000070 f0 7c 4f 3d e1 db 81 3d ff f5 0a bd bb 7b 94 bc
       0.05065626 0.06340767 -0.033926006 -0.018125406
000080 12 80 5d 3d 0f 68 de bc da 08 79 3c f7 80 85 3d
       0.054077215 -0.027149228 0.015199864 0.06518739
000090 8c b5 ac bc 75 ca 04 3d e4 7d 99 bc df fb b2 bc
       -0.021082662 0.03241964 -0.018736787 -0.021848617
0000a0 cc e1 10 bd d5 ec a9 ba e7 b0 14 bd 09 97 4c bb
       -0.035371587 -0.0012964258 -0.03630152 -0.0031217954
0000b0 dd bc 44 bd 37 aa ab 3d e1 3f 1f bd 86 ef 35 bd
       -0.048031677 0.08382075 -0.03887928 -0.04441788
0000c0 c0 38 f2 3d 51 f2 06 bd 6d a5 9d 3d e5 dc 06 3d
       0.118272305 -0.032945935 0.07697568 0.032925505
0000d0 3f b5 a5 3d 58 36 b5 bd d1 26 0f 3d 7d 25 87 bd
       0.080912106 -0.08848256 0.034949128 -0.06598947
0000e0 dc 12 22 3d 4c 75 9b 3b 19 16 1e bd 09 af cc 3d
       0.039568767 0.0047442075 -0.038595293 0.09994323
0000f0 6c 6e b4 bb 1a d0 b5 bc d4 30 aa 3c a0 f4 c1 3d
       -0.0055063274 -0.022193957 0.020775236 0.09470487
000100 a1 32 c4 bc 75 37 06 3e d9 c9 d1 bc 97 c3 a9 3d
       -0.023949923 0.13107093 -0.025608944 0.08289259
000110 02 21 cf 3d b7 9b 44 bd 03 87 81 bd 20 85 1a 3c
       0.101137176 -0.048000064 -0.063245796 0.009431154
000120 d6 2d 6f 3d a7 6c 1c 3d ef 49 71 bb ab 9c 6e bb
       0.058393322 0.038189556 -0.003681775 -0.00364093
000130 f7 88 c0 3d a1 0a 5c 3c 81 59 75 bd 52 91 d9 3d
       0.09401124 0.0134302685 -0.05989981 0.10623421
000140 05 04 f0 bc ba 81 ff 3c c3 25 c2 3d ba 71 60 bc
       -0.029298792 0.031189788 0.09479859 -0.0136989895
000150 b5 9f 92 3d f3 4d bb 3d 7c 3e d2 bc 72 b4 47 bc
       0.07159368 0.09145727 -0.02566456 -0.012189018
000160 f6 88 a4 3d d3 12 16 3c 39 07 8d 3d 1f f0 ae 3c
       0.08033936 0.0091597615 0.06886143 0.021354733
000170 c5 59 bb 3d f7 84 13 bd 71 5d 1f 3d e1 74 ce 3d
       0.091479816 -0.036015477 0.038907472 0.10080887
000180 30 a3 56 bd 78 ae a8 3d 4c 49 28 3d 6c 4f 63 3d
       -0.05240172 0.08236402 0.041085526 0.055495664
000190 9f c4 88 bd a9 d5 8c 3d 61 a9 bd 3d d0 6e ab 3d
       -0.066781275 0.0687669 0.09260822 0.08370745
0001a0 2c 8d 0f bd a6 af c6 bd 20 10 40 bd 43 e4 b7 bc
       -0.03504674 -0.09701471 -0.046890378 -0.02244771
0001b0 a1 2f 97 3d e0 ba e1 b9 6e 31 95 3d 42 eb 60 bd
       0.07382131 -0.00043054577 0.072848186 -0.05491186
0001c0 6b 80 db bc d8 f6 cc 3b 9f b3 b9 3d 69 ae 84 3d
       -0.026794633 0.006255012 0.09067463 0.064785786
0001d0 c9 63 cb bd 32 ce db 3d 89 04 a5 3c cc 6b 8f ba
       -0.09931142 0.10732688 0.020143764 -0.001094216
0001e0 25 e7 55 3d fd 98 28 ba 95 f8 cc bb 59 5e 9e bc
       0.05222239 -0.00064314884 -0.006255219 -0.019332098
0001f0 43 ce 53 3d 72 79 b4 3d e3 bf 53 3d e7 9b 2b 3a
       0.05171038 0.08812226 0.05169667 0.00065463636

weight f4 [128, 128]
000000 e8 88 74 3c 9d 7a d3 bc 85 f4 ab 3d 1f f4 40 3d
       0.014925219 -0.025815303 0.08396248 0.047107812
000010 8e 5b d9 bb a6 3a 54 3d ef 81 ce 3d 60 f9 98 3d
       -0.0066332286 0.051813744 0.100833766 0.074694395
000020 13 8c 90 bd 09 c5 97 bd b4 d8 2d bc c7 b1 d0 3d
       -0.07057967 -0.07410628 -0.010610748 0.10190158
000030 e1 b6 3a bc 9f 6e 93 bd 36 44 2a bd 8b 82 4b bd
       -0.011396141 -0.07198834 -0.041568957 -0.049685042
000040 4f 74 a1 3b 49 68 04 3d a2 19 90 3d 44 86 fd 3b
       0.004927195 0.032326017 0.07036139 0.007736953
000050 a9 ee 23 3c 68 10 15 3d 0d 6c ca bc 29 22 ba 3d
       0.0100056315 0.0363926 -0.024709726 0.09088547
000060 28 b5 df 3d 99 20 7e bd b6 64 53 bd 17 37 8d bd
       0.10923225 -0.062042806 -0.051609717 -0.06895273
000070 63 37 07 3e ee 97 24 bd 69 4f 73 bd 06 de 1d bd
       0.13204722 -0.040183954 -0.059401903 -0.038541816
000080 30 1b 51 bd c4 0a c6 3d 47 e8 4a bc be 8a 8e bd
       -0.05105132 0.09670022 -0.012384481 -0.06960057
000090 1e 42 73 3d 8e d3 58 3b 81 50 da bb 30 7c f5 bd
       0.059389226 0.003308508 -0.006662429 -0.119865775
0000a0 59 7e bc 3c 3a 69 27 3d 2e 31 9d bc ed 3f ae 3d
       0.023009466 0.040871836 -0.01918849 0.085082866
0000b0 74 6f 1c bc 58 f0 2b 3c e0 89 b2 3c 00 86 e9 bd
       -0.009548057 0.010494314 0.02179426 -0.114025116
0000c0 60 f5 89 3d 39 df a3 bc e4 99 52 bd b4 c4 62 3d
       0.06736255 -0.020003902 -0.051416293 0.055363372
0000d0 0e 5e 04 3c 6b 09 e3 3d 89 0b 1e 3d ea 65 b6 3d
       0.008079065 0.11085781 0.03858522 0.08906157
0000e0 cc 76 0d bd ea bf 4a 3d e4 c5 84 3d 34 4e 04 bd
       -0.03453712 0.04949943 0.06483057 -0.032301143
0000f0 c8 71 ae 3d 41 55 85 bd be e2 f1 3c 58 f3 1f 3d
       0.08517796 -0.065104015 0.029527064 0.03905043
000100 c1 d1 6c bd ac 3c 06 3d 30 0e c0 3d 9f 19 91 bd
       -0.057817224 0.032772705 0.09377706 -0.07084965
000110 92 ef d6 3d 3e d9 58 3b 5e 8c 00 3e 6c 85 43 bd
       0.10494913 0.003308847 0.12553546 -0.047734663
000120 01 98 bf 3d 3c 8c 0a bd 96 ae 7d 3d 29 10 39 3c
       0.09355164 -0.033825144 0.061934076 0.011295357
000130 3e 26 1c ba 38 51 0d bd d2 ae 2a bd 38 58 06 3e
       -0.0005956626 -0.034501284 -0.041670628 0.1311959
000140 56 0b 82 3d 82 8a 91 bc 88 27 a2 3b 3d b2 df 3c
       0.063498184 -0.017766241 0.00494856 0.02730667
000150 ee 83 47 3e 2f 2c b4 3d 61 d9 0c be cc 9e 9c 3d
       0.19483921 0.0879749 -0.13754798 0.076474756
000160 18 ad 17 bd b8 af 73 bc 86 a0 b0 3d ae c2 53 bc
       -0.03703031 -0.014873438 0.086243674 -0.012924833
000170 99 a6 1a 3e 90 9b c4 bc 72 96 21 bb 92 5b 1b bd
       0.15102614 -0.02399996 -0.0024656323 -0.037929125
000180 8c 10 b6 3d 99 a3 32 bd fb 32 f8 bd a1 b9 bb bd
       0.08889875 -0.04361305 -0.12119099 -0.09166265
000190 c7 ff c1 3b a1 62 b2 3d a5 48 b8 3d a0 b6 fe bb
       0.0059203836 0.08710218 0.08998231 -0.0077732354
0001a0 00 51 78 3d 62 75 6e bd 6b d0 f8 bc 60 01 80 bc
       0.060624123 -0.058217414 -0.030372819 -0.015625656
0001b0 fb 15 42 bd 4f ca b9 3d 5f 83 67 bc 2f 4b 29 bd
       -0.047384243 0.090717904 -0.014130442 -0.041331466
0001c0 de 12 a6 3d a6 a2 2e 3d c3 e3 fc 3c 2d 23 49 bc
       0.081090674 0.042635582 0.030870324 -0.012276453
0001d0 ff 72 2a bc 27 14 c4 3d 1b 83 55 bd aa fe 9b 3d
       -0.010403394 0.09574156 -0.052126985 0.07616933
0001e0 33 22 b8 bc 7f ef bf 3d f2 c2 2a bc 2b 7d e1 3c
       -0.022477245 0.09371852 -0.010422455 0.027525505
0001f0 44 32 9c bd 6c f9 c1 3d ef 01 95 3d cb 8f ca 3c
       -0.07626775 0.094714016 0.072757594 0.024726769
000200 12 51 ec 3c 7a 22 7c 3c 44 dd a7 bd b4 c8 fe 3b
       0.028847251 0.015389079 -0.081965 0.0077753905
000210 bf f2 01 bd bc 99 8b 3d 96 2e af bd 7a 01 db bb
       -0.03172564 0.06816432 -0.085538074 -0.0066835256
000220 ba a7 2f bd 3f 85 a9 bd fc 07 72 bd 78 74 b1 bd
       -0.042884566 -0.08277368 -0.059089646 -0.08664793
000230 61 a4 a6 bc f1 84 a0 3d 49 53 ba 3c b0 c0 c1 bc
       -0.020342054 0.078378566 0.022744792 -0.02365145
000240 f3 39 88 bd 82 14 80 bd 1b 94 3e bd fa ff 14 bd
       -0.06651678 -0.062539116 -0.046527963 -0.03637693
000250 27 39 1b bd 17 ab 43 bc 91 3a 66 bc 75 d7 8a bc
       -0.0378963 -0.0119426465 -0.014052049 -0.016948441
000260 3b c7 8f bd e5 ff 9a bd 04 e1 87 bd 3b 91 cb 83
       -0.07020422 -0.07568339 -0.06634715 -1.1964611e-36
000270 28 6c 97 3d 21 ff 6a bd 41 15 3e 3d 57 eb a6 3d
       0.07393676 -0.057372216 0.046406988 0.08150356
000280 95 9d 23 3d 03 d5 9d bd e3 80 c7 bd d5 6b 04 3c
       0.039945204 -0.077066444 -0.0974138 0.00808235
000290 72 69 a3 bd ba cb d1 3b 76 28 68 3c 77 e4 5c bb
       -0.079790965 0.00640246 0.014169803 -0.0033705512
0002a0 04 a0 0e bd e8 82 3f 3d 7c 7b 68 3d 2f c4 96 bd
       -0.03482057 0.0467557 0.05675839 -0.07361638
0002b0 44 a8 f1 bb a0 90 62 bd 06 20 81 bc 7d f5 c1 3c
       -0.007374795 -0.055313706 -0.01576234 0.023676628
0002c0 be 0c c5 bc c7 95 15 3d 6e 93 8c bd c6 f4 05 3b
       -0.024053928 0.036519792 -0.068640575 0.0020440086
0002d0 1d b0 04 bd 2a f9 81 3d 86 94 bd bc d7 c5 ef bc
       -0.032394517 0.063463524 -0.02314211 -0.029269142
0002e0 f9 77 ed 3c 27 d2 3b bd 1d 68 4d bc 02 7a 93 bb
       0.028987871 -0.045854714 -0.01253703 -0.0045006284
0002f0 6c d2 81 3d 44 c5 91 bd c8 85 34 bc e7 f3 f5 3c
       0.06338963 -0.071177036 -0.011018224 0.030023528
000300 bc 90 14 bc 2a 38 97 3d cb 06 76 3c 84 a6 19 bd
       -0.0090677105 0.07383759 0.015016268 -0.037512317
000310 52 65 fc 3c 1b 4b 69 bd 23 7d 03 bb 87 87 64 bd
       0.030810032 -0.05695639 -0.00200636 -0.05579331
000320 6e 46 a1 bd 16 fa 58 3d 5b d2 8b 3c 13 49 78 3c
       -0.078747615 0.052972876 0.017068079 0.015154141
000330 55 5e 66 3b ac a4 8b bd ee 71 90 3d 58 ed 3a bc
       0.003515144 -0.06818518 0.0705298 -0.011409126
000340 38 23 2e 3d 1d 41 20 3d 11 68 94 bc 01 79 52 3d
       0.042514056 0.039124597 -0.018116029 0.05138493
000350 f2 7c 67 3d 54 ae a0 3d 3f 14 2e bd 72 69 fc 3c
       0.05651564 0.078457505 -0.042499777 0.030811999
000360 04 a9 7e 3d 2c 80 bc bd 1c fe a3 bc 1e 28 1a b9
       0.062172905 -0.09204134 -0.02001863 -0.0001470153
000370 ea 50 a6 bc c7 47 33 3c bd bb e9 bc 93 e6 03 bd
       -0.020302255 0.010942406 -0.028531903 -0.032202315
000380 dc 50 8b bd e2 af a9 bd 23 4f 3a 3a b1 b3 63 3d
       -0.06802532 -0.082855 0.0007107129 0.05559129
000390 f6 93 00 bb d4 15 0e bd 01 b7 e9 bc 1d af 22 3d
       -0.0019619442 -0.034688786 -0.028529646 0.039717782
0003a0 7e 58 6f 3d 50 55 4d 01 2d 07 a8 bb ed b0 18 3d
       0.058434002 3.7713762e-38 -0.0051278085 0.037278105
0003b0 91 7a b8 3b 04 84 49 bd c7 05 83 bd a1 41 fd b9
       0.0056298454 -0.049198166 -0.06397586 -0.00048304818
0003c0 4d 42 73 3d d1 b4 07 3d 9b c5 47 3c ba 1c ce 3c
       0.0593894 0.033131424 0.012193109 0.025160182
0003d0 77 22 77 3d c1 97 18 bd 7c c9 36 3d 5f 7d 85 bd
       0.060335603 -0.0372541 0.044625744 -0.06518053
0003e0 89 75 47 bd 8e b2 37 bd ce e3 7f 3d 99 3a 66 bd
       -0.048696075 -0.044848017 0.06247311 -0.056208227
0003f0 ee 5f bd bd 72 0c 38 3d cc 8b 1f 3d 08 64 a2 bd
       -0.09246813 0.044933744 0.03895168 -0.07929236

bias f4 [128]
000000 3b 37 8d 3d 96 4f 66 bd 32 32 d0 bc 6f f6 3f 3d
       0.068953 -0.056228243 -0.02541456 0.046865877
000010 0b 75 f0 3c 7d 9a 38 bb 9c d8 0a 3e da 42 43 bd
       0.029352685 -0.0028168254 0.13559192 -0.047671176
000020 3c b7 b7 bd 67 a5 b7 3d bc 73 82 bd 82 56 2d bb
       -0.08970496 0.08967095 -0.06369731 -0.0026449268
000030 49 1d 39 3d 0d fe ca bb bc 83 8e 3d 88 98 52 bd
       0.045193944 -0.006194836 0.0695872 -0.051414996
000040 5a 15 88 3b b9 eb d1 3d aa 73 15 bd ba 78 77 bc
       0.004152936 0.10250039 -0.03648726 -0.015104467
000050 14 b2 af 3c 40 40 29 3c 9a e8 16 3c 48 1d 7e 3d
       0.021447219 0.01033026 0.00921073 0.062039644
000060 36 bd 80 bd 56 92 da 3d f8 e5 b8 bc 68 fb e5 bc
       -0.06286089 0.106724426 -0.022570595 -0.028073981
000070 6c 47 a9 3d 7a 33 9e bc e0 1d a6 3b 58 48 90 bb
       0.08265576 -0.019311655 0.0050694793 -0.0044031553
000080 f4 82 92 bc 3f 1e cb bd e2 4b c6 3d 73 d0 f7 3d
       -0.017884709 -0.09917878 0.09682442 0.121003054
000090 a7 da fb 3b c5 8c fe 3d 42 6e a6 3d b3 bd 3c ba
       0.0076859775 0.124291934 0.08126499 -0.0007199898
0000a0 9f 89 82 bd db 89 43 3d 88 f2 9e 3d 6e bf df bd
       -0.063739054 0.04773889 0.07761103 -0.10925184
0000b0 9d 5d 01 3c d3 cf 92 3d 0a 56 0d 3e 3d 86 49 3d
       0.007895854 0.071685456 0.13802353 0.049200285
0000c0 bb 42 a3 3d 3a 34 63 3d 00 6f 82 3d 55 db 19 bc
       0.07971712 0.05546973 0.06368828 -0.009390672
0000d0 be eb 5c 3d d1 41 87 3d 1e 50 18 bd f5 f8 bc bd
       0.05393576 0.0660435 -0.03718578 -0.09227172
0000e0 f2 f4 d0 3b 40 44 f0 3c f2 5e dc 3d 85 57 af 3d
       0.006376856 0.02932942 0.10760297 0.08561615
0000f0 61 d9 81 3a 52 b6 a8 3d 8d 72 3b 3c 59 87 d5 3d
       0.0009906703 0.082379 0.011440885 0.10426206
000100 c1 37 68 bd ec e1 5b 3d 5d 20 ac 3d 2a fb 00 3e
       -0.056693796 0.053682253 0.0840461 0.12595811
000110 5e be 66 bc cb 86 44 bd 6c 1e db 3c 1a d1 90 3d
       -0.014083473 -0.04798011 0.026747905 0.07071133
000120 7b 6f 2e 3d 56 2c 6e 3d f7 b4 b6 3c e5 40 0c 3d
       0.042586785 0.05814775 0.022303088 0.034241576
000130 39 58 8a 3c fa 05 db 3d 6f c0 25 bd 91 e4 e1 3d
       0.016887771 0.10694499 -0.040466722 0.11029924
000140 a5 27 5e bc 78 85 e7 3d 6b b2 dc 3d 9f 68 fe 3c
       -0.013559257 0.11304754 0.10776218 0.031055747
000150 92 52 17 3d 83 e4 c0 3c 76 ba de 3c 13 15 08 3d
       0.03694398 0.023546463 0.02718852 0.033223223
000160 f3 44 ac 3d 22 2c c6 3d ed 35 05 3e ac 0b e1 3c
       0.084115885 0.096763864 0.13008852 0.027471386
000170 c0 50 5c bd 0a 1a a5 3d 84 5d e8 3d 52 7a 86 bc
       -0.053787947 0.08061607 0.11345962 -0.016415749
000180 1b 56 be 3d 28 2a 54 bd d9 81 56 3d 67 52 5c bd
       0.09293767 -0.051798016 0.052369926 -0.053789522
000190 02 f7 5e 3d ec 54 33 3d c7 1c a7 bc 0b fa 96 3d
       0.054434784 0.04378216 -0.020399464 0.07371911
0001a0 18 e5 47 3c 84 c1 f6 3d e6 57 b1 3d fd f2 0c 3d
       0.012200616 0.12048629 0.086593434 0.03441142
0001b0 66 1e 66 3d 2f f7 c2 3d 2e 24 0a 3d da 6c e9 3d
       0.056181334 0.09519803 0.03372591 0.11397715
0001c0 7f f3 7e 3c cb 30 b3 3d 12 cd 53 3d 79 a9 c0 bd
       0.015560984 0.08749541 0.051709242 -0.09407324
0001d0 76 02 f7 bc 9b bb b0 ba 11 b2 45 bd 46 fb 6c bd
       -0.03015254 -0.0013483645 -0.04826552 -0.05785682
0001e0 23 1a 93 3d e8 90 cc 3d 7c f8 88 3d dd d3 cc bc
       0.071827196 0.09988576 0.0668802 -0.025003368
0001f0 fe 59 08 3d 59 09 12 3d 91 14 74 3d 7a 90 09 3e
       0.03328895 0.035653446 0.059589926 0.1343402

weight f4 [1, 128]
000000 cf ef ad bd ef 0d de 3c ac d4 34 3d 62 19 8b 3c
       -0.084930055 0.027106253 0.044148132 0.016979877
000010 0f 7f 87 bd 90 ff 7a 3c fd 25 d5 bd 7b 66 cc 3d
       -0.066160314 0.01531972 -0.10407636 0.09980484
000020 04 83 a1 3c 0b f0 03 3e 14 a9 a7 3b cc a8 29 bd
       0.019715793 0.12884538 0.005116591 -0.041420743
000030 d3 e6 ca 3d 86 f1 a9 bd 1a f9 99 3d 78 89 52 3d
       0.099073075 -0.0829802 0.075182155 0.05140063
000040 a9 04 b9 bd df f8 03 bd d0 da 82 3d e7 63 af bd
       -0.09034092 -0.032219764 0.063893914 -0.08563977
000050 5b 5d 93 bd 6a 75 e0 bc 37 53 7c bd 0f 1b a4 3c
       -0.071955405 -0.027399737 -0.061602797 0.020032434
000060 c2 b5 db bd 72 23 00 be 5c ea 94 3d c7 e6 0f bd
       -0.10728027 -0.12513521 0.07271263 -0.035132196
000070 20 57 c9 bd 54 5b 8a bd 7d cf c9 bd 7d 26 7e bd
       -0.09831071 -0.06755701 -0.098540284 -0.062048424
000080 2a 52 d2 3d d5 e2 5d 3d 98 04 a6 bd ac 71 a2 bd
       0.10269578 0.054171402 -0.08106345 -0.079318374
000090 49 e8 86 bd 34 76 5c bd d4 25 dd 3d 9e 51 b6 3c
       -0.06587274 -0.053823665 0.10798231 0.022255715
0000a0 8f 54 75 3d bc 1f d4 3d 72 66 eb 3d 63 b7 24 3d
       0.059895094 0.10357615 0.11494149 0.040213954
0000b0 53 13 e4 bc fe 87 d2 3d 8d 00 81 bd 00 f1 cc bc
       -0.027841246 0.10279845 -0.06298933 -0.025017262
0000c0 28 20 38 3e 58 c7 be bd 77 d9 6f bd 0a d2 3a bd
       0.17981017 -0.093153656 -0.058557 -0.045610465
0000d0 63 6e 87 3d a4 d8 ef bc 9a f2 20 3d d0 52 2e 3d
       0.066128515 -0.029278107 0.039293863 0.042559445
0000e0 0e 32 d1 bd 4b c9 8e bd 03 5e cc bd ef 4a a0 bd
       -0.10214625 -0.06971987 -0.09978869 -0.078267924
0000f0 26 d7 9e 3d b8 48 e6 3d 2f 47 b8 bd 52 d9 92 bd
       0.0775588 0.11244339 -0.08997952 -0.07170357
000100 79 f8 8e 3d 07 a9 d6 bd b0 75 25 3e 08 35 68 bd
       0.06980986 -0.10481458 0.16158175 -0.0566912
000110 93 e0 fd bb 23 bc 8c 3c 94 b9 53 bd 94 43 13 3e
       -0.0077477186 0.017179554 -0.051690653 0.14381248
000120 e1 c4 95 3d 10 a1 05 be 6d 91 27 3e 0b 87 d6 3d
       0.07312942 -0.13049722 0.1636407 0.10474976
000130 08 85 89 bb 5b f0 37 bd 36 aa 23 3d 7a e0 fc bc
       -0.0041967668 -0.044906955 0.039957248 -0.030868758
000140 2b 27 b9 bd ba 1a 85 bd 4e 54 a4 bd 71 27 49 bd
       -0.09040674 -0.06499238 -0.08023892 -0.04910988
000150 ef 90 a5 bd 13 d0 8e bd 6d 0c be bd 62 14 15 3d
       -0.080842845 -0.06973281 -0.09279714 0.03639639
000160 52 c3 6a 3d da 7d d4 bd 4a a2 ce bd ce a7 84 bd
       0.05731518 -0.10375567 -0.10089548 -0.06477319
000170 d4 62 db 3a 85 58 0b bd da 47 07 bd c1 66 55 bd
       0.0016737827 -0.034019966 -0.033027507 -0.052099947
000180 99 1e 0d bd 4e 87 80 3b ae 76 3e bd 74 a1 90 3c
       -0.03445301 0.0039223796 -0.0464999 0.017655112
000190 b1 28 ea bd e3 43 85 3d 61 03 14 3b c4 5f a3 3d
       -0.114335425 0.06507089 0.0022585022 0.0797725
0001a0 8e d7 8d bd 3a 9e 13 3e cb 9c eb 3d 8d a7 9a bd
       -0.069258794 0.14415827 0.11504515 -0.07551489
0001b0 eb aa a2 3d df 55 f4 3d f1 97 57 3d e0 26 e0 3d
       0.07942756 0.11930441 0.052635137 0.10944915
0001c0 3b 1e 84 bd bb 92 6e bd 07 3a 06 3e 62 f8 37 3d
       -0.064510785 -0.0582454 0.13108073 0.04491461
0001d0 45 db b9 bc 2a 87 d6 bd d7 19 b1 3b f2 d2 90 3d
       -0.022687564 -0.10474999 0.0054046917 0.070714846
0001e0 f4 f8 93 3d 75 e2 c6 bd d5 fa 4b 3d 3f 83 fd 3c
       0.072252184 -0.09711162 0.04979976 0.030946372
0001f0 18 cd ae bd 86 e2 97 bd 14 dd 85 3d 32 86 d1 bd
       -0.08535212 -0.07416253 0.06536308 -0.10230674
