AutogluonModels/ag-20220702_011935/models/NeuralNetTorch_BAG_L1/S1F5/net.params (torch, 211783 bytes, 9 tensors)

weight f4 [128, 14]
000000 1d d4 ca bb 89 0a 9a 3d d6 db 76 be b3 a9 1c be
       -0.0061898367 0.07521541 -0.24107298 -0.1529911
000010 a0 55 cc bd 2a dc 59 3d ce a1 cc bb eb 73 80 3e
       -0.09977269 0.05318848 -0.0062448746 0.25088438
000020 e0 98 59 bd 3b 5a e4 3d 2e 61 52 bd 16 21 4a bd
       -0.05312431 0.111500226 -0.05136221 -0.04934796
000030 5d 39 b5 be 32 6d 03 be 4a 16 81 bd ca ab 7e 3c
       -0.35395327 -0.12834623 -0.063030794 0.015543887
000040 f0 f7 de 3d 3a 94 6b 3e 62 6b 1b be 2a df 08 be
       0.10887134 0.23005763 -0.15177682 -0.1336638
000050 06 75 11 3e 4c 3e 64 3e 4a b5 40 bc 53 cc 39 3e
       0.14204797 0.2228939 -0.011761973 0.1814435
000060 d2 c9 96 bc 19 ee 40 3c d6 33 84 3e 1f 41 8a be
       -0.018406782 0.011775517 0.25820798 -0.27002808
000070 08 e3 1e be 63 3b e9 bd 71 c2 16 be 0d 72 5f 3e
       -0.15516293 -0.1138828 -0.14722611 0.2182085
000080 60 3e 7b be f3 66 16 be 15 45 27 be 42 13 83 be
       -0.24535513 -0.1468771 -0.16334946 -0.2560063
000090 0a 7a 13 be 6f c5 3e 3e a5 15 fb 3d bb 1a c5 3d
       -0.14402023 0.18630002 0.12259988 0.09624239
0000a0 09 89 78 bd 0f ff 13 be 15 97 f1 3c a2 7e b7 be
       -0.060677562 -0.14452766 0.029490987 -0.358388
0000b0 2c d6 8d be 6f 14 d6 bd 75 8b fd 3d 33 20 d5 3d
       -0.27702463 -0.10453116 0.12380115 0.10406532
0000c0 49 0b e6 bd cd 7c 96 bc 54 9b 6b 3e 09 07 83 3e
       -0.11232621 -0.018370057 0.23008472 0.25591305
0000d0 6b 58 14 3e 45 1f a0 bc 7a ba de 3d 3f ab 35 be
       0.14486854 -0.01954616 0.10875411 -0.17741106
0000e0 80 2b c9 ba 51 3e a8 be 93 b4 6d be 03 67 8c bd
       -0.0015348047 -0.32860044 -0.23213415 -0.068555854
0000f0 eb 89 bd 3d ad f9 87 3d d7 b1 43 be 01 28 03 3e
       0.092548214 0.06639419 -0.1911081 0.12808229
000100 9f 0d a4 3d 57 ab 51 bb 17 53 ea bc 38 02 9c 3c
       0.080104105 -0.0031992996 -0.028604073 0.019044027
000110 0e e1 2f 3e da 28 89 3e 73 61 86 be 7c 89 a4 bd
       0.17175695 0.2678898 -0.26246223 -0.080340356
000120 bf f0 e0 3d 05 a5 84 3e b2 a9 6b 3e aa af 41 3e
       0.10983419 0.2590715 0.23013952 0.18914667
000130 9d d5 7e bd 39 16 5a be ca fe aa 3c ad be 15 be
       -0.062215436 -0.2129754 0.020873446 -0.14623518
000140 00 ea 8d be d0 c5 64 3e f1 9b 9a 3e 59 60 a3 be
       -0.2771759 0.22341084 0.301971 -0.31909445
000150 2a 6f 9d 3d 85 6f 01 be 03 ad 85 bd fc 0a 4c bd
       0.076872185 -0.12640198 -0.0652714 -0.049815163
000160 8c 82 08 3c 6e 64 6f be 37 9d e1 3d 7f 5d 13 3e
       0.008331906 -0.23378155 0.110163145 0.14391135
000170 43 e1 8e 3e 2a d6 c9 3d 46 51 46 be f4 1f 54 be
       0.27906236 0.09855302 -0.19366941 -0.20715314
000180 aa 2b af 3d 52 da 65 3d 56 c2 4d be 71 48 6c be
       0.0855325 0.05611641 -0.20093665 -0.23074509
000190 01 f9 42 3e 1a d6 54 3e b9 65 8c bd f3 32 2b bd
       0.190403 0.20784798 -0.068553396 -0.041796636
0001a0 e9 1f 98 be 78 e4 67 b9 58 5e 07 be 44 df 3b be
       -0.29711846 -0.00022114988 -0.13219583 -0.18346888
0001b0 d2 a3 82 bd f2 9c 8a 3d 6e 59 29 be 82 87 39 3e
       -0.063789025 0.06768216 -0.16538021 0.18118098
0001c0 00 a4 10 be 82 05 81 3e ae 7c 32 3e ab 57 72 be
       -0.14125061 0.25199515 0.17430374 -0.23666255
0001d0 23 57 be bc 48 89 ac 3d e6 a4 bd 3d cb 4e 46 3d
       -0.02323491 0.08424622 0.092599675 0.048414987
0001e0 bf 1f a8 3d b4 2c 01 3c 94 46 53 be 2c 14 0c 3e
       0.0820918 0.007884193 -0.20632392 0.1367957
0001f0 e3 5c 60 be e4 a3 64 be 3a b1 36 bc 50 da 5a be
       -0.21910433 -0.22328144 -0.011150653 -0.21372342
000200 54 cb 0d be 6d 9f 67 be 4a 9b fb bc fb cf 22 3b
       -0.13847095 -0.2261941 -0.030713696 0.0024843204
000210 fc f5 09 be 42 81 6e bd 4a 04 33 3e f7 e3 c6 bb
       -0.13472742 -0.05822874 0.17482105 -0.006069656
000220 15 83 5f 3d a6 2a cb bd 3f 0c 10 3d 97 b7 0e 3e
       0.05456837 -0.09920244 0.03516793 0.13937221
000230 74 e6 82 3e df 01 16 3e 22 af 65 3e 9c 15 8f bd
       0.25566447 0.14649151 0.22430089 -0.069865435
000240 17 7a 89 be ca c3 25 be db 7d 92 3e 14 15 1f 3d
       -0.2685096 -0.16187969 0.28611645 0.03883846
000250 6f 2b 05 be af 80 f7 bd 0a 37 98 be 9c 9b ac be
       -0.1300485 -0.12085091 -0.2972949 -0.3371247
000260 3d fa 82 be d8 2a c2 3d c1 f9 f2 3d 86 60 ae be
       -0.25581542 0.09480828 0.11864043 -0.34058017
000270 66 34 c1 3d 23 64 15 be f0 c9 a2 bd ef 53 1d be
       0.09433822 -0.1458898 -0.07948673 -0.1536405
000280 9a 3e 66 bb 9d 25 46 bc 72 8e 8e be 49 dd 2a be
       -0.0035132528 -0.012093929 -0.27843052 -0.16685976
000290 3f 1f 77 bd f3 bd bd bd 9d 2b d1 bd 85 2e 82 3d
       -0.060332533 -0.092647456 -0.10213397 0.06356529
0002a0 bc 57 db be c9 90 94 3d 9c 96 99 3e 96 07 c9 bd
       -0.42840374 0.07254178 0.29997718 -0.098159
0002b0 1d 4e 43 3e 14 4c 9c 3d f2 e3 d3 be 41 aa 84 3d
       0.19072767 0.07631698 -0.41384846 0.06477786
0002c0 4b ec dc bd ff f7 8f bd 07 cd cb 3d 94 17 6c be
       -0.10787257 -0.070297234 0.09951215 -0.2305587
0002d0 57 8f 9f 3d 50 41 b9 bd 69 be 8c 3e ff ce 9c 3d
       0.07791012 -0.090456605 0.2748902 0.07656669
0002e0 82 98 37 3e 72 cb 16 3e 60 a7 a2 bd e3 05 69 bd
       0.17929271 0.14726046 -0.079420805 -0.05689038
0002f0 be ff 5c be a1 7f b8 3d f8 1b 82 3e 5d 0c 03 3e
       -0.21581933 0.09008718 0.25411963 0.12797685
000300 55 b0 2b be 63 40 1c 3d 01 76 2a be 72 6a de bd
       -0.16766484 0.03814734 -0.16646577 -0.108601466
000310 4b 14 4e be 8e e2 ba 3c 69 28 3a be ee 03 14 3c
       -0.20124929 0.022813108 -0.18179478 0.00903414
000320 db 39 30 bb 09 2a 20 3e 0b 21 5b be 5b a0 fc bd
       -0.0026889953 0.15641035 -0.21399324 -0.12335273
000330 c9 15 51 be 89 b3 23 3e b3 6b 15 be 4d 29 4c 3e
       -0.20418467 0.15986456 -0.14591865 0.1993763
000340 ea 1f 8b 3d da db 8d 3d 28 60 6a bd d5 e8 03 bd
       0.067931965 0.06926699 -0.057220608 -0.032204468
000350 d4 bd 56 3d 03 a8 e7 bd cd b5 52 3c 36 be 43 3d
       0.052427128 -0.113113426 0.0128607275 0.04778882
000360 ef f5 93 be ba c0 20 be 9d 9b 3f 3e d9 8c e2 bd
       -0.2889857 -0.1569852 0.18711706 -0.11062021
000370 3f 9c 0a be 51 d4 6e 3e e1 9a 80 3d 4d 4c 88 bd
       -0.13536166 0.2332318 0.06279541 -0.06655178
000380 c6 22 65 be aa 43 3a 3e 46 94 78 be ec f2 1a be
       -0.22376546 0.18189874 -0.24275312 -0.1513173
000390 7b 68 90 bd 49 b9 67 bd 12 8f a6 bc 0b 37 a0 3e
       -0.07051178 -0.056573186 -0.020331893 0.31291994
0003a0 19 75 50 3c fe af 5b 3e 22 04 1d 3e 64 d3 4a be
       0.012723231 0.21453854 0.15333608 -0.19807202
0003b0 15 ca a2 3e 79 85 69 be 39 9f 15 be ee 47 6a 3d
       0.317948 -0.22804822 -0.1461152 0.057197504
0003c0 30 44 73 3d 53 65 8e 3e 3b 46 c7 bd 3c e7 61 bd
       0.0593912 0.2781168 -0.09730192 -0.055152163
0003d0 90 1a 1f 3d c3 c2 80 be 71 53 44 3e 48 3c 26 be
       0.03884369 -0.2514859 0.19172455 -0.16233933
0003e0 ca 70 4d bd c3 31 a7 bd 48 bd 1f be ed 3c 6b bd
       -0.050156392 -0.08163788 -0.15599549 -0.05743115
0003f0 63 44 66 3e 7c 33 2d be a8 75 68 be e0 ac da bd
       0.22487025 -0.16914171 -0.22701132 -0.106775045

bias f4 [128]
000000 a3 7b 6c 3e 94 c1 0f 3e 39 82 a4 3d cf 9b c8 bd
       0.23094039 0.14038688 0.080326505 -0.09795343
000010 d2 c8 b9 3d bc 6d da 3d 57 cd 02 3e bb 75 c1 ba
       0.090715066 0.106654614 0.12773643 -0.0014759818
000020 96 2f 48 3c 4e 1e ea bc fe a5 9a be 1e 42 b0 bc
       0.012218377 -0.028578904 -0.30204767 -0.021515902
000030 a9 df 85 be 57 c1 23 3e 43 c7 4c be 06 eb 31 be
       -0.26147202 0.15991722 -0.19997887 -0.1737481
000040 a9 01 1a be ac bb 1c 3e 12 10 53 be e8 07 de 3d
       -0.15039696 0.15305966 -0.20611599 0.10841352
000050 55 e4 30 3e 73 3a 1f 3e a6 45 72 3d 2e cf e3 3d
       0.17274602 0.1554964 0.059148453 0.11123501
000060 33 8a 38 3e a8 ff d6 3c b9 d4 c7 3b e0 2e 5a be
       0.18021469 0.026244953 0.0060983566 -0.21306944
000070 83 f0 e8 bc 8b 45 29 bc 8b 89 83 3d d3 ef b4 bd
       -0.028434997 -0.010331522 0.064227186 -0.08834805
000080 98 8c 71 be 9b 86 bc bd 10 db b8 3d e0 74 5c 3e
       -0.23588789 -0.092053615 0.09026158 0.2152896
000090 a3 01 81 be 44 50 d7 3d c1 4f 47 be fe e3 5d be
       -0.2519656 0.10513356 -0.19464017 -0.21669003
0000a0 67 ef 09 be cf 99 c0 bd 28 aa 26 3d ad 6e 92 be
       -0.13470231 -0.09404337 0.040689617 -0.28600064
0000b0 f3 54 0e 3e d0 0f 5d 3e 59 5c 8c bc 47 5b 64 3e
       0.13899593 0.21588063 -0.017133879 0.22300445
0000c0 79 99 12 be 15 2c 24 be 3d ac f4 bb 0d 3b 62 bd
       -0.14316358 -0.16032441 -0.0074668215 -0.055232096
0000d0 66 69 4a be da 52 3f be ef 50 33 3d ad 4e 60 bc
       -0.19766769 -0.18683949 0.043778356 -0.013690633
0000e0 2f 4b 83 3e 34 60 55 be f9 5d b2 3d 66 f9 35 be
       0.25643298 -0.2083748 0.0870933 -0.17770919
0000f0 b0 32 18 3e 8b 21 41 bd 7a ad 4a 3e e3 ab 17 3e
       0.14863086 -0.04715113 0.19792739 0.14811663
000100 cb a9 4a 3e 1e 09 3f 3e a6 ee 4b bd d7 95 29 3e
       0.19791333 0.18655822 -0.04978814 0.16561066
000110 36 22 c3 bd d2 31 80 3e 47 7a 8f 3e 10 b8 1b 3e
       -0.095280096 0.2503801 0.28022978 0.15206933
000120 5d 7b 0b be b6 b9 21 be 64 0d 84 3d 3b cc b6 3d
       -0.13621278 -0.157935 0.064478666 0.089256726
000130 67 99 a0 3d c3 21 4e 3b c0 f6 52 3e 14 6c e6 bd
       0.07841759 0.003145323 0.2060194 -0.11251083
000140 91 53 f1 bd 36 2a ae 3d e7 ec 8d bc ae f4 26 be
       -0.11783517 0.08504145 -0.017324878 -0.16304275
000150 19 bd 37 bd 95 a7 75 be 72 24 cb bd 6b d7 54 bd
       -0.044858072 -0.23989709 -0.09919061 -0.05196325
000160 76 0b 51 3e b3 32 7c be d2 da fb bd 38 11 3c be
       0.20414528 -0.24628715 -0.12297596 -0.18365943
000170 d2 8f 9c 3d 9f a9 74 be a3 26 db 3d 6f 95 26 be
       0.07644619 -0.2389283 0.10700729 -0.16267942
000180 54 4d f1 bd 57 7f 24 be 01 72 ee bc d6 22 57 3e
       -0.11782327 -0.16064201 -0.029107096 0.21009383
000190 8b 28 67 3e b1 61 c4 bd b6 46 89 be e2 22 de bd
       0.2257406 -0.09588946 -0.2681176 -0.10846497
0001a0 3f 43 1e be 25 da 58 bd d6 a4 e5 3c d9 9f 7c 3d
       -0.1545534 -0.052942414 0.028032701 0.06167588
0001b0 de 44 de 3d a1 62 c9 bb f4 2b 2d be 8b b3 d4 bd
       0.10852979 -0.0061457907 -0.16911298 -0.103858076
0001c0 b5 be 28 bd 2c 2d 42 be c4 51 cc bd 2a 33 2e bd
       -0.041197497 -0.18962544 -0.09976533 -0.042529263
0001d0 33 e3 84 be dd 67 00 3e 47 47 d9 bc 1f a7 89 be
       -0.2595459 0.1253962 -0.026523245 -0.26885316
0001e0 ed 11 7b 3e ae c2 14 be 09 ca 32 3d 45 b1 8a 3e
       0.24518557 -0.1452739 0.043649707 0.2708837
0001f0 bf 90 fd bc 36 fa f9 3c c0 1a fb 3d b0 7c 90 3d
       -0.03095281 0.030514818 0.122609615 0.07055032

weight f4 [128, 128]
000000 f1 bd cc bc 8e 31 8f bc 2b 8b 8c ba 8f 39 91 3d
       -0.024992915 -0.017479684 -0.0010722628 0.070910566
000010 b9 06 67 bb 0e b0 72 3d ce c5 e3 3c c7 d0 be 3c
       -0.003525181 0.05924993 0.027804282 0.023292912
000020 1d 29 0c bd 0c 35 7f 3c bd 21 d4 bd 44 f1 7a bd
       -0.034218896 0.015576612 -0.103579976 -0.061265245
000030 6f d5 4a bd 09 f2 93 3d 04 ba 5a 3d a1 44 f8 3b
       -0.049519952 0.07223899 0.053400055 0.0075765406
000040 e2 e2 a7 b7 02 e4 48 3d 59 e5 95 bd 8e c7 c9 bd
       -2.0013602e-05 0.04904557 -0.07319135 -0.09852515
000050 9e 35 91 bd 6f b1 c0 bc 32 36 8e bd 4d b5 c9 bb
       -0.07090305 -0.023522107 -0.06943931 -0.006155646
000060 6e 85 fe bb 77 a1 2b bc 7c 77 7b bc 1b a8 6f 3d
       -0.007767371 -0.010475508 -0.0153483115 0.058509927
000070 d0 e2 a6 3d bf 86 1c bd 2a dc ad 3c 0f a3 b8 3c
       0.0814873 -0.03821444 0.021223146 0.02253869
000080 75 b1 00 3e 86 38 18 ba 2c 69 11 bd 0e f6 0d bd
       0.12567694 -0.00058067625 -0.03550069 -0.034658484
000090 f2 25 d9 3d ad a1 f7 bc e8 83 99 bd 0f 38 17 3e
       0.106029406 -0.03022846 -0.07495862 0.14767478
0000a0 c8 81 da 3d f6 ea 9c bd 9f 22 83 bd ad e5 0c 3d
       0.10669285 -0.07662003 -0.06403088 0.034398723
0000b0 e7 bb 19 bd e6 0d 3f bd 02 35 45 bd da 46 1f bd
       -0.037532713 -0.046644114 -0.048146255 -0.03888593
0000c0 50 56 5c bd 95 f9 72 bd 8c 5c cf bd c7 1b 75 bc
       -0.05379325 -0.05932005 -0.10125074 -0.014960236
0000d0 1b 15 3b 3d 9d 5e 4f bd 44 90 82 bb 63 b0 0d bd
       0.045674425 -0.05062734 -0.003984483 -0.034592044
0000e0 3f 1b 90 3d 56 be 03 3d 29 cc 89 3c 6b c6 f9 bc
       0.07036447 0.03216394 0.016820984 -0.03049012
0000f0 7d 20 72 bd 65 21 2e bd e7 cc 66 3d 0f 72 f4 39
       -0.059113014 -0.042512316 0.056347754 0.00046624287
000100 ee 34 e8 3c a9 25 19 bd 95 a3 e3 3c 51 18 8c bd
       0.028345551 -0.03738943 0.027787963 -0.068405755
000110 28 ca 0e 3d 30 d2 b3 3d 1a d6 df bd c4 82 2b bd
       0.03486076 0.087803245 -0.109295085 -0.041872755
000120 ad 2b 92 3d 57 23 16 bd eb 9d ac bb fb 63 83 3d
       0.07137237 -0.036654796 -0.0052678487 0.06415554
000130 78 db 56 bb d7 c7 88 bd d7 e3 f2 bc 90 2d 9b 3d
       -0.0032784622 -0.066787414 -0.029649658 0.0757705
000140 04 b1 af 3d 86 cd 07 3d ee 22 e4 3b a0 2f 71 3c
       0.08578685 0.033154987 0.0069621718 0.014720827
000150 e1 a3 95 3d 80 62 42 bc 9c e4 3b 3b 97 e1 2c bb
       0.07306648 -0.011864305 0.0028670197 -0.002637958
000160 5f d5 17 bd 1f bf 95 3d 40 3b 13 bd 59 29 87 3c
       -0.03706872 0.07311844 -0.035945177 0.016499208
000170 4a 82 43 bd c4 20 91 bb ac ba 89 3d bc 3c 85 3a
       -0.047731675 -0.004428955 0.06725058 0.0010165195
000180 9b 64 46 3c 35 45 46 3d 96 fb 7e bd 06 68 4d bd
       0.012108947 0.048405845 -0.06225165 -0.050148033
000190 92 b2 36 bd 17 51 98 bd fe 2a b4 3b 16 44 5d bc
       -0.04460389 -0.07437342 0.005498289 -0.0135050025
0001a0 34 12 82 3d b4 7b 2e 3b 2b 79 dc 3c 12 58 7c bd
       0.06351128 0.0026624026 0.026913246 -0.061607428
0001b0 8e eb 37 bc 65 66 1c 3d ec 6c 2a bc b7 f8 ad 3d
       -0.011225594 0.03818359 -0.010401946 0.08494704
0001c0 20 03 25 bd 0c 57 a0 bb 38 cb a3 bd 87 4b b0 3d
       -0.040286183 -0.0048931893 -0.07997745 0.08608156
0001d0 81 d5 26 bd 9b f4 f4 bd 7e 8d 99 3d b2 06 d3 bd
       -0.040730957 -0.11960717 0.074976906 -0.103040114
0001e0 eb 1f 86 bd 7a 09 c1 3c 0b 93 c0 3d 0b 5b c3 3d
       -0.065490566 0.02356409 0.09403046 0.095388494
0001f0 81 4f 68 3d 41 8d 7a bc fd 02 67 3d 09 99 48 bd
       0.056716446 -0.015292467 0.056399334 -0.04897407
000200 21 41 b2 bc 44 de 30 bd ed 2d 8b bd fc 03 d8 3c
       -0.021759572 -0.04318072 -0.06795869 0.026369087
000210 f7 6e 05 bd ab 6e 48 bc 66 cf 5b bd 5d dc 6b bc
       -0.032576527 -0.012233417 -0.053664587 -0.0143958
000220 8e 0d cf 3d 8d 3e db 3d b7 f6 92 bd 84 84 e6 3c
       0.10110007 0.1070529 -0.07175963 0.02813936
000230 44 b5 2d 3d c7 63 df 3c 88 69 5c bd 01 31 a5 3c
       0.042409196 0.027269257 -0.05381158 0.020164968
000240 0a 81 83 3d c4 fd a8 3d 1f 17 ee bc b6 ed 06 bd
       0.064210966 0.08251527 -0.02906376 -0.032941543
000250 ff 05 1b be ae 36 11 be 2a f5 99 bd d4 46 49 3d
       -0.15139006 -0.14181015 -0.075174645 0.049139813
000260 fb 4a b4 bd fd 8e be bb f6 ac 5b 3d 32 07 e8 ba
       -0.08803364 -0.0058153854 0.053631745 -0.001770234
000270 ab b3 91 bc fd e2 95 bd 37 52 11 bd a3 ef c0 bd
       -0.017785868 -0.07318685 -0.035478797 -0.09420707
000280 53 ee 22 be 28 7f f2 bd 59 3e 3a bd cc 80 aa 3d
       -0.15911226 -0.118406594 -0.045469616 0.08325347
000290 02 c1 9f bd 07 c3 a4 bc 0b ed 2c be 9d 2f 86 3d
       -0.07800485 -0.020112528 -0.168873 0.0655205
0002a0 e7 a0 d9 bd 98 67 9a 3b 95 23 11 bd 03 34 ac bd
       -0.10626393 0.0047120564 -0.035434324 -0.08408358
0002b0 72 67 8d 3d d6 3d 80 bc 43 b7 29 bd 5f a4 2c bd
       0.06904496 -0.015654486 -0.041434538 -0.042148944
0002c0 98 5d 89 3c c1 de 14 bc 6b 5f 69 3c e6 ba 9c 3d
       0.016768262 -0.009086312 0.014243941 0.076528355
0002d0 b8 ac 18 be e4 ae 41 bd ac e9 93 bc bb 43 13 bc
       -0.14909637 -0.04728593 -0.01805576 -0.008988316
0002e0 cd 39 1f 3e 9c e2 b4 3d e4 b1 97 3c 60 c6 a2 bd
       0.15549393 0.08832285 0.018517442 -0.07947993
0002f0 d1 0d cb 3d fc 84 de 3c 75 5f f9 3c 9a 24 e7 bc
       0.09914745 0.027163021 0.030441025 -0.028215695
000300 33 72 c5 3c 7d 38 ac 3d f4 b6 85 3d 32 4e d5 3a
       0.024102306 0.08409212 0.06529036 0.0016273914
000310 a8 fc 7f be 95 6a b9 bd f6 68 0b 3d 82 c5 29 3b
       -0.24998724 -0.09053532 0.034035645 0.0025905077
000320 33 90 79 bc f0 72 91 3d 00 51 db bd 95 cf a8 bc
       -0.015232134 0.07102001 -0.10708809 -0.020606795
000330 65 43 88 bc bc 72 87 3d fa dd 70 3d dd 7d 33 3d
       -0.016633699 0.06613681 0.058805443 0.043821204
000340 70 ed 8e 3d 37 87 e7 bd bf e0 1e bd 85 5d 8a 3d
       0.06978881 -0.11305087 -0.038788553 0.06756119
000350 92 c5 94 bd fe b6 09 3d 9d c5 67 bd f4 ba aa bd
       -0.07264246 0.03362178 -0.056584943 -0.0833644
000360 a0 cf 04 3e eb a8 b2 bd 5a 17 de 3d 9a ed 8c 3d
       0.12969828 -0.08723625 0.10844298 0.068812564
000370 ab a5 92 bd 03 97 18 3d 6b 83 de bd 7c f0 6a 3d
       -0.07160505 0.03725339 -0.1086491 0.05735825
000380 4e 99 af bb 20 72 ce bc b9 64 43 bc 4a e5 de bc
       -0.0053588515 -0.025200903 -0.01192587 -0.027208943
000390 4c 06 98 bd 0e 15 92 bc 0f e2 86 3d bc 6f d3 3c
       -0.07423076 -0.017832305 0.06586086 0.025810115
0003a0 22 72 31 3d 5e dc 0d 3c 01 43 83 3c 5d 1a 4a bd
       0.043321736 0.008658497 0.01602316 -0.04934155
0003b0 48 f7 a8 bb 8e ac ba bd d0 be 3f bc 86 b9 09 bd
       -0.0051564313 -0.091149434 -0.011703208 -0.033624195
0003c0 09 00 89 3d e1 e1 60 3d 01 8c b6 bc 5c 66 93 bd
       0.0668946 0.054902915 -0.022283556 -0.07197258
0003d0 d1 aa bb bd 9d 2f 73 bc 8e ad 04 bc 5e b2 96 3b
       -0.0916344 -0.014842895 -0.008098019 0.0045988997
0003e0 9e f7 20 bd 07 1b f3 3c 67 7d 1f 3c 28 54 00 bd
       -0.039298646 0.029675974 0.009734488 -0.031330258
0003f0 90 9a ff 3d 92 a5 d8 3a 16 09 74 bd 15 ff 0e 3d
       0.12480652 0.0016528836 -0.059578978 0.034911234

bias f4 [128]
000000 f7 00 bc 3d 95 cb 4e 3c 2b 61 cb 3d 80 32 d1 3d
       0.091798715 0.01262178 0.09930643 0.1021471
000010 5c 47 6e 3d 1b 15 84 bd 77 50 0b bd 91 c3 50 3c
       0.058173522 -0.06449338 -0.034012284 0.012741939
000020 e2 be 51 3d 0d 9b 72 3c c8 81 90 3d 6e 9c 22 bc
       0.05120743 0.014807475 0.07056004 -0.009924991
000030 a7 8f 74 3d b9 60 7e bd 21 27 8c bc de 26 d2 3d
       0.05970731 -0.06210396 -0.017108502 0.102613196
000040 ba 79 82 bd 26 fa c5 bc 37 e7 14 bd 5d db 80 bd
       -0.06370874 -0.024167132 -0.036353316 -0.0629184
000050 d1 f5 99 bd ab c5 06 3b c5 85 c7 ba 83 a4 92 3d
       -0.07517589 0.0020564597 -0.0015222362 0.07160284
000060 fa 5b ac 3a ad 3f a3 3d cd 1a 5e 3d bb e9 9e 3d
       0.001314997 0.079711296 0.054224778 0.07759424
000070 97 40 f7 bb e0 d6 a8 3c 17 e0 81 bd ab c1 9d 3d
       -0.0075455415 0.020610273 -0.0634157 0.07702955
000080 40 d6 4c 3d 34 d5 c7 3c 84 ae 1e bd 73 b2 ac 3d
       0.050009012 0.024393655 -0.03874065 0.08432474
000090 14 6d d3 bd 57 39 63 3d 5a 97 56 3d 92 f6 26 3d
       -0.103235394 0.055474605 0.052390434 0.04076249
0000a0 3a b5 9f 3d 01 48 53 bd 95 25 c2 3d 90 bd d4 3d
       0.07798238 -0.05158234 0.094798245 0.10387719
0000b0 85 2e 15 bc 1e 70 b0 3d df 8f 5f bc b3 5b 96 bd
       -0.009105329 0.08615135 -0.013645141 -0.07341709
0000c0 20 d3 03 3e 4f fc 56 3d 0a 0e 89 3d bc a9 47 3d
       0.12873507 0.052486714 0.06692131 0.048745856
0000d0 74 15 4c bc 7b da 53 3d e8 cb 5d 3d ae 6d 47 bd
       -0.012456287 0.05172203 0.05414954 -0.048688583
0000e0 06 c9 a1 3d 78 47 0a 3b 75 88 0b 3d 9e a3 d8 bd
       0.0789967 0.0021099728 0.034065682 -0.105780825
0000f0 33 a7 d7 bc 41 1e 9b bc d1 63 33 bd 20 a9 dc 3d
       -0.026324844 -0.018935325 -0.043796364 0.107744455
000100 8a 96 ec 3c 63 92 65 bd 81 6a 40 bd 13 be ab ba
       0.028880376 -0.05604781 -0.04697657 -0.0013102911
000110 bd 23 9b 3d 3d af 7b bc bf 56 66 3d c9 74 b1 3c
       0.07575176 -0.015361604 0.05623507 0.021662133
000120 68 bb 97 bd 70 c4 93 bd b3 b1 f9 3c 85 63 a5 3d
       -0.07408792 -0.07215202 0.030480241 0.080756225
000130 92 e9 c3 bc ce d7 a7 bd e3 d5 0e 3a 36 93 c9 3a
       -0.023915086 -0.08195458 0.0005448742 0.0015378955
000140 06 fc 75 bd cd 51 48 3c fb d8 b7 3d 65 3a a2 bd
       -0.0600548 0.012226534 0.089769326 -0.07921294
000150 95 20 16 3d a5 61 01 bc 6f 3f 5f bd 4b c0 90 3d
       0.036652166 -0.007896815 -0.054503854 0.07067927
000160 94 97 e0 bb 66 62 ed 3d 63 26 c7 bd 9b 0f 8b 3c
       -0.006854007 0.11591034 -0.097241186 0.016975215
000170 f9 4b 4a 3b f0 37 40 3d 85 d2 ed bd 45 97 17 3d
       0.0030868037 0.046928346 -0.11612419 0.037009496
000180 53 e6 b7 bd 9a e4 8e 3d d3 61 cd bd 7a 8a a9 3c
       -0.08979478 0.06977196 -0.10028424 0.020695914
000190 7d b5 3e bd 38 61 8f bd 5a 9d 0d 3d 5a 71 6f 3d
       -0.0465598 -0.07000965 0.03457389 0.05845771
0001a0 9e d5 8b 3d 6c b1 9f bd 1c 51 29 bd 14 e2 d2 3d
       0.068278536 -0.077975124 -0.041337118 0.10297027
0001b0 f8 e1 20 3d 55 7e 8f 3d d8 c5 65 3d d3 4c 5e bd
       0.039278 0.07006518 0.05609688 -0.054272484
0001c0 00 8a 93 bb da 49 b8 3c 26 a0 bc bd 78 13 aa bb
       -0.004502535 0.022496153 -0.092102334 -0.005190309
0001d0 eb c5 98 3d f8 7c 55 bd b9 8f 1d bb 20 bb 45 bd
       0.07459625 -0.052121133 -0.0024041964 -0.04827416
0001e0 1a 75 52 bc 93 20 29 bd a7 24 96 bd 4a ae 41 3d
       -0.012845302 -0.04129083 -0.0733121 0.047285356
0001f0 61 9d f1 bd b8 3a 21 bd 91 e6 33 bd 28 57 bb bc
       -0.11797596 -0.03936264 -0.043921057 -0.022868708

weight f4 [128, 128]
000000 fc 19 34 3d 02 9e aa bd 78 79 31 bd e4 d9 43 bd
       0.043970093 -0.08330919 -0.043328732 -0.04781522
000010 34 6e 70 bc 4f eb ff bb ba 98 c0 3d 10 7f 65 3d
       -0.014674712 -0.0078100334 0.0940413 0.05602938
000020 22 10 ba bd 31 15 68 bc 52 de 1d 3d 75 7f 31 3c
       -0.09085108 -0.014165209 0.0385421 0.010833611
000030 51 f9 bc 3d 38 41 42 bd eb f2 a9 bd 38 8f 8e bd
       0.09227241 -0.04742548 -0.08298286 -0.069609106
000040 da 26 7d 3c dc ed 91 3d 63 0e b9 bd 1d c6 e6 bc
       0.015451157 0.07125446 -0.09035947 -0.02817064
000050 ae 76 aa ba 78 7d 2e 3d 4f e4 93 bd 56 88 e7 bd
       -0.001300534 0.042600125 -0.07221281 -0.11305301
000060 37 f5 0e bd 00 cc 63 bd e6 73 ae bb 73 99 72 bc
       -0.034901824 -0.05561447 -0.0053238748 -0.014807093
000070 cd 98 b0 bd 6a 8e 95 3d 2f 0d 84 3c 7b c5 a1 3b
       -0.086228944 0.07302554 0.016119568 0.0049368716
000080 40 c3 76 bc 61 00 d7 bb ab e9 b4 3d 69 66 a2 3c
       -0.0150612 -0.0065613245 0.08833631 0.019824224
000090 93 07 c8 bc 05 c6 b5 3b df 87 05 be 74 86 98 bd
       -0.024417674 0.0055472874 -0.13040112 -0.0744752
0000a0 46 09 69 bc 16 5b 93 bc f7 4b 0f 3d 0a 70 14 bd
       -0.014223402 -0.01798777 0.034984555 -0.03623966
0000b0 b7 4e 96 3c 85 e4 45 3d 16 8f 57 bd 22 20 a7 bc
       0.018348081 0.048313636 -0.05262669 -0.020401064
0000c0 8f e5 7a bd cc 23 10 bc 9a 06 ba 3d 1e 22 15 3d
       -0.06125408 -0.008797597 0.090832904 0.03640949
0000d0 db aa 95 3d 1e 67 6a bc 09 cc 9d bd c5 23 13 3c
       0.07307979 -0.014306812 -0.07704932 0.008980696
0000e0 f1 ad 7a bc db 0f b1 3d 6d 00 15 3d 87 9c 49 3d
       -0.01530026 0.08645602 0.03637736 0.04922154
0000f0 67 49 6b bd 2b 60 d8 3c c5 ff 9b 3c 2e bb 62 3d
       -0.05744305 0.026413044 0.019042859 0.05535429
000100 69 b2 90 3d f1 90 e8 3c 33 4a 6c 3d b6 c2 8e 3c
       0.07065279 0.028389426 0.05768795 0.01742683
000110 54 4f 8d 3d d9 73 bb bb b9 82 7a bd a0 73 b2 3c
       0.06899896 -0.005720597 -0.061159823 0.02178365
000120 b4 6a 5a bd 72 07 21 3d 7e 67 84 3d 2c d7 63 bc
       -0.053324416 0.03931374 0.06465052 -0.013906281
000130 88 e7 4f bd cf 52 00 bd df e9 49 bd ac fb 07 3d
       -0.050757915 -0.031328972 -0.049295302 0.033198997
000140 fa 85 af bd 32 26 2b 3c cc 49 47 3c 81 9e 18 3d
       -0.08570476 0.010446118 0.012163591 0.037260536
000150 0f 3e b6 3d 4b 08 c7 bd d4 35 88 3d 71 e5 b1 bd
       0.088985555 -0.09718379 0.06650892 -0.086863406
000160 9d 44 5e bd f8 ff 45 bd f4 a1 71 bd 3b cc 02 3d
       -0.054264653 -0.048339814 -0.05899234 0.03193305
000170 c3 4f 56 bd 93 4f 2e bd 7b 76 00 3e 36 1f 07 3d
       -0.05232216 -0.042556357 0.12545197 0.03298875
000180 3b 4d 39 3d 7f 59 dc 3b 2a 92 fb bc 33 b1 3d bd
       0.04523967 0.006724536 -0.030709345 -0.04631157
000190 79 29 9c 3d a6 c9 be bd f5 dd 7d bd 11 dc 17 3d
       0.07625098 -0.09315805 -0.061979253 0.037075106
0001a0 41 51 69 3d ca 18 60 3d 2d f3 c7 3a 72 7c 27 bc
       0.056962255 0.05471114 0.0015254967 -0.010222541
0001b0 91 4e 57 bd 62 eb ae 3a a6 25 a3 bd d7 4c 37 bd
       -0.05256516 0.0013345296 -0.07966165 -0.044751015
0001c0 94 99 17 3d 6a e1 8c 3d 42 5d 96 3d 6c ba 37 bd
       0.037011698 0.06878932 0.07342006 -0.04485552
0001d0 f7 25 c1 3d 8f 08 c4 bd b9 95 db 3d 88 be 9f bd
       0.09431069 -0.09571945 0.10721917 -0.07800013
0001e0 3e bb 8e bb 58 fe e9 bc c5 0f 14 3c 74 1f 5b 3d
       -0.004355817 -0.028563663 0.009036963 0.053496793
0001f0 08 c0 74 3b a2 d6 59 bd 73 19 a7 3d d5 56 cd 3c
       0.0037345905 -0.053183205 0.08159151 0.025065819
000200 71 f9 54 bc fd 0b eb bb 62 a8 9f 3c 06 18 1e 3d
       -0.012998925 -0.00717306 0.01948947 0.03859713
000210 d3 36 9c 3c 7d 3d 4e 3a 9c 6c 3e 3c e8 ba 71 3d
       0.019069111 0.0007867439 0.011622574 0.05901614
000220 d7 4e 07 3d b0 51 8d 3d bc 86 c8 39 43 48 4d bd
       0.033034172 0.06900346 0.00038247358 -0.050117742
000230 bd 07 55 3d 21 be 16 bb bb 16 fe bd 2c 84 18 bc
       0.052009333 -0.002300151 -0.12406679 -0.009308856
000240 28 59 7f bd 4a 1f 19 3d 96 93 ab bd 8e 6c 81 bd
       -0.062340885 0.037383355 -0.08377759 -0.06319533
000250 88 1b 11 bd d6 5a cb 3c c4 f2 c2 3d 2d db 4b 3d
       -0.035426646 0.024823587 0.0951896 0.04976957
000260 45 94 16 bd 51 99 64 3d 43 47 67 3c 8b 25 1c bd
       -0.036762495 0.055810276 0.014116111 -0.03812174
000270 be 76 61 bc 09 77 97 3c 4d db 95 ba 46 79 c0 bc
       -0.0137612205 0.018489378 -0.0011433155 -0.023495328
000280 0b d2 20 bd 27 47 0b 3d 51 12 55 3d 2b 8d 2f 3d
       -0.039262813 0.034003403 0.05201942 0.042859238
000290 9a 47 9d bd e2 16 e9 3b 03 27 92 3d f3 0c 52 bd
       -0.076796725 0.0071133235 0.07136347 -0.05128188
0002a0 c6 64 85 bc 39 de 1b 3c d1 92 86 bd 08 5a 06 bd
       -0.016283404 0.009513431 -0.06570972 -0.032800704
0002b0 47 8d 93 bd 51 2e 68 bd 07 e7 b4 bd c9 39 56 3d
       -0.07204681 -0.056684796 -0.088331275 0.052301202
0002c0 00 7b c3 3c 6f 65 b5 bd 10 b2 44 3c f2 bc 96 bb
       0.023862362 -0.088572375 0.012005344 -0.0046001608
0002d0 1e e2 6b bc 7f ee aa bd e7 bf eb bc f1 0f 47 3d
       -0.014397172 -0.08346271 -0.02877803 0.048599187
0002e0 6d 72 90 bd 47 c2 42 bd d9 b1 d6 3d f1 fe 0a bd
       -0.07053075 -0.04754856 0.104831405 -0.033934537
0002f0 a0 ae 03 bd 55 d6 71 bd b3 e0 da 3b 41 94 56 3c
       -0.032148957 -0.059042294 0.0066796183 0.01309687
000300 f1 16 8c bc 30 25 76 3d f8 97 02 3c 64 42 df bd
       -0.017100783 0.06009406 0.0079708025 -0.10901335
000310 9c 39 c7 3b e6 bb d7 3c 4e a1 b3 bd 48 37 03 3d
       0.0060798656 0.026334714 -0.08771001 0.032035142
000320 54 c7 4c bd 11 37 81 bd d6 d4 2a bd ae 9e 9e 3d
       -0.04999478 -0.06309331 -0.041706882 0.077451095
000330 6f 4c 8c bd 71 40 a3 bd 66 a1 8b 3d ab a2 9e bd
       -0.06850516 -0.079712756 0.06817894 -0.0774587
000340 de 80 df bc 51 99 32 3d ba 7d d0 bd 94 fc ce 3c
       -0.027283128 0.043603245 -0.101802304 0.025266923
000350 a1 e1 44 3d a3 27 1c 3b 27 14 68 bd 18 81 7f bd
       0.04806674 0.0023827336 -0.056659844 -0.062378973
000360 0e c5 a5 bd 54 93 06 3d aa 9d f7 ba 44 e3 da 3c
       -0.08094226 0.032855347 -0.0018891592 0.026719697
000370 68 05 83 bd 0c 64 4c bd 02 5e 02 bd b4 a3 8e 3d
       -0.063975155 -0.0499001 -0.031827934 0.06964818
000380 38 d4 44 3d 42 cf 39 3d 8e 8d 0a bd 69 88 ca bd
       0.04805395 0.045363672 -0.033826403 -0.098892994
000390 38 0f ec 3c 15 2d 3c bd 87 44 07 3d ff 9d 26 bd
       0.02881585 -0.04594143 0.033024337 -0.04067802
0003a0 03 84 46 bd f6 b3 f7 bc c7 70 da 3c ce ae c3 bd
       -0.04846574 -0.03023718 0.026665105 -0.09554826
0003b0 1c fc 90 bd 88 be c3 bb 6f 2c d6 bc 7d d5 70 3d
       -0.07079336 -0.005973641 -0.026144234 0.05879735
0003c0 d3 3d ab 3c 52 e0 79 3d 7d ed be 3c d3 c5 d3 3c
       0.020903504 0.061004944 0.023306603 0.025851166
0003d0 07 af ba 3d e1 72 b0 bd 7a 5b cb 3d 0a 8c 06 3d
       0.09115415 -0.086156614 0.09929557 0.032848395
0003e0 ba d4 86 3d 47 18 a9 3d ba d4 5e bc 71 fb cb bd
       0.06583543 0.08256584 -0.013600523 -0.09960068
0003f0 17 c3 df 3d 74 1c c4 bd 76 a0 72 bc 92 e7 35 bd
       0.10925882 -0.095757395 -0.014808765 -0.044410296

bias f4 [128]
000000 4e 49 ab 3d 60 28 3f bd 5f 35 c3 3c 8c cd fb bc
       0.08363591 -0.046669364 0.02382916 -0.03073766
000010 d6 f1 72 3b 21 85 a4 bd cc 38 6d 3d f5 d0 44 3d
       0.0037070415 -0.08033205 0.057915494 0.04805084
000020 16 a6 86 3d 52 59 6b 3d 8a c0 f6 3c 57 35 3e bd
       0.06574647 0.05745823 0.030121107 -0.046437588
000030 8f 98 a5 3d 51 32 62 bd f5 72 f7 b9 20 8f 5f bc
       0.08085739 -0.055223767 -0.0004719716 -0.0136449635
000040 6b b3 4e 3d 24 15 13 3c 7b b3 bb 3c ee b3 63 3d
       0.050464075 0.008977208 0.022912731 0.055591516
000050 9e ea df bc 13 58 b6 3d 15 5a b0 bd 17 bc c7 3d
       -0.027333554 0.089035176 -0.08610932 0.09752672
000060 74 91 9a 3c a1 14 22 3d 76 fa 28 3d 8e 52 c1 3c
       0.018868186 0.039570455 0.041254483 0.023598935
000070 11 93 23 3d 5c 05 3c 3d 62 41 60 bd dc d5 77 bc
       0.039935175 0.04590355 -0.054749854 -0.015126672
000080 8b 31 0a 3d df b2 3c bd 97 cc 2d 3c 92 54 b1 3d
       0.033738654 -0.046069022 0.01060786 0.08658709
000090 0e 99 af bc 46 7a b7 3d b7 c8 33 bc 98 0b 94 bc
       -0.021435287 0.08958869 -0.010973147 -0.018071935
0000a0 72 e8 11 bd 95 b5 9a ba 2c 1e 19 bd 12 f0 33 39
       -0.035622068 -0.0011803383 -0.03738229 0.00017160203
0000b0 6f dd a7 bd ae b5 ad 3d 91 81 46 bd 92 6e 29 bd
       -0.08196532 0.08481918 -0.048463408 -0.041365214
0000c0 df 44 bb 3d 26 54 3e bd 20 8d a8 3d 18 e0 f3 3c
       0.091439955 -0.04646697 0.082300425 0.029769942
0000d0 bb 88 a5 3d 5f 73 b5 bd a0 2d d3 3c 6d 0c 1f bd
       0.0808272 -0.08859896 0.025778592 -0.03883021
0000e0 e1 ba 27 3d 8b 04 c0 bc 3a 4f 31 bd ac ea db 3d
       0.040949706 -0.023439666 -0.043288447 0.107381195
0000f0 ad 18 d5 bb bf 55 75 ba 50 ea 74 3c 9d 70 c9 3d
       -0.0065031857 -0.00093587855 0.014948443 0.098359324
000100 d7 d9 1d bd 48 5d f6 3d ec 35 cf bc e4 34 ad 3d
       -0.038537826 0.12029511 -0.025294267 0.08457354
000110 85 29 bc 3d 8a 52 0c bd 35 4a 0c bd a8 21 01 3c
       0.09187607 -0.034258403 -0.034250457 0.007881559
000120 e9 f5 22 3d b7 e8 2f 3d b9 6d 77 bb e0 26 f1 bc
       0.0397853 0.042946544 -0.0037754609 -0.029437482
000130 ab 5a b2 3d a7 27 32 3c ac f7 78 bd 7f 56 db 3d
       0.087087 0.010873712 -0.060783073 0.10709857
000140 79 6e a3 bb 20 00 37 3d 6d 2f e0 3d 43 ac 4b bc
       -0.0049875346 0.044677854 0.10946546 -0.012431207
000150 86 bf 97 3d 26 be bb 3d 2c a9 03 bd 12 a1 2d bb
       0.07409577 0.09167127 -0.032143757 -0.002649371
000160 d5 82 a0 3d 66 3e 42 bc d1 ce 85 3d 6a 44 87 3c
       0.07837454 -0.011855697 0.06533588 0.016512115
000170 34 d0 cb 3d 73 ba 25 bd 18 3c 3f 3d b8 c4 ef 3d
       0.09951821 -0.040461015 0.04668817 0.11707443
000180 e0 ae bf bd bd 31 94 3d 8b 1b ca 3c 1b e1 53 3d
       -0.09359527 0.07236049 0.024671337 0.05172835
000190 4a a2 94 bd 0f 70 99 3d 82 d1 af 3d 49 5e ae 3d
       -0.07257517 0.074920766 0.08584882 0.08514077
0001a0 03 f3 f6 bc 0c cf 99 bd 7e 8e 40 bd 7d 05 34 3b
       -0.030145174 -0.07510194 -0.04701089 0.0027469092
0001b0 83 d5 b4 3d 80 4c 4b bd 0c 30 b1 3d d8 29 58 bd
       0.08829787 -0.049633503 0.08651742 -0.05277428
0001c0 60 75 1e bd 9b 6a e7 3b 9a 88 86 3d eb 0d 99 3d
       -0.038686156 0.007062269 0.065690234 0.07473358
0001d0 35 87 a4 bd 67 a4 be 3d 0f 57 9b 3c ae 83 02 bc
       -0.08033601 0.09308701 0.018962411 -0.007965965
0001e0 7a 87 50 3d 6d f7 d2 3b 12 25 00 bc 8c da 2b bd
       0.05091045 0.006438187 -0.007821338 -0.04195647
0001f0 59 72 10 3d 04 12 bf 3d 8e 75 48 3d c7 dc dc bb
       0.0352653 0.09329608 0.048940234 -0.006740186

weight f4 [128, 128]
000000 eb 35 60 3b 24 bc 3f bd e8 65 a9 3d 91 82 87 3d
       0.0034211825 -0.046810284 0.0827139 0.066167004
000010 1a 6c 41 bc a8 ba bf 3c 6b 64 db 3d 8a 21 a1 3d
       -0.011805559 0.023404434 0.107125126 0.07867725
000020 ee 7c 73 bc f7 a8 1c bc 1e 75 da bb 6c d7 bf 3d
       -0.0148613285 -0.009561769 -0.0066667935 0.0936726
000030 6a e1 4d bc 24 de 9b bd 54 23 1b bd dc 0d 78 bd
       -0.01256595 -0.07610729 -0.03787549 -0.060560092
000040 e3 b6 11 3b 6b 43 1b 3d 46 3a b0 3d 90 b3 5d 3c
       0.0022234253 0.03790609 0.08604865 0.013531581
000050 c1 3a 27 3c 5a ca 1a 3d f3 8d e6 3c 2a 1b 99 3d
       0.010206879 0.037790634 0.028143859 0.07475884
000060 89 61 c7 3d 8d 8d 26 3c 06 72 27 bd 94 2c f9 bd
       0.097354 0.010165584 -0.040880226 -0.12166706
000070 af 7a c7 3d 07 4c 1a bd f9 45 71 bd ac 85 8e bc
       0.09740197 -0.03767016 -0.05890462 -0.017397724
000080 e7 b3 83 bd d3 2d 01 3e 84 91 9f bb c6 ee a0 3c
       -0.06430798 0.12615137 -0.0048696417 0.019645106
000090 9f fd 61 3d 90 9d 32 bd dd 5d cc 3b 76 7e d9 3c
       0.055173513 -0.043607295 0.0062367753 0.02654956
0000a0 26 5c a2 3c 26 83 4d 3d 88 db bf bc 94 86 aa 3d
       0.01981933 0.0501739 -0.02342011 0.0832645
0000b0 8d d8 20 bd 5c bc 8d 3b fe c3 5d 3c 5e 6f 12 be
       -0.03926902 0.0043254327 0.013535498 -0.14300296
0000c0 43 39 21 3e a2 74 c5 bc 7f 52 4a bd 0d 0c 60 3d
       0.157445 -0.024103466 -0.04939508 0.054698993
0000d0 5d 60 96 3b d5 f0 b2 3d 1d 47 1f 3d 0f 14 fe 3d
       0.004589124 0.08737341 0.03888618 0.124061696
0000e0 7d 11 15 bd 2e 79 2e bc 55 c6 81 3d 6d ca 52 bd
       -0.03639363 -0.010649009 0.06336657 -0.05146258
0000f0 db 4b e0 3d 2b 16 cb bc 73 4e 17 3d 1a f4 55 3d
       0.10951968 -0.024790844 0.03694005 0.052234747
000100 ba f2 b5 bd 4e da 11 3d b3 22 c7 3d 83 9c 94 bd
       -0.08884187 0.035608582 0.09723415 -0.07256415
000110 be 13 d1 3d 42 76 5b 3c 64 49 9a bd 53 2b 32 bd
       0.10208844 0.013394894 -0.075335294 -0.04349835
000120 9e 44 ad 3d 7d 1b 03 bd 4f b1 87 3d 04 5f b9 ba
       0.08460353 -0.032008637 0.06625616 -0.0014142697
000130 a0 92 bb ba 08 01 18 bd 24 22 b9 bd 53 e6 eb 3d
       -0.0014310665 -0.03711036 -0.09039715 0.1151854
000140 c9 04 13 3e 35 aa 55 3c 20 57 89 bb 10 1f 4d 3c
       0.14357294 0.013041069 -0.0041912943 0.012519613
000150 43 8d 45 3e 55 f8 b3 3d 10 52 9c bd 77 a8 83 3d
       0.19292168 0.087876 -0.0763284 0.064286165
000160 1a 1b 10 bd e5 ab 0a bd ec 8a 39 3d 8d 4a 89 bb
       -0.035182096 -0.033855338 0.0452985 -0.0041897953
000170 9d 33 d2 3d c4 89 d6 bc 84 98 70 3c 32 7c 10 bd
       0.10263751 -0.026188739 0.0146848 -0.035274692
000180 6e db 90 3d 6b 4f 52 bd a0 93 2a bd 5e 31 a1 bd
       0.07073103 -0.05134527 -0.041644692 -0.07870744
000190 37 73 84 bd e8 37 bb 3d 57 53 c5 3d 93 17 08 bb
       -0.06467288 0.09141523 0.096350364 -0.0020766004
0001a0 86 66 6e 3d d8 bb 44 bd aa ed d8 bc 39 96 07 bc
       0.058203243 -0.048030704 -0.026480515 -0.008275562
0001b0 5d 19 37 bd 4a 72 6b 3d 3b 7a e4 bc ac 8b 34 bd
       -0.044701923 0.05748204 -0.027890315 -0.044078514
0001c0 f0 81 9d 3d d2 eb 21 3d 64 d1 07 3d 56 99 46 bd
       0.07690799 0.039531536 0.033158675 -0.048486076
0001d0 fa 7c 0f 3c f5 2e c8 3d 1d 3e a9 bc 15 c0 85 3d
       0.008757824 0.09774581 -0.0206595 0.06530777
0001e0 35 ce 8a bc 70 66 da 3d 47 cc 4a bc 21 7f 9c 3c
       -0.01694403 0.1066407 -0.012377805 0.019103589
0001f0 63 d4 40 3d 64 97 9f 3d a8 46 9c 3d 97 e4 81 3d
       0.047077548 0.07792547 0.07630664 0.06342428
000200 8a 8a e2 3c cb 40 20 3c 46 8c a7 bd 55 a3 e4 3b
       0.027653951 0.009781073 -0.08181052 0.0069774785
000210 e8 e9 f4 bc 91 59 81 3d 1d ad af bd 1c 0b b7 bb
       -0.029896691 0.063159116 -0.085779406 -0.005586041
000220 f1 9a 2f bd a0 31 a8 bd d0 e2 83 bd 0f db d1 83
       -0.042872373 -0.0821259 -0.064397454 -1.2334209e-36
000230 74 05 c5 bc 5a 46 a4 3d e4 c4 a9 3c fb 43 a5 bc
       -0.024050452 0.08021231 0.020723768 -0.020174017
000240 8a b6 89 bd 48 d0 7d bd b8 55 0f bd d1 93 15 bd
       -0.0672427 -0.06196621 -0.034993857 -0.03651792
000250 47 ac 2c bd e9 d8 e8 bb 47 b2 90 bb a5 25 59 bc
       -0.042156484 -0.007105936 -0.0044157836 -0.013253604
000260 2e f5 92 bd c7 f9 9b bd 13 37 7b bd 3b 91 cb 83
       -0.071756706 -0.076160006 -0.06133182 -1.1964611e-36
000270 90 4e 9a 3d 93 7b 62 bd 34 a9 20 3d 28 dc a6 3d
       0.07534516 -0.05529363 0.039223865 0.0814746
000280 68 7b 26 3d a6 c5 9e bd 07 6c c6 bd 96 44 82 3c
       0.040645033 -0.07752542 -0.09688573 0.015901845
000290 bf 0b af bd eb 06 f3 3b 77 dd 6d 3c 7f 8d 90 bb
       -0.08547162 0.007416596 0.014518133 -0.004411399
0002a0 f1 e2 0c bd 7f 03 4a 3d 38 36 6c 3d fc c0 a5 bd
       -0.034396116 0.04931974 0.057668895 -0.080934495
0002b0 41 fc 99 3c cc 45 60 bd d9 0a b6 bc f1 3a 72 3c
       0.018797042 -0.054754063 -0.02222197 0.014784561
0002c0 32 e5 a8 bc df 49 0f 3d ca 35 90 bd 10 c8 9b bb
       -0.020617101 0.03498256 -0.070415094 -0.004754074
0002d0 62 ea 15 bd 77 08 82 3d 37 63 cb bc 38 66 e8 bc
       -0.036600478 0.06349271 -0.024827583 -0.028369054
0002e0 a1 29 f8 3c 86 11 3e bd cc d2 4a bc d4 37 81 3b
       0.030293288 -0.04640343 -0.012379359 0.003943423
0002f0 90 21 8b 3d 3d d1 90 bd c5 56 28 bc a5 6b f8 3c
       0.06793511 -0.07071159 -0.010274594 0.030324766
000300 84 aa 8b 3d a2 a7 98 3d 5c 2c a2 3c aa 8a 14 bd
       0.06819633 0.074538484 0.019796543 -0.036265053
000310 5b 9b ea 3c 6b 6c 63 bd 11 cb c0 bb b0 37 67 bd
       0.028638532 -0.055523317 -0.0058835824 -0.056449592
000320 6c c0 9f bd 71 25 5a 3d 66 39 9c 3c 74 86 1c 3c
       -0.078003734 0.053258363 0.019070338 0.0095535405
000330 86 c0 16 3c 6a 3c 88 bd 65 76 90 3d 7a 66 39 bc
       0.009201175 -0.06652148 0.07053832 -0.011315936
000340 54 b6 2a 3d 50 f8 2e 3d d0 9d 9c bc 5b d3 4b 3d
       0.041677788 0.042717278 -0.01911822 0.04976211
000350 99 57 7b 3d 8a a4 a1 3d fc 34 4e bd 71 40 0b 3d
       0.061362837 0.078927115 -0.0503435 0.033997003
000360 d9 be 82 3d 94 ca ba bd e4 f5 4a 39 99 86 8c 3b
       0.063840576 -0.0912067 0.00019355823 0.004288506
000370 13 c2 a5 bc a0 53 54 3c e6 a5 89 bc 64 cf 02 bd
       -0.020234143 0.012959391 -0.01680274 -0.031936064
000380 46 d5 90 bd 04 70 ac bd e6 dc 9b b9 f9 9b 5e 3d
       -0.07071929 -0.08419803 -0.00029728486 0.054347966
000390 0c ba f5 ba 0b 57 07 bd 7a 5b e5 bc 08 2d 23 3d
       -0.0018747463 -0.033041995 -0.027997721 0.039837867
0003a0 e2 74 37 3d e9 89 57 bc e4 06 46 bb 38 43 28 3d
       0.044789203 -0.013155439 -0.003021651 0.04107973
0003b0 af 71 99 3a e9 5b 44 bd fc 55 83 bd cf c4 f4 39
       0.0011706854 -0.047939215 -0.064128846 0.0004668594
0003c0 4b 57 7f 3d 1f 12 05 3d 03 13 2f 3c 04 21 05 3d
       0.06233911 0.032487985 0.010685685 0.03250219
0003d0 ad ce 77 3d d2 45 10 bd f9 1c 4d 3d bc 65 72 bd
       0.060499836 -0.035222836 0.05007646 -0.059179053
0003e0 90 78 39 bd fd 22 2c bd 44 96 76 3d 06 58 5d bd
       -0.045280993 -0.042025555 0.0602019 -0.054039024
0003f0 57 17 b3 bd 1e d4 32 3d a8 a1 2f 3d c0 31 a6 bd
       -0.08744686 0.043659322 0.042878777 -0.08114958

bias f4 [128]
000000 e3 98 7d 3d a7 b2 6d bd 43 b1 bc bc 0b 38 72 3d
       0.061913382 -0.058031704 -0.023033744 0.059135478
000010 e2 40 c0 3c 39 a0 ca bc c5 4a fb 3d c0 c7 c3 bd
       0.023468439 -0.024734603 0.122701205 -0.09559584
000020 8a 0e 0e be 78 b0 da 3d 4a d0 8f bd 3e ce ec 3b
       -0.13872734 0.1067819 -0.0702215 0.0072267344
000030 69 14 eb 3c 84 6a e9 3c dc 2c 2e 3c 34 9d 5a bd
       0.028696256 0.028493173 0.0106308125 -0.053372577
000040 cc 9f c2 3a 14 e1 bc 3d 3b 1a 32 bd e0 10 b2 bc
       0.0014848649 0.09222618 -0.043482047 -0.021736562
000050 3d 94 80 3c 3f c0 fc bb 4a f3 95 bc e5 d3 a7 3d
       0.015695686 -0.007713347 -0.018304486 0.081947125
000060 2c 9b 96 bd 4a df d3 3d 2e ff d5 3c 7c 07 e4 bc
       -0.073538154 0.103453234 0.026122656 -0.0278356
000070 55 99 a1 3d b7 8a 8e bc 8b e5 4e 3c b9 21 36 3b
       0.07890574 -0.017400129 0.0126279695 0.0027791096
000080 4f 85 d8 bb 4d ac a9 bd 48 70 b5 3d 47 9f e5 3d
       -0.0066076885 -0.08284817 0.088593066 0.1121202
000090 7f 7a 33 3b d5 0e ea 3d 4a ce c8 3d a3 f0 28 3d
       0.0027386246 0.1142861 0.098049715 0.041245114
0000a0 d4 f9 8c bd a3 50 7a 3d 40 60 b4 3d d0 c7 d3 bd
       -0.068835884 0.061112057 0.08807421 -0.103408456
0000b0 c4 70 8f bc e4 5a a5 3d 16 88 06 3e 8c 66 46 3d
       -0.017509826 0.08073977 0.1313785 0.04843764
0000c0 c9 6a b5 3d 9b 4c 65 3d e9 50 28 3d d8 b0 7b bc
       0.08858258 0.05598126 0.041092787 -0.015361987
0000d0 a9 ab 72 3d a5 03 96 3d 8e 26 b5 bc f5 57 b6 bd
       0.05924574 0.07324914 -0.02211311 -0.08903495
0000e0 2a e2 92 bb d2 ac 74 3c 3d 78 ce 3d d1 38 a6 3d
       -0.0044825273 0.014933782 0.100815274 0.081163056
0000f0 00 cf 75 bc 68 75 bc 3d 32 e3 20 bb 87 0c c2 3d
       -0.015002966 0.09202081 -0.0024549481 0.09475046
000100 f4 70 32 bd 68 3c 75 3d 38 01 2d 3d d5 ab fa 3d
       -0.04356475 0.05987206 0.04223749 0.122398056
000110 12 3e cc bb a8 91 0d 3a 44 5d 8a 3c 66 98 7a 3d
       -0.0062329853 0.00054004276 0.016890176 0.061180495
000120 a7 17 4e 3d 4c f7 87 3d 32 5d 65 bd 01 64 1f 3d
       0.050315525 0.06638965 -0.05599708 0.03891373
000130 bd 84 3b 3c dc 48 d1 3d 69 e1 25 bd cb 1c db 3d
       0.0114452215 0.10218975 -0.04049817 0.10698851
000140 4d 0e a0 bc 00 61 d3 3d b9 c6 ce 3d 80 3c ce 3c
       -0.01953807 0.10321236 0.10096497 0.025175333
000150 49 17 43 3d 7e 7d 8a 3c ac 3e de 3c dc e3 0f 3d
       0.04762963 0.016905542 0.027129494 0.035129413
000160 6e 56 b7 3d df 1d b2 3d 6b f7 f6 3d 12 bb 36 3b
       0.08952032 0.08697104 0.1205891 0.0027882499
000170 fb f1 4c bd 98 84 95 3d b0 a2 da 3d a0 90 06 bd
       -0.050035458 0.07300681 0.106755614 -0.03285277
000180 ce 20 b0 3d af 2b 61 bd 85 21 4e 3d bc 86 5e bd
       0.08600007 -0.0549733 0.050324935 -0.05432771
000190 0f 10 1f bc 62 19 0e 3d 8d 7d 6a 3d 9c ab b1 3d
       -0.0097084185 0.034692176 0.05724864 0.0867531
0001a0 2a 14 6a 3c df 1d dd 3d f5 56 b1 3d 00 2d af bc
       0.014287034 0.10796713 0.08659164 -0.021383762
0001b0 9d 79 42 3d 00 84 d9 3d d4 fd 14 3d ad 88 f1 3d
       0.04747926 0.1062088 0.036374882 0.11793647
0001c0 fc 98 57 3c 66 af b3 3d 40 24 9f 3d 0b 6f aa bd
       0.013159033 0.08773689 0.07770586 -0.08321961
0001d0 53 c5 7c bc 32 99 01 ba d7 39 4e bd f4 94 36 bd
       -0.015427905 -0.00049437874 -0.05034813 -0.044575647
0001e0 3c bb ab 3d 0f 7b bd 3d 52 75 a3 3d 01 5e 15 3d
       0.083853215 0.09251987 0.079813614 0.036466602
0001f0 c0 09 09 3d a8 07 f3 3c 58 21 8e 3d 92 68 02 3e
       0.033456564 0.029666737 0.069399536 0.12735203

weight f4 [1, 128]
000000 d2 12 ab bd 53 3b d7 3c 1b 74 10 3d 3e 00 ea 3c
       -0.08353199 0.026273405 0.035266977 0.028564569
000010 5a 8d 5c bd 3b 0f 1b 3c 4c 16 de bd e3 1b 7e 3d
       -0.05384574 0.00946408 -0.108440965 0.062038314
000020 ed 10 78 3d db f0 0c 3e 00 01 5b 3c 84 d0 f9 bc
       0.060563017 0.13763754 0.013366938 -0.030494936
000030 f5 02 b3 3d 97 ea 9d bd 84 2d 0a bd 64 9d 31 3d
       0.087407984 -0.0771076 -0.033734813 0.04336299
000040 48 70 bb bd 85 e9 14 bd 54 0c 76 3d 14 ba b7 bd
       -0.09152275 -0.036355514 0.06007035 -0.089710385
000050 4f ca 94 bd f5 e5 e8 bc ff 4c 9b bd 51 1b 24 3d
       -0.0726515 -0.028429965 -0.07583045 0.040065113
000060 d1 91 8c bd 46 72 eb bd ff 11 f2 3d b5 91 14 bd
       -0.0686375 -0.11496405 0.11819839 -0.03627177
000070 00 f2 cc bd ee c1 90 bd a3 87 d1 bd 4d d7 88 bd
       -0.10007095 -0.07068239 -0.10230949 -0.0668169
000080 5d a4 fc 3d 9f fc 45 3d 8e aa 99 bd a7 7d a3 bd
       0.12336037 0.04833662 -0.07503234 -0.07982951
000090 bd 5f 82 bd cc ad 4f bd d8 df ef 3d 7a 39 80 3d
       -0.06365917 -0.050702855 0.11712617 0.06260963
0000a0 4a 64 85 3d 9e ee 09 3e 8b 8b 02 3e 30 91 31 3d
       0.06513269 0.13469931 0.12748544 0.043351352
0000b0 a7 20 b8 bc 83 b8 ee 3d 95 08 7b bd 4c b6 df bc
       -0.022476507 0.116562866 -0.06128748 -0.027308606
0000c0 27 c0 26 3e 8e 38 bb bd c7 2f 76 bd e9 4d 2b bd
       0.16284238 -0.09141646 -0.060104158 -0.041822348
0000d0 d8 61 8e 3d dd 46 f2 bc 9d e5 7a 3d 9f 99 55 3d
       0.06952256 -0.029574806 0.061254133 0.052148458
0000e0 c8 7e d5 bd c5 be 92 bd 07 76 c0 bd 99 d4 a1 bd
       -0.10424572 -0.07165293 -0.09397512 -0.07901878
0000f0 d3 c3 b5 3d a9 9f 0b 3e 1a c3 ad bd b9 da 90 bd
       0.08875241 0.13635124 -0.08484478 -0.07072968
000100 83 4d 97 3d a2 df cd bd 57 63 b0 3d b2 94 6d bd
       0.07387831 -0.1005242 0.086126976 -0.058003135
000110 e2 4f 07 3b f9 23 9d 3d 02 90 50 bd d0 d6 cf 3d
       0.002064698 0.07672877 -0.050918587 0.10148394
000120 5a 9f c4 3d 69 c3 ea bd 3f 86 8b 3d 29 7f da 3d
       0.096007064 -0.11463053 0.06812715 0.10668785
000130 90 01 14 bc c1 79 28 bd a8 43 5e 3d 78 6a fc bc
       -0.009033576 -0.04113174 0.05426374 -0.030812487
000140 5a 85 a8 bd a3 80 93 bd d5 40 9e bd d2 95 46 bd
       -0.0822856 -0.0720227 -0.077272095 -0.048482724
000150 e2 07 b7 bd d0 32 92 bd a4 60 c2 bd 61 c2 0d 3d
       -0.089370504 -0.07138598 -0.09491089 0.034609202
000160 26 f0 3c 3d 95 87 d6 bd 54 6b ce bd e1 08 40 bd
       0.04612746 -0.10475079 -0.10079065 -0.046883468
000170 a2 f5 cb 3b eb bb d1 bc b1 f1 0b bd d2 8a 43 bd
       0.00622435 -0.025602302 -0.03416604 -0.04773981
000180 ea 07 f9 bc 00 72 84 ba 21 20 47 bd 28 e8 98 3c
       -0.030399282 -0.0010104775 -0.048614625 0.018665388
000190 d7 54 d2 bc da 50 67 3d 18 7e d2 3d 3b cf 90 3d
       -0.02567522 0.05647359 0.10277957 0.07070776
0001a0 c8 d0 93 bd 0d 7f 10 3e 10 33 1d 3e c7 1a b1 bd
       -0.07217556 0.14110966 0.1535151 -0.086476855
0001b0 1a ef 66 3d 81 c4 01 3e a6 f3 7a 3d c8 42 c8 3d
       0.05638037 0.12672617 0.061267518 0.097783625
0001c0 3f 37 85 bd 10 93 63 bd 89 76 35 3e 61 a2 7d 3d
       -0.06504678 -0.05556017 0.17720999 0.061922435
0001d0 58 aa 48 bd f9 a4 d1 bd 99 ae 3c 3c fd 6c 05 3e
       -0.048990577 -0.10236544 0.011516237 0.13029857
0001e0 e5 f7 ba 3d 67 6a bf bd c0 b6 82 3d b1 f3 d3 3d
       0.091293134 -0.093464665 0.06382513 0.10349215
0001f0 42 b1 ae bd a2 15 8e bd 82 51 3d 3d 08 eb cb bd
       -0.08529903 -0.0693772 0.04622031 -0.09956938
