AutogluonModels/ag-20220702_011935/models/NeuralNetTorch_BAG_L1/S1F3/net.params (torch, 211783 bytes, 9 tensors)

weight f4 [128, 14]
000000 3d e1 87 bc 7d ad 69 3d 6b e1 71 be 1b 23 42 be
       -0.016586894 0.057050217 -0.23621146 -0.18958704
000010 2c 5e be bd 41 56 06 3d 91 29 bb bc 7b 86 61 3e
       -0.092953056 0.032797102 -0.022846969 0.22023956
000020 bf 9b b8 bc 8d f5 ff 3d 9f 5b 58 bd c3 ae 95 bd
       -0.022535203 0.12498007 -0.05282175 -0.07308724
000030 c7 ac 8d be d6 1d 50 be 3b 23 00 be 7f 5d 24 3d
       -0.2767088 -0.20323882 -0.1251344 0.040128227
000040 92 bb fd 3d 73 25 6e 3e 81 9a 3c be 07 43 31 be
       0.12389292 0.23256473 -0.18418314 -0.17310725
000050 c0 a2 0e 3e ee 53 43 3e e6 68 dc bc 98 ec 54 3e
       0.13929272 0.19074985 -0.026905488 0.20793378
000060 67 9c 11 3c ce cd ce bc 48 4f 66 3e dc f1 87 be
       0.008887387 -0.02524462 0.22491181 -0.26551712
000070 62 f4 2b be f0 6d eb bd 0f 17 21 be 4f 94 74 3e
       -0.16792443 -0.11495578 -0.15731452 0.238847
000080 16 6d 30 be c8 6c ea bd be 19 69 be ce f6 88 be
       -0.17229113 -0.114465296 -0.22763726 -0.26750797
000090 0f 35 35 be 6d 4d 69 3e 7c 80 b9 3d d5 d3 21 3e
       -0.17696021 0.22783442 0.090577096 0.15803464
0000a0 d8 b8 4c bd 4e 3b 79 bd b8 96 ba 3d 6a 85 9c be
       -0.04998097 -0.060847573 0.091107786 -0.30570537
0000b0 e2 4a 68 be 72 c7 25 be b2 4d 01 3e 43 c1 0f 3e
       -0.22684816 -0.16189364 0.12627295 0.14038567
0000c0 1d 73 c4 bd e7 90 c7 3c 67 6b 39 3e 69 37 95 3e
       -0.095922686 0.024361087 0.18107377 0.29143837
0000d0 9b fd e8 3d 3e dd fd 3b aa 8f bc 3d 2e 07 31 be
       0.113764964 0.0077473214 0.09207089 -0.17287895
0000e0 96 3b ad 3b c1 dc aa be fe 92 7a be 63 5d 96 bd
       0.005286644 -0.33371547 -0.24470136 -0.07342031
0000f0 0b bd ff 3d e4 54 75 3d f9 69 38 be f7 da e9 3d
       0.12487229 0.05989541 -0.18009175 0.11418717
000100 d2 94 87 3d 31 5a 35 39 72 b4 5c 3b e0 5c bf 3c
       0.06620182 0.00017295104 0.003367689 0.023359716
000110 e0 1d 4c 3e d3 e2 95 3e 47 5a 89 be 1b 19 89 bd
       0.19933271 0.29274616 -0.2682669 -0.066942416
000120 34 73 04 3e 67 b5 ac 3e 68 a2 8c 3e a4 bd 47 3e
       0.12934572 0.3373215 0.27467656 0.19505936
000130 c3 08 1a bd c3 f5 3a be e5 b7 33 3d ca 3a 05 be
       -0.037606012 -0.18257813 0.043876547 -0.13010707
000140 21 32 81 be 5f b3 72 3e 92 db 60 3e ed 05 96 be
       -0.25233558 0.23701237 0.2195876 -0.29301396
000150 00 7e 86 3d d5 86 00 be 97 20 2d bd 43 cb 79 bd
       0.06567001 -0.12551434 -0.04226741 -0.06098486
000160 b7 4b 88 bc 13 73 70 be a1 0b c2 3d ea 29 1e 3e
       -0.016637666 -0.23481397 0.09474874 0.15445676
000170 94 6e 8e 3e fb a4 c3 3d 9d 56 44 be f8 fe 52 be
       0.2781874 0.09552952 -0.19173665 -0.20605075
000180 01 ae 33 3e 0f 68 ea 3c 9e f7 46 be 40 ea 88 be
       0.17546846 0.028614072 -0.19430396 -0.2674122
000190 6b ae 0f 3e 55 06 3b 3e ad 57 7f bd c4 4a 35 bd
       0.14031379 0.18264134 -0.062339474 -0.044260755
0001a0 14 1c a0 be 40 b3 76 bc 31 39 29 be 1c ad 45 be
       -0.31271422 -0.015057385 -0.16525723 -0.19304317
0001b0 1c 78 c5 bd 81 e1 80 3d d8 c8 18 be 9f 09 21 3e
       -0.0964205 0.062930115 -0.14920366 0.15726326
0001c0 c2 da 26 be 89 e1 75 3e 2e 49 34 3e 05 04 4e be
       -0.16294387 0.24011816 0.17606041 -0.20118721
0001d0 10 03 67 bd 13 1c 85 3d bf 48 6f 3d d2 ab dc 3c
       -0.056399405 0.06499495 0.058418985 0.026937399
0001e0 ca c0 df 3d 1a a5 7c 3c b3 ad 40 be 65 df 14 3e
       0.109254435 0.015420223 -0.18816261 0.14538343
0001f0 0e d4 91 be 25 46 58 be 25 77 28 bd b4 b9 85 be
       -0.28482097 -0.21120508 -0.04112925 -0.26118243
000200 4e ef 3c be 03 ee 28 be 6f f6 de bd 13 da 39 3c
       -0.18450662 -0.16497044 -0.10886847 0.011343497
000210 0d d1 1b be b7 cc 59 3c c1 7d 0c 3e 09 90 14 3c
       -0.15216465 0.013293437 0.13719846 0.009067544
000220 56 ff bb ba 9a 91 e4 bd 54 34 f5 3d e9 89 28 3e
       -0.0014343064 -0.11160584 0.119728714 0.16458859
000230 8d ee 8f 3e 3d 50 2f 3e 6d 6b 82 3e 2e 44 c2 bd
       0.28111687 0.17120452 0.25472584 -0.094856605
000240 0e 79 85 be 16 37 0a be d6 65 a3 3e 8b 5e 0e 3d
       -0.2606892 -0.13497576 0.31913632 0.034758132
000250 00 b7 04 be 73 6e ed bd df 25 91 be 52 c5 a9 be
       -0.12960434 -0.11593332 -0.28349206 -0.33158356
000260 08 60 9a be b4 f2 05 3e 64 cc c0 3d 48 25 a4 be
       -0.3015139 0.13080865 0.094139844 -0.32059693
000270 73 71 d9 3d 78 bf 32 be 86 05 07 bd 52 28 47 be
       0.10617342 -0.17455852 -0.032964252 -0.19448975
000280 20 50 4e bd ce e3 cf bd f8 a0 97 be 58 05 11 be
       -0.050369382 -0.10150872 -0.29614997 -0.14162195
000290 7e 95 02 bd 52 4c d0 bd 52 78 96 be 45 9b 42 3e
       -0.031880848 -0.10170807 -0.29388672 0.19004543
0002a0 80 cb bc be 21 ee f0 3d 27 df ab 3e aa f3 f8 bc
       -0.36874008 0.117641695 0.3356869 -0.030389626
0002b0 fb 94 86 3e bb de df 3c 9f 51 aa be 20 41 a6 3d
       0.26285538 0.027327886 -0.33265397 0.0811789
0002c0 59 ee c2 bd c1 89 5e bd f5 0e 42 3e dc c0 88 be
       -0.095181175 -0.05433059 0.18951018 -0.2670964
0002d0 41 4d 1c 3e b2 95 ae bd 32 2d 11 3e 4a b0 d3 bc
       0.15263845 -0.08524646 0.14177397 -0.025840897
0002e0 4a 1c ae 3d be 0a 19 3e 8a 0b ab bd 21 83 ca bd
       0.085014895 0.14945504 -0.0835181 -0.09888292
0002f0 19 6a 8a be 28 82 04 3e 7e 6d 4c 3e 6d a4 42 3e
       -0.2703407 0.12940276 0.19963643 0.19008036
000300 a2 f8 21 be 02 22 92 3c 01 23 9e be 64 c3 98 bd
       -0.15817502 0.017838482 -0.3088608 -0.07459143
000310 30 ac 20 be b6 24 d0 3c 6a 10 43 be b0 64 4f bd
       -0.15690684 0.02540813 -0.1904923 -0.050633132
000320 b3 37 aa bc 99 84 2f 3e 31 47 55 be c4 55 37 be
       -0.020778513 0.17140426 -0.20827939 -0.1790381
000330 4a 36 ff bd d6 00 3d 3e f3 9c 1b be 14 6d 60 3e
       -0.12461527 0.1845735 -0.1519659 0.2191661
000340 38 cf 07 3d 21 a9 62 3d a1 1e 14 bc 20 1a 8d bd
       0.033156604 0.055337075 -0.009040506 -0.068897486
000350 c8 77 d0 3b 43 b7 ee bd e6 69 a7 3c f5 ab 41 3d
       0.0063619353 -0.11656048 0.020436238 0.04728313
000360 74 97 76 be 33 66 0b be d2 f1 43 3e 00 0c 16 be
       -0.24081212 -0.13613205 0.19135216 -0.14653015
000370 be 5f c1 bd 37 f4 6e 3e e9 d4 87 3c d0 4e b7 bd
       -0.094420895 0.23335348 0.016581016 -0.08950579
000380 db ff 5d be cc 8e d7 3d 4c b6 6a be be e6 1a be
       -0.21679632 0.10525283 -0.22921103 -0.15127084
000390 65 8b a8 bd e3 55 98 bd b2 49 06 3d 4f 83 6f 3e
       -0.082297124 -0.074382566 0.032785125 0.23389934
0003a0 6a db 61 3d f1 52 88 3e 47 6a 34 3e c1 98 62 be
       0.05514089 0.2662578 0.17618667 -0.22128583
0003b0 d7 b5 d7 3d 0c 09 79 be b4 f6 00 be 0f a7 6c 3d
       0.1053273 -0.24319857 -0.1259411 0.057776507
0003c0 b4 1f 20 3d 07 1c 9a 3e e3 46 d8 bd 9b 4c a0 bd
       0.039092734 0.30099508 -0.105603956 -0.07827111
0003d0 3a d9 0f 3d fa 1c 7c be 9c 2c 2f 3e 59 e3 2b be
       0.035119273 -0.24620429 0.17106861 -0.16785945
0003e0 17 f8 f9 bc 43 cb d3 bd f5 6d 41 be d0 de a3 bc
       -0.030513806 -0.103415035 -0.18889602 -0.020003706
0003f0 d6 91 6a 3e d4 fa ff bd c2 90 2f be c0 0e 22 be
       0.22907194 -0.124990135 -0.17145064 -0.15825939

bias f4 [128]
000000 80 45 56 3e e0 a7 07 3e 84 c1 de 3d 2f 43 be bd
       0.2092495 0.13247633 0.10876754 -0.09290158
000010 67 db db 3d fd 35 04 3e 6c 06 ff 3d f1 f7 a4 bc
       0.10735207 0.1291122 0.12452397 -0.020137759
000020 c9 82 db 3c c9 bf 89 bd 1e dd 97 be 91 b7 49 bc
       0.026795762 -0.06726033 -0.29660887 -0.012311832
000030 cf 9f 7d be 37 35 18 3e 55 6d 35 be 93 c3 1d be
       -0.24767993 0.1486405 -0.17717488 -0.15406637
000040 b8 e9 1d be ba 75 16 3e ee 85 49 be 0a 6a ce 3d
       -0.15421188 0.14693347 -0.19679996 0.10078819
000050 9c 89 22 3e e4 a7 13 3e 19 e0 93 3d 57 df a3 3d
       0.15872806 0.14419514 0.072204776 0.08001583
000060 a7 5f 38 3e 29 3f 02 3d 75 9f 83 3b b9 b2 6d be
       0.18005238 0.031798515 0.0040168115 -0.23212709
000070 f6 be 29 bd 6b cd 47 3b 11 2c a1 3d ed 8b ad bd
       -0.04144188 0.003048743 0.07869733 -0.08473954
000080 43 d1 8e be 57 d6 93 bd 56 3a 10 3e 65 91 5c 3e
       -0.2789403 -0.072186165 0.14084753 0.21539839
000090 82 04 83 be 21 8b cb 3d 9f 9e 57 be 43 82 5f be
       -0.25589377 0.09938646 -0.21056603 -0.21827035
0000a0 38 f7 16 be 4d f2 6d bd 3e 39 25 3d 65 e0 94 be
       -0.14742744 -0.058092404 0.040337794 -0.2907745
0000b0 ff 41 23 3e 04 72 71 3e 90 76 cb ba 11 af 5b 3e
       0.15943144 0.2357865 -0.0015523005 0.21453501
0000c0 ca 08 17 be a6 cb 12 be 01 35 79 bc d6 1a 5a bd
       -0.14749447 -0.14335498 -0.015210391 -0.05324825
0000d0 1f 2d 5a be 86 2c 49 be 8b e6 90 3d e8 e0 87 bc
       -0.21306275 -0.1964589 0.070752226 -0.016586736
0000e0 81 dc 5f 3e fa e5 27 be 82 6c b9 3d 44 56 bc bd
       0.2186146 -0.16396323 0.09053899 -0.09196141
0000f0 d4 45 0a 3e 73 b9 15 bd 32 c4 47 3e 35 96 03 3e
       0.135032 -0.03655381 0.19508436 0.12850268
000100 8b 91 41 3e 74 df 13 3e 8e b1 95 bc c6 4c 21 3e
       0.18903176 0.1444071 -0.018273141 0.15751943
000110 71 71 10 be 51 1d 7c 3e ed f3 9b 3e d5 16 21 3e
       -0.14105774 0.24620558 0.30459538 0.15731366
000120 6e 0b 02 be 55 24 28 be c7 62 94 3d a0 25 93 3d
       -0.12699673 -0.1642011 0.07245403 0.07184911
000130 84 d8 ee 3d fd 28 92 3c 12 b5 47 3e fc c7 01 be
       0.11662391 0.01784181 0.19502667 -0.12673944
000140 e3 cb f1 bd 3f c8 17 3d 26 82 c9 3c 9e ca 21 be
       -0.118064664 0.037056204 0.024598192 -0.15799949
000150 03 ab a0 bc 49 86 76 be 9d b6 bd bd 3d 71 8c bd
       -0.019612795 -0.24074663 -0.09263346 -0.06857536
000160 a1 6f 86 3e cf 06 77 be 9e 09 0b be e8 3b 81 be
       0.2625704 -0.24123691 -0.13577887 -0.25241017
000170 9c ba 8a 3d b5 99 6f be 54 85 81 3d a7 65 15 be
       0.06773874 -0.23398478 0.063242584 -0.14589559
000180 6f 56 29 be 7a 82 2f be 7d 72 e3 bb 4a 32 53 3e
       -0.16536878 -0.17139617 -0.0069411383 0.20624653
000190 b1 ea 5b 3e 03 2f a6 bd 62 12 95 be b5 17 bb bd
       0.21476246 -0.081144355 -0.29115587 -0.09135381
0001a0 9a 8b 29 be 28 17 36 bd b7 0e a1 3b 6c ad cb 3d
       -0.1655716 -0.044455677 0.004915084 0.09945187
0001b0 35 69 9f 3d 01 06 91 3b 75 39 fc bd cb 93 6b bd
       0.077837385 0.0044257645 -0.123156466 -0.057513993
0001c0 c4 06 ae bb 54 20 46 be 9d 46 b7 bd f6 48 cb bc
       -0.005310865 -0.1934827 -0.08949015 -0.024815064
0001d0 d4 2a 83 be ac 36 f9 3d 61 5d 0e bd 11 50 80 be
       -0.25618613 0.12168631 -0.03475702 -0.25061086
0001e0 36 d7 60 3e 6a ff 0f be 1b da 4e 3d e9 ef 76 3e
       0.21957096 -0.14062276 0.05050097 0.24114956
0001f0 3a 5b 36 bd 6a 49 70 3d 22 3f c0 3d 1e 72 b4 3d
       -0.044520594 0.058663763 0.09387042 0.088108286

weight f4 [128, 128]
000000 d5 3d 68 bc 9c a1 9a bb 3e d3 61 bb 31 88 a7 3d
       -0.014174898 -0.0047189724 -0.0034458186 0.08180273
000010 0d 1b b6 3b ba 33 95 3d 2b 36 54 3d 0c d6 2b 3c
       0.005557424 0.07285257 0.05180947 0.0104880445
000020 9e ff 2b bc 99 d2 40 3d 60 cb d1 bd 59 36 94 bd
       -0.010497956 0.04707584 -0.10243869 -0.072369285
000030 bc 2b c0 bd 41 f3 3c 3d 5e f7 90 3d 1a 30 b6 3c
       -0.09383342 0.046130423 0.070784315 0.022239733
000040 4e 6e c6 3c e3 b9 67 3d 25 a8 32 bd 1d f1 bd bd
       0.02422252 0.05657376 -0.043617386 -0.09274504
000050 96 07 bc bd c3 be 81 bd 4a 9b 86 bd 3b 37 a1 bc
       -0.091811344 -0.06335213 -0.06572588 -0.019679656
000060 90 cc 3d bb e8 03 51 3c c2 27 f9 bc b1 b0 38 3d
       -0.002896104 0.012757279 -0.030414466 0.04509038
000070 01 84 94 3d 0c 5b 01 bd 43 9f 30 3d 54 45 56 3c
       0.0725174 -0.03158097 0.043120634 0.013078053
000080 c8 bf e4 3d fc f9 e9 bb dc c2 08 bd dd f5 15 bd
       0.11169392 -0.007140396 -0.033388957 -0.036611427
000090 cf 73 d9 3d 68 17 90 bc 2e 74 98 bd 2a 30 e8 3d
       0.10617792 -0.017589286 -0.074440345 0.113373116
0000a0 a1 e2 aa 3d 93 f4 7c bd fe de 0d bd e0 7d c4 3c
       0.08344007 -0.06175668 -0.03463649 0.023985803
0000b0 d3 0d 9b bc e0 23 c2 bc ff 65 33 bd 35 4d 81 bd
       -0.01892749 -0.023698747 -0.043798443 -0.06313554
0000c0 f1 38 32 bd 69 39 4a bd d6 17 00 be 9d 88 87 bc
       -0.043511335 -0.049371157 -0.12509093 -0.016544634
0000d0 b4 14 25 3d dd f5 73 bd 77 d7 31 bc 87 d8 64 bc
       0.040302947 -0.059560645 -0.0108545935 -0.01396764
0000e0 14 08 ed 3d d1 42 83 3d 9d 0b 96 3c e8 fd c8 bc
       0.115738064 0.064092286 0.018316085 -0.024535134
0000f0 21 c9 62 bd eb 79 6d bd 40 15 5e 3d d9 18 8c 3b
       -0.055367593 -0.0579776 0.054219484 0.004275423
000100 d8 3d 2c 3c b5 b3 f8 bc b0 2e b9 3c cf 55 68 bd
       0.010512792 -0.030359128 0.02260527 -0.05672246
000110 35 06 82 3d c4 ba 90 3d ef 40 bb bd 91 da de bc
       0.0634884 0.07066873 -0.091432445 -0.02720383
000120 f8 8d b8 3d 90 34 90 bc b0 25 f9 bc 96 94 59 3d
       0.090114534 -0.017603189 -0.030413479 0.05312022
000130 3b b9 23 3c d4 7a 96 bd 3c 0a 08 bd 8e e7 a7 3d
       0.009992893 -0.07347646 -0.033212885 0.081984624
000140 86 3a a4 3d ec 1c 60 3d fa 00 be 3a 1f 78 3e 3c
       0.08018975 0.054715082 0.0014496141 0.011625319
000150 a1 be c5 3d 1e 83 05 3d ae 0b 05 bc f7 c9 de 3c
       0.096555 0.032595746 -0.00812046 0.027195914
000160 79 ed 86 bd 32 c8 91 3d ca 62 bc bd 69 19 53 3d
       -0.06588263 0.07118262 -0.0919853 0.051537905
000170 45 d9 05 bd a3 b2 33 3c c4 52 da 3d 8e d2 09 3c
       -0.032677907 0.010967883 0.106603175 0.008412017
000180 95 9c 0d 3c 4f 0e 6d 3d 82 c5 7a bd 25 12 3a bd
       0.008643289 0.057874974 -0.061223514 -0.04542746
000190 22 23 54 bd 85 01 a2 bd a0 47 82 bb a0 97 45 3c
       -0.051791318 -0.07910446 -0.0039758235 0.012060076
0001a0 af 67 8d 3d 83 6a 46 3c 17 ae 84 3d 63 c0 74 bd
       0.06904542 0.012110355 0.064785175 -0.059753787
0001b0 b6 f1 95 3c 40 c5 89 3c b0 f4 aa 3c 9a 62 f2 3d
       0.018303733 0.016817689 0.02086863 0.11835213
0001c0 23 7c 14 bd 72 69 37 bb 5b 4a 96 bd f5 37 89 3d
       -0.0362512 -0.0027986434 -0.07338401 0.06700126
0001d0 7f 9f 69 bb 9f 4f eb bd fb ab 88 3d 44 70 1a be
       -0.0035648046 -0.11489796 0.06673428 -0.15081888
0001e0 e4 7f 85 bd 90 f8 83 3d dc 50 93 3d 43 8c c8 3d
       -0.06518534 0.06443894 0.07193157 0.09792378
0001f0 da 15 81 3d 1a 6d 1b 3b 68 91 6c 3d 72 fb d8 bc
       0.06302996 0.0023716153 0.057755858 -0.026487086
000200 b3 fe f1 bc 30 99 97 bc 75 ca 38 bd bc 87 59 3d
       -0.029540395 -0.018505663 -0.045114953 0.053107962
000210 81 b1 1c bd 70 88 9a bb 83 73 29 bb 7f a0 b4 3c
       -0.03825522 -0.0047159716 -0.0025856204 0.022049187
000220 0e 82 bd 3d 22 3e 09 3d 93 aa a5 bd 21 59 fd 3c
       0.092533216 0.03350652 -0.08089175 0.030926289
000230 d3 d2 3b 3d a6 1e 2d 3d 57 7c 9b bc 93 e1 6d 3c
       0.045855355 0.042265557 -0.018980188 0.014519113
000240 d2 a0 29 3d 0f e4 b3 3d 31 5c 23 bd 8a 94 d4 bb
       0.041413136 0.08783733 -0.039882842 -0.006487434
000250 a6 30 0d be 07 1e 0b be df 4b ad bd ac 18 3b 3d
       -0.13788089 -0.13585673 -0.08461737 0.045677826
000260 5e 1f ac bd 22 58 27 bb d0 59 76 3d 9e bd 27 bc
       -0.0840442 -0.002553471 0.060144246 -0.010238079
000270 04 f6 af 3b 39 c8 af bd c2 92 5a 3d 9c d4 46 bd
       0.0053699035 -0.08583111 0.053362615 -0.048542604
000280 36 c3 d3 bd a0 da 9a bd 0c 1d a5 bd 51 b5 e3 3d
       -0.10339968 -0.07561231 -0.08062181 0.11118568
000290 ab b9 9c bd 46 cb a1 bc 3f 0a 75 be fb 54 5c 3d
       -0.07652601 -0.019750249 -0.2392969 0.05379198
0002a0 0d 78 fe bc d9 7f 28 bb 33 59 e3 bc 1a 2b 6f bd
       -0.031063104 -0.0025710969 -0.027752494 -0.058390714
0002b0 68 f0 83 3d 3e 0a f7 3c c6 65 f0 bc 40 42 f2 bc
       0.06442338 0.030156251 -0.029345404 -0.029572606
0002c0 15 97 73 3c 47 0a e5 bb 75 3c 28 bd e6 49 83 3d
       0.014867564 -0.0069897505 -0.04107328 0.064105794
0002d0 4c 60 02 be af dc 34 ba ee 51 83 bc b6 b5 ab bc
       -0.12732047 -0.00068993395 -0.016030278 -0.02096067
0002e0 a5 65 16 3c d2 f4 f2 3d a5 d2 13 bb b3 f0 c2 bd
       0.009179507 0.11863102 -0.0022555974 -0.09518566
0002f0 a8 17 91 3d 8f 4c 1a 3d 8c fe 59 3d 62 16 26 bd
       0.0708459 0.03767067 0.05322127 -0.04054869
000300 88 90 82 3b 74 79 ae 3d e8 60 8e 3d 0b c6 a5 bc
       0.0039845146 0.08519259 0.06952077 -0.020236036
000310 2d 4e 6b be 8c 7e f5 bd 49 2e 87 bc 99 87 b4 3b
       -0.2297904 -0.119870275 -0.016501563 0.0055093286
000320 db 36 22 3b 36 0a bc 3d 28 a3 be bd 53 18 ab bc
       0.0024751935 0.09181635 -0.09308463 -0.020885622
000330 c4 3b 88 bc 53 41 89 3d f5 eb 84 3d 7e 67 91 3d
       -0.016630061 0.06701913 0.06490318 0.07099818
000340 59 e7 82 3d 0e e6 de bd d6 45 74 3b bd 24 a4 3d
       0.06391782 -0.10883723 0.003727307 0.0801482
000350 0a 03 a6 bd 4c 95 8d 3c 0f 1b 00 bd c0 33 84 bd
       -0.081060484 0.017283104 -0.031275805 -0.06455183
000360 99 8a 30 3e fc 61 be bd b9 6e 09 3e d9 9c fa 3c
       0.17240371 -0.09296033 0.13421144 0.030592369
000370 21 af 63 bd 65 ea 2a 3d ca 67 0b be 92 99 94 3c
       -0.055586938 0.041727442 -0.13613811 0.018139634
000380 10 39 e0 bc bc e0 30 bd a2 2f c5 3b c9 1f 3f bd
       -0.02737096 -0.043183073 0.006017641 -0.046661172
000390 86 c4 af bd ef 18 d8 bc 2b 48 85 3d 2a 2a 17 3d
       -0.08582406 -0.026379077 0.065079056 0.036905445
0003a0 21 24 4b 3d 81 bc 7c 3d 67 70 4d bc 99 87 33 bd
       0.049595002 0.06170321 -0.012539006 -0.043830488
0003b0 21 18 c0 3c be f8 ab bd 46 14 14 bb 9b d6 f6 bc
       0.023449006 -0.08397053 -0.0022595092 -0.030131629
0003c0 96 ac 9b 3d 42 71 ae 3d ec 92 fa bc d2 3c fe bd
       0.076012775 0.08517696 -0.030587636 -0.12413944
0003d0 8e 84 0c be 57 94 d3 bc 3e 19 78 3b b4 da 1e 3d
       -0.1372244 -0.02582757 0.0037856842 0.03878279
0003e0 02 7b 5b bd 51 4f e2 bb a3 8d 10 3c 5a 37 8a bc
       -0.053584106 -0.006906428 0.008822831 -0.016872097
0003f0 b0 93 18 3e 1f a6 91 3c 70 7a 06 bc 40 a1 9e 3c
       0.14900088 0.017779408 -0.008207902 0.019364

bias f4 [128]
000000 e8 8e c5 3d fd ad da 3b de d9 cb 3d 4c 07 c7 3d
       0.09646398 0.006673573 0.09953664 0.09718189
000010 68 d1 78 3d f7 16 3c bd b5 c2 5d bd aa 4a a0 3c
       0.06074658 -0.04592034 -0.054140765 0.019566853
000020 d1 d6 5f 3d 2e 47 f6 3b 4b 65 9a 3d 0a 51 fc bb
       0.054648224 0.0075158095 0.07538851 -0.0077000903
000030 72 6e 80 3d db b0 80 bd b8 93 29 bc d0 be ab 3d
       0.06271066 -0.062837325 -0.01035016 0.08386004
000040 24 10 55 bd ff 61 b7 bc d5 ed e6 bc 80 0a b5 bd
       -0.052017346 -0.022385595 -0.028189579 -0.08839893
000050 8a 23 91 bd f1 bb f6 bb e3 43 ba 3b 75 7b 02 3d
       -0.07086857 -0.0075297286 0.0056843623 0.03185602
000060 9a 28 2a 3c 95 85 8b 3d 6e e4 85 3d 88 48 8f 3d
       0.010385657 0.06812588 0.0653771 0.06996256
000070 70 93 80 bb 7d 3c 11 3d b4 00 83 bd d5 a0 92 3d
       -0.003923826 0.035458077 -0.063966185 0.071595825
000080 aa 56 46 3d d1 99 e4 3c e5 3c 10 bd e5 03 bb 3d
       0.048422493 0.027905377 -0.035214324 0.09131602
000090 09 33 ab bd e5 ec 7c 3d b3 f7 80 3d 6b 03 1f 3d
       -0.083593436 0.061749358 0.06297245 0.03882162
0000a0 98 95 a3 3d 32 a9 f6 bc 2e 28 b7 3d 7c e7 b4 3d
       0.07987517 -0.030109975 0.089432105 0.08833215
0000b0 49 32 83 bc b7 65 ae 3d 34 2f 0c bd 07 31 7f bd
       -0.016015189 0.08515494 -0.034224704 -0.062302615
0000c0 ab 3b 9e 3d 72 92 37 3d 1e 35 40 3d b7 9c ef 3c
       0.077262245 0.044817396 0.046925656 0.029249532
0000d0 b6 e9 91 bc d8 cd 52 bc 82 71 7f 3d f1 a7 48 bd
       -0.017811637 -0.01286646 0.06236411 -0.048988286
0000e0 c7 32 45 3d c2 b4 c3 3c 41 82 b1 3c 2b 5f bd bd
       0.04814413 0.023889903 0.021668555 -0.092466675
0000f0 dd 29 01 bd bf 48 06 bd 78 ee 41 bd 26 7f cb 3d
       -0.031534065 -0.03278422 -0.047346562 0.09936361
000100 ae 23 e1 3c 05 d9 56 bd 1d c4 58 bd 0c 0a 9c bc
       0.027482834 -0.05245306 -0.052921403 -0.01904776
000110 ed 5b 8c 3d a2 68 3b bd fb 85 46 3d 00 dc 2b 3d
       0.06853471 -0.045754083 0.048467617 0.041957855
000120 78 14 91 bd 1f 63 a0 bd 8e f5 b5 3c f2 f7 9f 3d
       -0.07083982 -0.07831406 0.022211816 0.07810964
000130 5b e9 8e bc 25 cd 88 bd 97 7e fd 3c 2d 1f 33 bc
       -0.017445257 -0.06679753 0.030944152 -0.010932726
000140 fd dc 89 bd 7c 98 ec 3c 13 85 8e 3d c0 4d a6 bd
       -0.06731603 0.028881304 0.06958976 -0.081202984
000150 75 4b f5 3c c3 f4 e8 bb 1b 85 72 bd 4e 9f ab 3d
       0.029943207 -0.007109256 -0.05920897 0.08379994
000160 0a b7 c8 bc 48 3e cf 3d 9b e6 c2 bd 65 60 c3 3c
       -0.024501342 0.10119301 -0.09516641 0.023849675
000170 ed 25 98 bc f6 40 25 3d 2a 2c da bd 65 9b 2e 3d
       -0.018572772 0.040345155 -0.10652955 0.042628665
000180 99 8a 9b bd 12 20 95 3d e9 bc 6e bd fe 18 92 3c
       -0.07594795 0.072815076 -0.058285628 0.017834183
000190 80 66 9e bd b8 62 8c bd bb 18 42 3d 88 a2 81 3d
       -0.07734394 -0.068547666 0.047386866 0.063298285
0001a0 70 e4 8c 3d 09 d3 8c bd 07 20 2e bd ab a5 a4 3d
       0.068795085 -0.06876189 -0.042511012 0.08039411
0001b0 fb ce b6 3c a9 af 42 3d 7e 2a 2e 3d b8 f7 28 bd
       0.022315493 0.047530804 0.042520992 -0.041251868
0001c0 2a 83 07 bc 51 1b 59 3c bd cb c3 bd 3b f4 61 bc
       -0.008271018 0.013251142 -0.09560344 -0.013791139
0001d0 68 54 92 3d a5 94 16 bd 95 04 32 bd c6 e3 36 bd
       0.071450055 -0.036762852 -0.0434614 -0.044650815
0001e0 84 12 80 ba a0 75 ff bc 71 65 b1 bd 08 07 5c 3d
       -0.0009771143 -0.031184018 -0.086619265 0.053717643
0001f0 37 e1 e4 bd 70 56 00 bd 59 6d 80 bd 30 42 fe bc
       -0.11175769 -0.031332433 -0.062708564 -0.03103742

weight f4 [128, 128]
000000 03 c7 63 3d 49 1c 96 bd 0b 72 2e bd a4 56 39 bd
       0.055609714 -0.07329614 -0.04258923 -0.045248643
000010 d1 48 49 3a 13 e0 eb 3c 91 4d 8a 3d ff 11 5e 3d
       0.0007678392 0.02879337 0.06753076 0.05421638
000020 48 e1 7e bd 4a 92 39 bd 1f 61 27 3d a0 66 d1 3a
       -0.062226564 -0.045305528 0.040864106 0.0015976019
000030 d6 55 9f 3d 27 94 f0 bd 1a b6 c4 bd d1 51 ba bd
       0.07780044 -0.11747008 -0.096050456 -0.090976365
000040 32 2e 91 bc f6 4d 83 3d 36 df b3 bd 67 75 f8 3b
       -0.017722223 0.06411354 -0.087828085 0.007582355
000050 cf 3e 86 bc 45 f1 3c 3d e1 34 d3 bd 75 3e ae bc
       -0.016387371 0.04612853 -0.1031282 -0.021270016
000060 04 1a 2a bd 3b cc 90 bd 0d bc 07 bd e1 ba 8c 3a
       -0.041528717 -0.07070204 -0.033138324 0.0010736847
000070 b6 39 5f bd 07 4a 51 3d 5a c7 05 3d 7f 1f 9e ba
       -0.054498397 0.05109599 0.03266082 -0.001206383
000080 85 63 7d bc d0 2c 05 bd e7 8c b8 3d 08 32 4b 3c
       -0.015465622 -0.03251344 0.0901125 0.012402065
000090 ea 36 a1 bd a2 cc 87 39 b3 ba b7 bd 8b b4 b0 bd
       -0.07871802 0.0002590167 -0.08971157 -0.08628186
0000a0 50 b3 96 bc ae 88 a4 bc 48 1c f9 3c 2b de 5c bd
       -0.01839605 -0.020084705 0.030408993 -0.053922813
0000b0 ca 78 09 3b eb a5 21 3d 74 65 3c bd dd 39 d3 bc
       0.0020976537 0.039464872 -0.04599519 -0.025784427
0000c0 e2 70 9c bc fc 6b 99 bb 3f ea 95 3d de be 09 3d
       -0.019096795 -0.004682062 0.073200695 0.03362929
0000d0 e8 80 83 3d 68 36 ae bb 63 ce ce bd 5a 36 40 bd
       0.06421071 -0.0053165443 -0.10097959 -0.046926834
0000e0 ad 51 34 bc 16 a1 95 3d 7b 1a e5 bc 25 a0 57 3d
       -0.011005801 0.07306115 -0.027966728 0.05264296
0000f0 fd 65 98 bd 78 6c 7e 3c e2 52 1b 3d 7b ca 84 3d
       -0.07441328 0.015528791 0.03792084 0.064839326
000100 bb 4a 84 3d ce 53 08 3c 96 73 82 3d fc dc 5f 3c
       0.06459566 0.008320762 0.063697025 0.013663527
000110 e9 3b 7d 3d f2 bf 40 bd 7b 79 b9 bd dc 24 8a 3c
       0.061824713 -0.047058053 -0.09056374 0.016863279
000120 9d dc d2 bb 6a 21 62 3d 60 b6 2e bd 44 2d 42 b9
       -0.0064349906 0.055207647 -0.042654395 -0.00018518144
000130 97 fd 34 bd d5 25 db bc f0 25 3e bd c1 4b e5 3b
       -0.044187155 -0.026751438 -0.0464229 0.006997556
000140 c7 0f 9f bd 86 2b 11 bc ec 6b a3 bb 03 64 0f 3d
       -0.07766681 -0.008860474 -0.0049872305 0.035007488
000150 a4 d0 b8 3d 00 e4 42 bd 35 65 21 3d 34 78 aa bd
       0.0902417 -0.04758072 0.03940316 -0.08323708
000160 9b 18 24 bd 99 71 90 bd 1d 13 a1 bd f5 7a dd 3b
       -0.040062528 -0.07052917 -0.07864974 0.0067590424
000170 17 91 4e bd 31 6f 3c bd 8c 3b c7 3d 45 a9 d3 3c
       -0.050431337 -0.046004478 0.097281545 0.02583755
000180 bf b1 1d 3d 85 fa 3d 3c 74 4b 85 3b 85 0c 21 bd
       0.03849959 0.011595373 0.0040678326 -0.03931858
000190 2b 50 fa 3d ca 00 cb bd a0 dc e6 bd e8 83 07 3d
       0.12222322 -0.0991226 -0.1127255 0.03308478
0001a0 7a 84 62 3d 18 3d 99 3d 65 26 ab 3c 41 06 c5 bb
       0.05530212 0.07482356 0.020892331 -0.0060127084
0001b0 14 9f 6e bd f0 b6 00 bc 42 df 9c 3c 14 27 d2 bc
       -0.058257177 -0.007856116 0.019149426 -0.0256534
0001c0 9d 22 aa 3c 25 f4 64 3d 59 bf d3 3d 98 24 3f bd
       0.020768458 0.055896897 0.10339231 -0.046665758
0001d0 1a b3 60 3d c1 63 a4 bd 64 08 9e 3d 05 be ae bd
       0.054858305 -0.08026839 0.07716444 -0.08532337
0001e0 4a 4e 26 bb ae 62 37 bc f5 66 b3 3c 61 e1 17 3d
       -0.0025376254 -0.011192961 0.02189968 0.037080172
0001f0 21 ca 01 3c 88 d4 3a bd aa d1 b4 3d 69 5d 19 bc
       0.007921726 -0.04561284 0.08829053 -0.00936065
000200 eb a6 cc 3b 9f c0 ac bd 4b 90 29 3d 71 00 97 3d
       0.006245484 -0.08435177 0.041397374 0.07373131
000210 00 cc 10 3d 74 8b 75 bd ae d2 4e bd 6f e2 f4 3d
       0.0353508 -0.059947446 -0.05049389 0.11957251
000220 6c 5d 17 3d 58 f9 7c 3d b6 74 10 3d 1d 7f 16 3d
       0.03695433 0.06176123 0.035267554 0.03674232
000230 ac af 66 3d 74 01 21 bd 77 af ab bd 65 c0 20 bc
       0.056319878 -0.039308026 -0.08383077 -0.009811495
000240 84 a5 b0 bd 1d f7 be 3d 9a 66 10 be 8e 1a 06 bd
       -0.086253196 0.09324477 -0.1410164 -0.03274017
000250 a0 2b 9a 3c e0 0d 44 3d bc 78 cb 3d f0 0f 81 3d
       0.01881963 0.047864795 0.09935138 0.06301868
000260 c0 0f 12 3c 89 c0 76 3d af 64 20 bc 7f 12 3c bd
       0.008914888 0.06024221 -0.00978963 -0.045916077
000270 d4 5b 64 3c b9 7b 9d 3c d6 53 99 bc f0 a9 a1 3b
       0.013937909 0.019224035 -0.018716734 0.004933588
000280 ad 36 83 bd 0b 33 16 3d 2e f5 2b 3d 85 b8 f5 3c
       -0.06406913 0.036669772 0.04198187 0.029995212
000290 a1 31 03 be 1c 8f 6a 3d f0 63 3b bd 8e 13 bd bc
       -0.128119 0.057265386 -0.045749605 -0.023080613
0002a0 35 70 84 bc d1 8c 84 3d 56 39 45 bd 90 17 3a 3b
       -0.016166786 0.06472171 -0.048150383 0.0028395392
0002b0 01 08 c6 bc cb e7 bd bc 10 7b b1 bd f4 71 37 3d
       -0.024173738 -0.023181817 -0.086660504 0.04478641
0002c0 a5 44 19 3d fd a3 a5 bd 2e a3 eb 3a 25 9a 43 3c
       0.03741898 -0.08087919 0.0017977708 0.011938606
0002d0 45 a7 17 3d 62 aa da 3b 1d e2 d2 bc 4d d6 c2 3d
       0.037024755 0.0066731432 -0.025742585 0.09513531
0002e0 95 30 af bd b2 5a 2a bd 96 6b 0d 3e b8 dd 60 3b
       -0.08554188 -0.0415904 0.13810572 0.0034311842
0002f0 fd 00 27 bd ec a7 62 bd e6 37 bb 3c 94 46 41 bb
       -0.040772427 -0.055335924 0.022853803 -0.002949153
000300 95 38 c9 3b 11 ce e5 3d 4c 0d aa 3c ee 5e 5f bd
       0.0061407783 0.11220945 0.020758294 -0.05453389
000310 fe 40 80 bc 8d b2 31 be 32 b1 a6 bd 01 15 56 3d
       -0.01565599 -0.17353268 -0.08139266 0.052266125
000320 aa e2 3b bc c4 a3 0b bd e7 60 2b bd 2b c6 56 3d
       -0.011467615 -0.034091726 -0.04184046 0.05243508
000330 a1 02 e3 bd 57 10 e8 bc 1e 27 af 3d 96 13 74 bd
       -0.11084486 -0.028328104 0.08552383 -0.05958899
000340 57 45 17 bd 73 83 81 3d a6 f1 7b bd 2b f7 87 3d
       -0.036931362 0.063239 -0.06150975 0.066389404
000350 74 c6 99 3d 0d d9 1b 3d 17 31 88 bd 8a 7a 84 bd
       0.07508555 0.038048793 -0.06649988 -0.06468685
000360 90 42 9c bd 8d 16 81 3d cf 72 57 ba 97 bf 9f 3c
       -0.07629883 0.06303129 -0.0008218707 0.019500537
000370 6c 6f de bc da ce 9a bd 86 e9 b5 3b 24 86 2a 3d
       -0.02715274 -0.07558985 0.00555152 0.041631833
000380 40 0e 8c 3d dd fb bb 3d 60 a1 78 bd ce b8 6f bd
       0.068386555 0.091788985 -0.060700774 -0.058525853
000390 52 a4 20 3e b5 89 34 bd e6 1d a4 3b ea 4d 47 3a
       0.15687683 -0.04407664 0.005008447 0.00076028577
0003a0 a9 e4 85 bd 26 bf 81 bc b2 1d 9d 3d 05 98 58 bd
       -0.06537754 -0.015838217 0.076716796 -0.052879352
0003b0 04 f9 56 bd a8 cc 5b 3d 96 1a b0 3c 34 1a 89 3d
       -0.052483574 0.053661972 0.021497052 0.06694451
0003c0 f1 05 27 3d 49 e8 3a 3d f4 f4 5a 3c 32 65 df ba
       0.04077715 0.04563168 0.013364065 -0.0017043708
0003d0 92 de d5 bb 28 b7 ca bd 78 c4 3f 3e 63 9e 66 3d
       -0.0065267766 -0.098982155 0.1872729 0.056303393
0003e0 4f f0 98 3d f7 91 47 3d fc d8 4b ba 61 91 ad bd
       0.0746771 0.048723187 -0.00077761686 -0.084749945
0003f0 90 bc cf 3d f3 6a aa bd 20 a7 0a bd 99 f5 b6 bc
       0.10143387 -0.0832118 -0.03385079 -0.022333907

bias f4 [128]
000000 12 4d 8f 3d 3f 45 e7 bb 77 22 a4 3c 3b 82 68 bc
       0.06997122 -0.0070578153 0.020035965 -0.014191206
000010 a8 69 ce 3b bc b1 7d bd c0 40 37 3d 22 54 48 3d
       0.0062992163 -0.06193708 0.044739485 0.04890836
000020 d8 2d bb 3d 66 4f cb 3d 09 c7 2a 3d 6f e3 32 bd
       0.091396034 0.099272534 0.04169372 -0.04367393
000030 78 03 92 3d 03 af 14 bd e3 f2 eb 3a 11 5c 35 bc
       0.07129568 -0.036299717 0.0018001463 -0.011069314
000040 b8 55 0c 3d 8b 43 45 bb 82 44 2c 3c ac e3 6c 3d
       0.034261435 -0.0030100073 0.01051438 0.057834312
000050 54 fa fe bc b4 db ba 3d 16 c8 ab bd ce c7 ab 3d
       -0.031125225 0.09123936 -0.08387773 0.08387719
000060 74 dd 28 bb d3 65 e2 3c 2d 71 38 3d 99 06 2f bd
       -0.0025766762 0.027636444 0.045029808 -0.0427309
000070 e5 0d 43 3d 86 d3 28 3d a4 62 07 bd 1c 5e ce bb
       0.047620673 0.04121735 -0.033053055 -0.00629784
000080 1f bd d0 3c 9c 66 49 bc 2f f8 6a 3c e6 e9 7e 3d
       0.025480805 -0.01229253 0.014341398 0.06223478
000090 da 4a ac bc 47 17 8f 3d 07 9f 0c 3b f4 b2 59 bc
       -0.021031786 0.06986862 0.0021457092 -0.013287295
0000a0 bb 19 1c bd 5f c3 a0 bc 26 1e 37 bd 57 93 ce bb
       -0.038110476 -0.01962441 -0.044706486 -0.0063041854
0000b0 49 81 4c bc e2 ca bd 3d bc a0 1a bd e7 9a 04 bd
       -0.012481996 0.092672125 -0.037750944 -0.03237429
0000c0 c2 82 ca 3d 65 ba 29 bd 65 2f b5 3d 59 63 fd 3c
       0.09888221 -0.041437525 0.088469304 0.030931162
0000d0 88 51 a9 3d 29 c5 77 bd 42 74 e1 3c 95 45 85 bd
       0.08267504 -0.06049076 0.027521256 -0.06507412
0000e0 c6 18 19 3d b3 1d 51 bd fe 20 0b bd 78 e4 e3 3d
       0.03737714 -0.051053714 -0.03396701 0.11127561
0000f0 22 be 14 bc 36 e1 f6 bc 0f 66 bc 3c e4 99 a9 3d
       -0.009078534 -0.030136686 0.022997884 0.082813054
000100 81 6f 08 bd 5a 35 05 3e a0 68 71 bc 06 44 69 3d
       -0.033309463 0.13008633 -0.014734417 0.056949638
000110 c2 9b b5 3d da 0b f6 bc e1 b4 8a bd 1f bc 0a 3c
       0.08867599 -0.030034948 -0.06772781 0.008467703
000120 76 b5 fc 3c 94 ea 51 3d 3f 4c f1 3c 22 df a5 bc
       0.030848246 0.0512491 0.029455302 -0.020248
000130 2c ce ab 3d d4 74 b6 3c a8 ba 09 bd 8b 1c d1 3d
       0.083889335 0.022272505 -0.033625275 0.10210522
000140 13 0f 8f 3c 3e 0b 67 3d bf 12 d4 3d 0d 22 0b bd
       0.017463243 0.056407206 0.10355138 -0.03396802
000150 78 3d 9f 3d c7 e7 bc 3d 2c d6 ed bc ac f9 9e bc
       0.07775396 0.092238955 -0.02903279 -0.019406162
000160 dd dd b1 3d da 54 8c 3b 97 76 b2 3b cc 11 8b 3c
       0.08684895 0.004282576 0.005446266 0.01697626
000170 f1 bf a1 3d 8d b1 e3 bc a3 26 ea 3c 66 fb c5 3d
       0.07897938 -0.027794624 0.028582877 0.09667091
000180 cd e9 5d bd d4 8f 91 3d bf b8 7c 3d 68 26 86 3d
       -0.054178048 0.07107511 0.061699625 0.06550294
000190 ae 70 75 bd 1a 00 89 3d e0 ef b7 3d e8 ae a8 3d
       -0.059921913 0.066894725 0.089812994 0.08236486
0001a0 e2 49 7e bd 35 27 94 bd c3 56 27 bd 33 cf 72 bb
       -0.06208218 -0.07234041 -0.040854227 -0.003704977
0001b0 e0 88 8f 3d 62 5d 5f bc b3 6a ce 3d ea 5d 5b bd
       0.07008529 -0.013633104 0.10078945 -0.05355636
0001c0 64 63 0c bd 0c 3a 05 3c 4f c3 a3 3d 8b e6 8a 3d
       -0.034274474 0.008131515 0.079962365 0.06782254
0001d0 de 42 99 bd d4 10 ce 3d ba 76 35 3d 12 65 1c bb
       -0.07483457 0.100618035 0.04430268 -0.0023863954
0001e0 2c 7c 5a 3d 88 da 43 39 60 88 23 bd d5 1c a8 bc
       0.053341076 0.00018678058 -0.03992498 -0.02052156
0001f0 20 1e 16 3d 81 65 a5 3d 3f 15 37 3d c6 b7 aa bc
       0.036649823 0.08076001 0.044697996 -0.020839583

weight f4 [128, 128]
000000 a0 5a 00 3c 4f 1f 51 bd 2f 2d b3 3d b2 d8 5e 3d
       0.007834107 -0.05105525 0.087488525 0.054405876
000010 73 0e 46 bb 4f e2 52 3d d9 d4 dd 3d 3d 6a 98 3d
       -0.0030221015 0.051485356 0.10831613 0.07442138
000020 77 35 03 bd b9 86 83 bd d0 08 34 bd dd 53 a1 3d
       -0.03203341 -0.06422181 -0.043953717 0.07877324
000030 d5 84 33 bc ab 8d 88 bd 5c 16 11 bd b5 df 2a bd
       -0.010956963 -0.06667646 -0.035421714 -0.04171725
000040 97 e0 dd 3b ff 25 1b 3d 3c 8e 8e 3d 9c 1f 21 3c
       0.006771158 0.037878033 0.06960723 0.009834196
000050 aa 38 46 3c 96 54 25 3d 41 d6 08 3d 0e ec b1 3d
       0.012098471 0.04036387 0.033407453 0.08687602
000060 fc 53 cd 3d 3d 55 1a bc f5 7f 5f bd ca ec 67 bd
       0.100257844 -0.009419736 -0.05456539 -0.056622304
000070 88 d2 ec 3d 1f 03 05 bd 78 9f 60 bd bd 5f aa bc
       0.11563593 -0.03247368 -0.05483958 -0.020797605
000080 d9 19 75 bd b7 67 9f 3d 9c a8 29 3c 64 52 82 3d
       -0.059839103 0.07783454 0.010355141 0.06363371
000090 59 16 81 3d 66 dd 69 3b 2e e4 1b 3c e6 c8 7e bc
       0.063030906 0.0035684942 0.0095148515 -0.015550828
0000a0 03 11 c0 3c 4f 5e 46 3d c7 50 90 bc b6 d0 aa 3d
       0.023445612 0.048429783 -0.017616643 0.0834059
0000b0 65 a7 ac bc fd f7 57 3c cc 16 9c 3c 1f 6a af bd
       -0.021075914 0.013181684 0.01905384 -0.08565163
0000c0 3b 65 df 3d 05 de bc bc 54 b5 2f bd 12 71 67 3d
       0.1090798 -0.023055086 -0.042897537 0.056504317
0000d0 9f 01 df 3b ed 2c 16 3d 41 52 3f 3d bd 6a 41 bc
       0.006805613 0.03666394 0.046709303 -0.011805234
0000e0 75 36 3c bd 29 2a 4b 3c eb 76 91 3d 34 60 10 bd
       -0.04595037 0.0124001885 0.0710276 -0.035247996
0000f0 96 7a c4 3d 0d 63 ef bc 0b 57 10 3d 63 6b 35 3d
       0.09593694 -0.029222036 0.03523926 0.044291865
000100 c8 38 c8 bd c9 34 38 3d 6c 40 c7 3d 65 3c 9a bd
       -0.09776455 0.044972215 0.09729084 -0.075310506
000110 a8 ba c0 3d a9 30 e0 ba ac 3e 80 3d 5f b7 27 bd
       0.09410602 -0.0017104346 0.06261954 -0.04094636
000120 b8 ee 64 3d 40 e2 df bc 45 94 50 3d 88 34 33 3c
       0.055891722 -0.027329564 0.05092265 0.010937817
000130 51 e6 8b 3b 74 78 f4 bc cb 51 82 bd f5 f1 e1 3d
       0.004269399 -0.029842593 -0.06363257 0.11032478
000140 03 b3 eb 3d 9d f1 a0 3b 20 30 4f 3c a6 d9 d0 3b
       0.11508753 0.004911615 0.012645751 0.006373602
000150 51 15 0f 3e e1 b9 ba 3d 85 c6 bd bd 26 ed a2 3d
       0.13972975 0.09117485 -0.0926638 0.07955389
000160 aa 37 19 bd 9d 8e 55 3b db 83 62 bd 99 5e 3b 3a
       -0.0374066 0.0032586225 -0.05530153 0.000714758
000170 88 73 e0 3d 31 f8 eb bc e1 75 1f bc 52 23 c7 bc
       0.10959536 -0.02880487 -0.009732694 -0.024308834
000180 c7 af ab 3d 84 10 40 bd 4d b6 cd bd 4c 2d 39 bd
       0.08383136 -0.04689075 -0.10044537 -0.045209214
000190 a6 ec 47 3d 55 ac c6 3d 62 53 cf 3d 23 cd 83 bb
       0.04880967 0.097008385 0.10123326 -0.004022257
0001a0 71 a0 83 3d 5d 46 22 bd b2 a0 93 bc 92 1c ba 3c
       0.06427086 -0.039617885 -0.018020961 0.022718702
0001b0 a1 fd 41 bd 97 c9 c4 3d d2 33 fd 3b 33 6c 17 bd
       -0.04736102 0.09608763 0.0077271247 -0.03696842
0001c0 8d 25 9e 3d d7 11 3b 3d 43 e9 c4 3c c0 8d fb bc
       0.07722006 0.04567131 0.02403701 -0.03070724
0001d0 1d f1 cd 3c ac 00 c8 3d 69 62 48 bd 47 1b 98 3d
       0.025139386 0.09765753 -0.048921976 0.07427078
0001e0 21 d4 99 bc 4f 1d c6 3d 75 63 e9 bc 7b 25 e7 3c
       -0.018777909 0.09673559 -0.028489808 0.028216114
0001f0 e4 12 02 ba d8 16 bf 3d 8a 34 a5 3d f0 d3 1a 3d
       -0.00049619214 0.09330529 0.08066662 0.037799776
000200 28 23 5b 3c b2 0f c2 3c 38 6a a2 bd 89 a6 86 3b
       0.013375081 0.023689125 -0.07930416 0.004109208
000210 53 98 11 bd 0d 56 8b 3d 63 25 9d bd 1a 0b 03 bc
       -0.03554566 0.06803522 -0.076731466 -0.007998252
000220 e0 ef 28 bd 17 bb a9 bd 9f 7f 85 bd 7a 71 41 bc
       -0.041244388 -0.08287638 -0.065184824 -0.01180684
000230 3d 75 9c bc f2 85 a8 3d 07 c5 e7 3c 6d ae b8 bc
       -0.019098872 0.08228673 0.028292192 -0.02254411
000240 0b cf 9d bd 7f 14 8d bd 50 b9 f2 bc 28 c7 07 bd
       -0.07705506 -0.06888675 -0.02962938 -0.033148915
000250 40 17 0e bd 6a d6 55 bb 83 72 d8 bb 6b b5 87 bc
       -0.03469014 -0.0032629021 -0.0066054477 -0.016565999
000260 bd 43 95 bd 46 12 a5 bd 2c b4 90 bd 3b 91 cb 83
       -0.07288311 -0.08060126 -0.07065615 -1.1964611e-36
000270 09 ab 94 3d 40 2a 84 bd 17 16 3e 3d 10 94 af 3d
       0.07259185 -0.06453371 0.046407785 0.085731626
000280 1e 02 19 3d 88 4c 9d bd 3f 4a e5 bd ac 80 7e 3c
       0.037355535 -0.07680613 -0.11195802 0.015533607
000290 9b 1e a7 bd 9c 20 e9 3b 89 6e 98 3c 11 90 34 bc
       -0.081601344 0.007114483 0.018607395 -0.011020676
0002a0 b4 d8 17 bd 9f 42 59 3d e2 6b 73 3d 09 71 a7 bd
       -0.0370719 0.05304205 0.059429057 -0.081758566
0002b0 60 84 13 3c 8d b7 6f bd e6 0c b1 bc 70 b7 15 3d
       0.009003729 -0.058524657 -0.021612596 0.036551893
0002c0 16 38 92 bc fe ce f9 3c 9b 10 90 bd f5 3b ec 3b
       -0.01784901 0.03049421 -0.07034417 0.007209296
0002d0 f7 a7 f1 bc 7c 95 85 3d fe 58 b8 bc 57 08 00 bd
       -0.029499037 0.065226525 -0.022503372 -0.031257953
0002e0 8e 9e d0 3c 01 18 3a bd f5 64 77 bb 2d 30 0c 3c
       0.02546623 -0.04543305 -0.0037749384 0.008556408
0002f0 b0 11 72 3d 20 95 92 bd da cf 0c bc 08 a1 e6 3c
       0.0590989 -0.071573496 -0.008594478 0.028152958
000300 4d 1e 8d 3d c9 89 94 3d 38 23 95 3c 85 72 03 bd
       0.06890545 0.07252843 0.01820527 -0.032091636
000310 c5 b1 e3 3c b3 65 75 bd d6 be 88 b8 d5 95 5f bd
       0.027794728 -0.05991144 -6.520531e-05 -0.05458625
000320 50 22 a7 bd 56 43 59 3d f1 d6 a5 3c ca 28 7b 3c
       -0.081608415 0.053042732 0.020244094 0.015329549
000330 1f 3b 3c 3c d6 d2 5e bd 4c d9 8f 3d 9a 70 31 bc
       0.011488705 -0.054400288 0.07023868 -0.010830069
000340 68 90 0e 3d e8 11 31 3d 26 16 87 bc 68 d7 6c 3d
       0.034805685 0.043229967 -0.016490053 0.057822615
000350 03 78 82 3d ec 42 9f 3d 42 9e 39 bd 2b cc df 3c
       0.06370547 0.07776436 -0.045316942 0.027319035
000360 19 32 88 3d 61 84 bb bd 9f 95 98 03 19 21 83 3b
       0.0665018 -0.09156109 8.968108e-37 0.0040017483
000370 10 97 8c bc 21 07 3b 3c 89 ae b1 bc 07 25 0e bd
       -0.017161876 0.011415274 -0.02168967 -0.03470328
000380 9e 49 80 bd 37 3a af bd 9c d3 c2 b9 80 ec 62 3d
       -0.06264041 -0.085560255 -0.00037160225 0.055401325
000390 74 3d 26 3b ab 09 ea bc ad 87 db bc 12 25 26 3d
       0.0025366219 -0.028569063 -0.026798094 0.040562697
0003a0 f7 4b 42 3d 50 55 4d 01 33 13 39 bc 3a 65 2d 3d
       0.047435727 3.7713762e-38 -0.011296081 0.042332865
0003b0 d6 a7 d1 3b 0f 12 47 bd 9c ba 6d bd 2d 7d 4c 3b
       0.0063981814 -0.048601206 -0.058039293 0.003120254
0003c0 74 a9 79 3d b2 c7 0a 3d 48 cf ab 3c 14 dc 44 3d
       0.06095262 0.03388185 0.020972863 0.048061445
0003d0 d9 8c 79 3d 8a 26 0f bd c6 6c 4f 3d 51 7a a4 bd
       0.06092534 -0.034948863 0.050640844 -0.080311425
0003e0 57 de 60 bd ad 95 31 bd 9a d0 82 3d 41 5a 65 bd
       -0.05489954 -0.043355633 0.06387444 -0.055994276
0003f0 b1 31 a6 bd 5c e9 23 3d 98 41 2e 3d 98 30 a8 bd
       -0.08114947 0.04001747 0.042543024 -0.082123935

bias f4 [128]
000000 1b 24 8c 3d 4a 0d 63 bd 6b 14 a8 bc 1f c1 9a 3d
       0.06842824 -0.055432595 -0.020517549 0.07556366
000010 d0 58 d6 3c fd 0c 02 bc d4 92 03 3e ad 99 56 bd
       0.026165396 -0.007937667 0.12848979 -0.05239265
000020 14 07 9e bd c8 d0 ce 3d 48 a9 64 bd 1a 65 ed bb
       -0.07716194 0.100984156 -0.0558255 -0.0072447183
000030 55 a6 ba 3c c2 8e 32 3c b8 51 5b 3d 64 4c bc bd
       0.022784391 0.010898294 0.05354473 -0.09194258
000040 2d 8a 95 ba c6 6c c2 3d 16 3c 35 bd 61 d2 2f bd
       -0.0011408977 0.09493403 -0.044246756 -0.042925242
000050 60 55 31 3c b0 70 5c ba 05 2c ad 3b e5 70 90 3d
       0.010823578 -0.0008409126 0.0052847886 0.07052783
000060 c3 eb 91 bc ba 96 d8 3d 5d 87 09 3d 97 7d f2 bc
       -0.017812615 0.10575624 0.033576358 -0.029600902
000070 48 71 a2 3d 18 e9 bf bc 93 bc 84 3b 32 e6 04 bb
       0.07931763 -0.023426577 0.0040508 -0.0020278809
000080 0e 4d 8e bd e1 16 c1 bd 04 8c bb 3d ac e7 ea 3d
       -0.06948291 -0.09428192 0.09157565 0.11469969
000090 0b 9e 80 bb af af ee 3d 73 8d 92 3d 1e 06 8a 3c
       -0.00392509 0.11654603 0.071558855 0.01684862
0000a0 fa d0 6e bd 61 c1 2b bd b2 53 b2 3d f1 7a 0d be
       -0.058304764 -0.041932467 0.0870737 -0.1381643
0000b0 21 07 d0 3b 95 dd 9d 3d 73 bd 09 3e 3c f2 51 3d
       0.006348506 0.07708279 0.13451175 0.051256403
0000c0 8a 72 9c 3d 32 3f 38 3d 4f f2 69 3d b8 f0 a9 bc
       0.07639034 0.044982143 0.05711585 -0.020744666
0000d0 e2 06 65 3d f4 eb 80 3d 05 e7 8b bc 55 05 b1 bd
       0.055914767 0.062950045 -0.017077932 -0.08643595
0000e0 56 0a 07 bb f9 72 bd 3c f7 6c d4 3d a3 13 ac 3d
       -0.0020605526 0.023126112 0.10372346 0.08402183
0000f0 96 cb 48 bd 02 79 a4 3d 10 07 4d bc ac 7e bf 3d
       -0.04902228 0.08030893 -0.012513891 0.093503326
000100 52 56 35 bd 1f 5e 87 3d c8 3c cb 3d dc 81 f4 3d
       -0.044271775 0.06609749 0.099237025 0.11938831
000110 f8 c4 4c 3d 49 0c 42 bd 41 28 2d 3c dd 3d 92 3d
       0.04999253 -0.047374997 0.010568679 0.07140706
000120 a6 a5 47 3d 85 5b 85 3d 22 6a a0 3c aa f0 2e 3d
       0.04874196 0.065115966 0.019581858 0.042709984
000130 75 c4 a1 3c 3b a3 dd 3d 9a 21 0f bd 49 68 db 3d
       0.019746998 0.10822149 -0.034944154 0.1071325
000140 e7 dc ca bc 94 c8 e5 3d a4 30 cf 3d 02 b0 f4 3c
       -0.024763538 0.11219898 0.10116699 0.029869083
000150 99 68 84 3b 44 17 85 3c d3 67 c4 3c b9 16 03 3d
       0.0040407893 0.016246445 0.023975288 0.032004092
000160 28 ba bb 3d b3 55 bc 3d 68 00 00 3e 15 23 7d 3c
       0.09166366 0.09196033 0.12500155 0.015450259
000170 e5 29 8b bd d6 82 9d 3d 3a 74 e0 3d c3 4e 04 bd
       -0.067951 0.076909706 0.109596685 -0.032301676
000180 f1 30 b1 3d 55 ae 84 bd 14 80 30 3d aa 72 5f bd
       0.08651913 -0.06478564 0.043090895 -0.05455271
000190 b6 ee 90 3d 05 d6 65 3d bc 9b 5d 3d c6 99 94 3d
       0.070767805 0.056112308 0.054103598 0.072558925
0001a0 69 51 19 3c b1 e1 d6 3d 44 62 c9 3d d9 3b e1 bc
       0.009357789 0.10492266 0.09833196 -0.027494358
0001b0 73 7a 4a 3d 19 7a b6 3d fe bb 68 3d 49 a5 d6 3d
       0.049433183 0.08910007 0.05681991 0.104807444
0001c0 ca 70 68 3c 1f ba a2 3d 51 83 7e 3d c9 2d bd bd
       0.014187047 0.07945656 0.06213695 -0.092372485
0001d0 36 9b 44 bd 42 ab 17 bc 5f e1 3e bd ea 43 bf bd
       -0.047999583 -0.00925714 -0.04660165 -0.093391255
0001e0 21 dd 95 3d eb 26 c2 3d 63 a1 b3 3d 21 d2 83 bc
       0.073175676 0.09480079 0.087710164 -0.016091408
0001f0 86 6a 0c 3d 70 14 11 3d 73 7b 97 3d b4 58 04 3e
       0.034281276 0.03541988 0.07396593 0.12924463

weight f4 [1, 128]
000000 c0 ee a5 bd 09 45 ef 3c b1 18 39 3d af 05 3d 3d
       -0.081021786 0.029207723 0.045189563 0.046148
000010 d0 81 53 bd e1 59 5c 3c 4d 71 d2 bd eb 92 4d 3d
       -0.05163747 0.013449163 -0.10275517 0.05018894
000020 60 36 3a bc 22 dd fa 3d 49 ae f3 bc 22 95 33 bd
       -0.011365503 0.12249209 -0.029746192 -0.043843396
000030 26 80 59 3d 42 8c c4 bd af 3f 02 3d 8f 6b 7e 3d
       0.053100727 -0.095970646 0.031799015 0.062114295
000040 4a 12 b5 bd e3 dc 12 bd 65 db 7b 3d 40 e6 d2 bd
       -0.08841379 -0.035855185 0.061488528 -0.10297823
000050 7d 2d 90 bd 7b 1e d4 bc 1f 26 5d bd dd da 70 3c
       -0.07039926 -0.02589344 -0.053991433 0.014700619
000060 05 15 58 bd b1 50 f9 bd 8d 02 06 3e 39 ea 14 bd
       -0.05275442 -0.12173594 0.1308691 -0.036356185
000070 74 19 c2 bd 51 a3 8d bd c0 3b c9 bd eb f3 47 bd
       -0.09477511 -0.06915916 -0.098258495 -0.048816603
000080 38 c5 3e 3d 14 7c 36 3d 7a 1c a2 bd 5c 66 a6 bd
       0.0465748 0.044551924 -0.07915588 -0.08124992
000090 2d ee 83 bd 51 97 4d bd df ee b6 3d 2a 0d 02 3d
       -0.06441913 -0.050193135 0.0893228 0.031750835
0000a0 be 00 90 3d d3 a5 b7 3c 6e 54 05 3e 16 44 69 3d
       0.070313916 0.022417938 0.13020489 0.056949697
0000b0 24 d2 c7 bc 3e 97 c1 3d 06 23 76 bd 38 1f f2 bc
       -0.024392195 0.09452675 -0.060091995 -0.029555902
0000c0 02 d3 34 3e c1 a0 c1 bd ea 47 20 bd 6f 4f 1e bd
       0.17658618 -0.094544895 -0.039131083 -0.038649973
0000d0 91 2b 9b 3d 09 80 e9 bc 56 d9 f1 3d 62 ba 5a 3d
       0.07576669 -0.028503435 0.11809032 0.053400405
0000e0 39 d9 ca bd f2 12 8e bd 9f a4 c0 bd b1 16 a4 bd
       -0.09904713 -0.06937207 -0.09406399 -0.080121405
0000f0 32 e5 aa 3c 67 da f1 3d 0a aa c5 bd 88 74 8a bd
       0.020861242 0.11809235 -0.09651573 -0.06760508
000100 1a f1 b5 3d a9 3a 9d bd f1 78 52 3e 70 08 66 bd
       0.08883877 -0.07677204 0.20553948 -0.05616039
000110 45 07 ea 3d c2 09 d5 3a e5 89 5c bd e3 4e ff 3d
       0.11427168 0.0016253518 -0.053842444 0.12466218
000120 f5 fd a8 3d 48 11 cf bd 12 88 26 3e e1 bd e7 3d
       0.082515635 -0.10110718 0.16262844 0.113155134
000130 a3 95 5b bc 92 2e 33 bd ca b0 30 3d 78 89 08 bd
       -0.013402375 -0.043745585 0.04313735 -0.033334225
000140 e8 7e b0 bd 54 a7 84 bd dc 9b 9c bd 75 97 50 bd
       -0.086179554 -0.06477228 -0.07646915 -0.05092569
000150 bf 21 e2 bd 24 33 86 bd 5d 3e c6 bd ce 78 28 3d
       -0.11041593 -0.06552723 -0.096798636 0.041130833
000160 f6 73 81 3d 3c 25 d9 bd ab 40 cd bd f8 74 6f bd
       0.06320946 -0.10602805 -0.100221 -0.05846116
000170 cc 40 59 bc 70 ec 30 bd 00 9c 10 bd 90 43 55 bd
       -0.013260078 -0.043194234 -0.035305023 -0.052066386
000180 ad 23 f7 bc f3 90 db bb 46 d9 44 bd e9 eb 94 3c
       -0.030168379 -0.006700629 -0.04805877 0.018178897
000190 9f 6f d9 bd ee a2 71 3d fd c0 f7 3d ec bc 56 3d
       -0.10616993 0.058993272 0.120973565 0.052426264
0001a0 42 27 9a bd d0 fe 08 3e ce 3c 33 3e 23 49 f2 bc
       -0.07527019 0.13378453 0.17503664 -0.02957589
0001b0 d4 41 5a 3d ca 9b e6 3d 8e 5f b5 3d 92 5c ce 3d
       0.053285435 0.11260183 0.08856116 0.1007625
0001c0 13 4c 89 bd b0 3e 77 bd 31 5e 30 3e 53 b3 47 3d
       -0.06703963 -0.060362518 0.17223431 0.048755
0001d0 75 30 04 bd 88 29 d0 bd 22 19 5c 3c 91 50 87 3d
       -0.032272775 -0.101641715 0.0134337265 0.06607164
0001e0 0c 0f 83 3d d2 ab c2 bd 06 90 57 3d d3 56 8a 3d
       0.06399354 -0.095054284 0.052627586 0.06754842
0001f0 c4 6d aa bd 53 b3 8e bd 4f 3b 69 3d 11 27 cb bd
       -0.083217174 -0.06967797 0.056941327 -0.09919561
