AutogluonModels/ag-20220701_234948/models/NeuralNetTorch_BAG_L1/S1F7/net.params (torch, 211783 bytes, 9 tensors)

weight f4 [128, 14]
000000 b2 31 7a 3b d4 dd 85 3d 5d f3 97 be b9 41 93 be
       0.0038176593 0.06536451 -0.2967786 -0.2876108
000010 0d 27 ee bd 05 9b 61 3d 97 8e 21 3c 5d bc 85 3e
       -0.11628542 0.05507948 0.009860656 0.26120272
000020 b7 3a 64 bd 78 a5 a9 3d 6b 71 c1 bd 69 9c ae bd
       -0.055720057 0.08283514 -0.09445461 -0.085259266
000030 ed b2 a9 be 89 28 43 be 17 4b fe bd d3 f4 31 3d
       -0.33144322 -0.19058432 -0.12416666 0.043446373
000040 5e d1 0f 3e 49 48 6d 3e d5 c3 21 be 5b 3a 23 be
       0.14044711 0.23172106 -0.1579736 -0.1594023
000050 ef 43 e7 3d 93 2a 71 3e f0 a7 3a bd ee 7d 46 3e
       0.11292254 0.23551397 -0.045570314 0.19383976
000060 26 8d fe bb 5d 8b 0f bb 79 f2 5e 3e 37 f9 5e be
       -0.007768291 -0.0021903135 0.21772183 -0.21774755
000070 6f 30 3b be fb 7b e8 bd 52 b0 27 be f9 df 55 3e
       -0.18280195 -0.113517724 -0.16375855 0.2088622
000080 b7 c0 52 be ac b1 25 be be e0 46 be 41 9c 74 be
       -0.20581327 -0.16181058 -0.1942167 -0.23887731
000090 3b b3 d9 bd 44 32 7a 3e 79 63 0d 3e b8 df df 3d
       -0.106298886 0.24433237 0.13807477 0.10931343
0000a0 a0 4e 2e bd aa a0 0b be 0c 7e 86 3d 73 57 bd be
       -0.04255545 -0.13635507 0.0656701 -0.3698078
0000b0 04 9e 7e be a8 af 16 be 22 8d 32 3e 7b b9 18 3e
       -0.24864966 -0.14715445 0.1743665 0.14914505
0000c0 15 33 ba bd 2a bc 7b 3d 8b 27 0d 3e e5 14 8a 3e
       -0.090917744 0.061458744 0.13784616 0.26969066
0000d0 19 ba 90 3d c6 43 a9 bc c2 3d 30 3d 09 1d 3a be
       0.07066745 -0.0206622 0.043027647 -0.18175139
0000e0 bc f3 6c 3c 50 04 9c be 26 52 68 be a2 58 b0 bd
       0.014462408 -0.3047204 -0.22687587 -0.08610655
0000f0 4a 4e d7 3d b5 93 96 3d 3a 5b 41 be 04 94 e2 3d
       0.10512979 0.07352392 -0.18882456 0.11063388
000100 c3 e8 d3 3d 5b 4b 12 3c 28 ca f3 bb dc ff 1f 3d
       0.1034713 0.008929099 -0.0074398704 0.039062366
000110 ef a6 4b 3e f6 f0 8b 3e 67 04 7f be cf 71 b9 bd
       0.19887899 0.27332276 -0.24904023 -0.090549104
000120 84 d4 d1 3d 18 24 87 3e 64 c0 78 3e 75 88 38 3e
       0.10245612 0.26394725 0.24292141 0.18020804
000130 03 06 46 bd e9 ef 67 be 54 4a 68 3c c1 ae 16 be
       -0.048345577 -0.22650112 0.014177877 -0.14715101
000140 b1 49 79 be 95 79 6b 3e 70 90 92 3e 73 90 a5 be
       -0.24344517 0.22995599 0.28625822 -0.32336769
000150 6e a3 96 3d 78 44 01 be 04 4f 28 bd 33 19 94 bd
       0.073553905 -0.12623775 -0.04109098 -0.07231369
000160 18 8c da bc 2a 59 70 be 39 1d bf 3d 8c 00 1a 3e
       -0.02667813 -0.23471513 0.09331746 0.15039271
000170 d3 0c 8d 3e f6 41 cc 3d 5c ee 46 be 61 7b 50 be
       0.27548847 0.099735186 -0.19426864 -0.20359565
000180 dc 44 19 3e b7 f4 b6 3c 9b 03 49 be 86 ab 86 be
       0.14967674 0.022333486 -0.19630282 -0.26302737
000190 88 db 12 3e 28 22 3a 3e 08 ef b2 bd 19 9d 23 bd
       0.14341557 0.18177092 -0.08736998 -0.039944742
0001a0 cf 07 ac be 1c 01 3b bb 14 6a 0c be c8 40 43 be
       -0.33599707 -0.0028534597 -0.1371234 -0.19067681
0001b0 7d a0 ff bd 01 1f 84 3d b0 30 dd bd d7 28 94 3d
       -0.124817826 0.06451226 -0.10800302 0.07234352
0001c0 f0 e3 3a be 85 bb 62 3e 0e f5 18 3e 91 c0 81 be
       -0.18251014 0.22141846 0.14937231 -0.2534223
0001d0 00 06 72 bd ed 97 46 3d 80 f1 6b 3c a3 f8 73 3d
       -0.059087753 0.04848473 0.01440084 0.05956329
0001e0 2e 29 8d 3d ab 99 dd 3c 1d 5d 6b be ed 29 fc 3d
       0.0689262 0.027050814 -0.22984739 0.12312684
0001f0 97 82 a1 be 89 95 69 be 46 d5 98 bd a1 0a 1e be
       -0.31544945 -0.2281095 -0.07462554 -0.15433742
000200 47 cc d4 bd f0 b4 5e be 17 1e c0 bd 5b 5f 1d 3d
       -0.10390525 -0.2174871 -0.09380739 0.038421016
000210 15 e5 49 be 4f 8b 26 bd 5b e8 34 3e 77 70 10 bd
       -0.19716294 -0.0406602 0.17666762 -0.035263505
000220 8e 32 4c 3c db 5a 0f bd dc f8 d4 3c 54 fc 28 3e
       0.012463225 -0.034998756 0.025997572 0.16502506
000230 5a ea 91 3e 3a 9a 08 3e 36 8a 65 3e b0 be 6d bd
       0.2849911 0.13340083 0.22416005 -0.058043182
000240 c5 f3 71 be 12 02 02 be 5b 20 aa 3e a3 04 80 3d
       -0.23628147 -0.12696102 0.3322781 0.062508844
000250 03 5d 1d be 6d d4 da bd 77 ef 9a be c5 a6 aa be
       -0.15367512 -0.10685048 -0.30260822 -0.3333036
000260 35 55 93 be 35 91 17 3e 19 c6 07 3e 02 a9 a9 be
       -0.28775945 0.14801486 0.13259162 -0.33136755
000270 1b 4d dc 3d 50 9a 42 be 4a 47 00 bd c9 fd 46 be
       0.10756894 -0.19004178 -0.031317987 -0.19432749
000280 82 19 d3 3c a5 82 86 bd b7 8b 81 be 38 bc 1c be
       0.025768999 -0.06567887 -0.25301906 -0.15306175
000290 f7 de c1 bc b4 a3 16 be ec ce 0b be 80 18 d1 3d
       -0.023665888 -0.14710885 -0.13653153 0.10209751
0002a0 03 ee cf be 27 07 f9 3d 45 56 b3 3e a7 eb 94 bd
       -0.40611276 0.12159567 0.35026756 -0.072715096
0002b0 0c 70 87 3e a0 a7 0d 3d 85 73 c6 be c1 68 bb 3d
       0.26452672 0.034583688 -0.3876001 0.091508396
0002c0 9a d9 64 bd f6 0e 2f bd 17 7b 31 3e 74 e8 78 be
       -0.055871584 -0.042738877 0.17332111 -0.24307424
0002d0 a7 f9 39 3d bb 02 88 bd 37 ff 56 3e c6 9a fb bc
       0.045404103 -0.06641146 0.20995794 -0.03071345
0002e0 c3 96 a3 3d f8 a1 42 3e e1 f2 d6 bd c5 7f 00 be
       0.0798774 0.19007099 -0.10495544 -0.1254874
0002f0 37 74 5a be d5 e0 23 3e 8a 9f 57 3e e2 54 1e 3e
       -0.21333395 0.16003735 0.21056953 0.15462068
000300 93 59 fd bd 7e 2c f2 bc d4 c0 d0 be 27 34 ed bd
       -0.123706006 -0.029562231 -0.40772116 -0.11582213
000310 12 8c 25 be 77 98 6c 3c 89 f3 59 be ba bb cf 3c
       -0.16166714 0.014440647 -0.21284308 0.02535807
000320 b9 34 13 bc c3 2c 08 3e 08 7a 4d be 35 aa 07 be
       -0.008984738 0.13298325 -0.20066082 -0.13248523
000330 f3 84 07 be 37 34 84 3e 9f fe 07 bd 68 25 4f 3e
       -0.1323431 0.25821087 -0.03320181 0.20229113
000340 04 9e 25 3d 85 85 8b 3d c9 25 ca 3c ff 5f ed bd
       0.0404339 0.06812576 0.02467622 -0.115905754
000350 85 8f e6 bc 4e b4 d9 bd 3b 36 95 3c 7c 90 40 3d
       -0.028144607 -0.106300935 0.018214336 0.04701279
000360 93 5f 69 be 8d ea 29 be 8b 21 4b 3e f0 33 ee bd
       -0.22790365 -0.1659338 0.19837014 -0.11631
000370 07 0b cd bd da 40 6f 3e 9f 21 00 3e 4c 9b eb bd
       -0.10011869 0.23364583 0.12512825 -0.1150423
000380 09 99 7f be d5 3d 07 3e bf d1 6e be 3d 5a 4d be
       -0.24960722 0.13207181 -0.233222 -0.20053954
000390 3f 20 c7 bc aa bc 38 bd 62 34 99 3c 8a 64 78 3e
       -0.024307368 -0.0451018 0.018701736 0.24257103
0003a0 8c 33 c5 3d 61 99 80 3e 73 02 15 3e 45 4b 4e be
       0.096289724 0.2511702 0.14551716 -0.201459
0003b0 be 5d 62 3d 32 b8 71 be a9 10 08 be 5c 8c 4d 3d
       0.05526518 -0.23605421 -0.13287605 0.050182685
0003c0 88 f0 24 3d 16 f6 97 3e c8 3d e7 bd d3 0c ac bd
       0.04026845 0.29679936 -0.11291081 -0.084008835
0003d0 90 9e c0 3a 47 95 64 be 1f db 57 3e d6 12 1a be
       0.0014695693 -0.2232257 0.21079682 -0.15046248
0003e0 3f 8d 62 bd 99 f8 da bd 89 21 33 be 28 bb 89 bd
       -0.055310484 -0.106919475 -0.17493261 -0.0672515
0003f0 bd 0c 66 3e 59 2b 43 be 19 a3 65 be a8 47 eb bd
       0.22465797 -0.19059505 -0.22425498 -0.11488277

bias f4 [128]
000000 b2 07 3b 3e a0 eb 08 3e 06 b3 cb 3d 73 08 0e be
       0.18264654 0.13371134 0.099462554 -0.1387041
000010 32 85 f3 3d bb bc 00 3e 32 11 01 3e c4 d6 fb bc
       0.11890639 0.12571995 0.12604216 -0.030742057
000020 a3 1e 28 bc 92 58 87 bb ae 07 9e be d9 53 24 bd
       -0.010261211 -0.0041304315 -0.30865234 -0.040119026
000030 bf f2 74 be 58 c5 03 3e 04 d7 25 be 14 df 1e be
       -0.23920725 0.1286825 -0.16195303 -0.15514785
000040 8d 1b 27 be 64 eb 06 3e 9f 0e 39 be 35 6e bc 3d
       -0.16319104 0.13175732 -0.18071984 0.09200708
000050 ff e4 1e 3e 4b 1e 19 3e 74 5f 75 3d aa 51 b0 3d
       0.15517043 0.14952962 0.059905484 0.08609326
000060 bb 8c 37 3e ae 5b 48 3d 6a 83 53 3c 67 65 45 be
       0.17924778 0.048915558 0.0129097495 -0.19276963
000070 f2 37 bc bc a2 9a f4 bb 8c a9 45 3d 71 cd d5 bd
       -0.022975896 -0.0074647227 0.048257396 -0.104395755
000080 91 dd 86 be a7 90 85 bd dc 33 04 3e 8b e5 59 3e
       -0.26340917 -0.06521731 0.12910408 0.2127897
000090 f2 fe 88 be 4d 78 c6 3d a6 a4 4a be 85 d6 6a be
       -0.26757008 0.09690914 -0.19789371 -0.22933395
0000a0 46 c7 25 be eb 9c 93 bd 32 3f 3d 3d 57 c2 91 be
       -0.16189298 -0.07207664 0.046202846 -0.28468582
0000b0 5a d1 18 3e 13 8b 38 3e 9c 2a d5 bc 24 f4 61 3e
       0.14923611 0.18021803 -0.026021294 0.22065789
0000c0 49 b3 06 be 77 2f 1a be 40 18 cd bc f7 58 79 bd
       -0.1315433 -0.15057169 -0.025035977 -0.06087586
0000d0 b4 c7 5d be 18 73 57 be 4a 45 a2 3d 2f bb 35 bc
       -0.21658212 -0.21039999 0.07923372 -0.011091991
0000e0 a6 76 6f 3e 52 27 0f be 80 a6 b6 3d 46 a9 0f be
       0.23385105 -0.13979843 0.08918476 -0.14029416
0000f0 2b 40 02 3e 6a ba 88 bd 2e c5 3f 3e 44 1d 05 3e
       0.1271979 -0.06676181 0.18727562 0.12999445
000100 4e 94 39 3e 4d 37 0a 3e 33 67 2a bd e7 9f 28 3e
       0.1812298 0.13497658 -0.041602325 0.16467248
000110 0f ad 07 be d4 33 7d 3e f8 6a 93 3e 26 39 1c 3e
       -0.1324961 0.24726802 0.28792548 0.15256175
000120 29 6d 0c be f0 60 0f be 36 52 a7 3d c4 2e 5f 3d
       -0.13713516 -0.14001822 0.08169977 0.05448796
000130 d3 8a d8 3d 2b 7b 9f 3b 85 1c 44 3e ec 6e 01 be
       0.105733536 0.0048669777 0.19151504 -0.1263997
000140 e7 1c e9 bd 4d 2a 8b 3d 2c 40 3a bc 2f 51 37 be
       -0.11382466 0.067951776 -0.011367839 -0.17902063
000150 cd b1 2f bd 6c bb 79 be b0 29 c6 bd b5 3e 81 bd
       -0.042894173 -0.24387902 -0.0967592 -0.063107885
000160 e9 e3 5c 3e b7 63 74 be 02 f4 11 be 58 37 5e be
       0.21571316 -0.23866163 -0.14253238 -0.217008
000170 be bd 81 3d d6 9f 73 be 50 a2 22 3d d4 85 3a be
       0.063350186 -0.23791441 0.039705575 -0.18215114
000180 48 46 34 be 34 ad 17 be ee 8b bd bb 71 44 58 3e
       -0.17604935 -0.14812165 -0.005784503 0.21119858
000190 bf d9 62 3e ca 46 fe bd 20 8b 95 be 42 9c d0 bd
       0.22153376 -0.12415846 -0.29207706 -0.10186054
0001a0 3e 3f 1f be 4b db 01 bc ef a1 04 3b d1 c5 b7 3d
       -0.15551469 -0.007925819 0.0020238122 0.08973277
0001b0 92 5f dc 3d 68 78 30 3c 17 fb eb bd 1b ae a0 bd
       0.10760416 0.010770895 -0.11522501 -0.07845708
0001c0 91 6e 94 3c 89 bc 3d be 7f 47 b3 bd 51 ad b0 bc
       0.018119128 -0.18528952 -0.08753871 -0.021567019
0001d0 2b b8 82 be 6b 54 0a 3e f2 31 02 bd b3 97 76 be
       -0.25531134 0.13508765 -0.031785913 -0.24081306
0001e0 16 49 4a 3e c0 29 11 be 14 87 45 3d 2b 1e 73 3e
       0.19754443 -0.14176083 0.048224524 0.23741977
0001f0 c0 4f 0a bd a0 ce 4f 3d 8b e9 e3 3d 5a 45 a7 3d
       -0.03376746 0.050734162 0.11128529 0.08167525

weight f4 [128, 128]
000000 c8 4f cf bc c3 29 2b 3b 9d 44 2b 3b d0 85 d3 3d
       -0.025306597 0.0026117421 0.0026133426 0.10328257
000010 83 d6 05 3c 25 71 a7 3d 72 bc 1a 3d 8e 4f 6f 3c
       0.008168819 0.081758775 0.03777737 0.01460637
000020 37 00 d7 bc 32 09 09 3c 4f 41 cf bd 69 98 a9 bd
       -0.02624522 0.008364009 -0.101198785 -0.08281023
000030 b5 03 fa bd 61 53 92 3d 6b c1 4f 3d f5 67 e6 3c
       -0.12207738 0.071448095 0.050721567 0.028125742
000040 5d 79 44 3d a0 78 30 3d dd ae 91 bd 3d 81 ae bd
       0.047967304 0.043083787 -0.07113431 -0.08520744
000050 54 7c 91 bd cc 6d d9 bc ee 7c 5f bd 8b 62 c9 bc
       -0.07103792 -0.026541613 -0.0545625 -0.024583122
000060 0b 87 a5 3b 1b 1c 91 3a bb f5 1d bc 2d 99 6f 3d
       0.0050514988 0.0011070998 -0.009641106 0.05849569
000070 4a 12 a1 3d f9 a1 90 bc 86 5a 26 3d 75 fa b2 3c
       0.078648165 -0.01765536 0.040613674 0.021847943
000080 8d 20 dd 3d b9 25 b4 3b 9f 61 4a bc 05 97 20 bd
       0.10797224 0.005497661 -0.012352376 -0.039206523
000090 47 98 02 3e b0 f1 62 bd 41 54 a8 bd f6 f4 f4 3d
       0.12753402 -0.055406272 -0.08219195 0.11960785
0000a0 c2 54 9f 3d 7b 56 a9 bd b9 27 36 bd a6 67 b3 3b
       0.07779838 -0.08268448 -0.044471476 0.0054750023
0000b0 e9 f7 e6 bc a4 7e d2 bc e0 e9 1f bd 92 20 ca bc
       -0.028194385 -0.025695153 -0.0390414 -0.024673734
0000c0 dc a0 21 bd 10 e4 42 bd aa 07 fe bd 17 d3 66 bc
       -0.039460048 -0.04758078 -0.124038056 -0.014088414
0000d0 3f a4 25 3d 53 13 5a bd 5b 31 00 bc fb c3 85 bc
       0.04043984 -0.053241085 -0.007824267 -0.016328802
0000e0 b8 de c4 3d ec bf 5d 3d 22 0a da 3c 30 db dd bc
       0.09612793 0.05413811 0.02661616 -0.027082056
0000f0 bb e6 63 bd db 9c 84 bc 98 04 71 3d 9b 64 a8 3c
       -0.055639964 -0.016188076 0.05884227 0.020555785
000100 06 e8 1a 3c eb cc 41 bd 3a 0a 8f 3c 46 89 68 bd
       0.009454733 -0.047314566 0.017460931 -0.05677154
000110 fc 5f 8f 3d 07 49 9d 3d 57 d5 b4 bd de 51 0e bd
       0.070007294 0.076799445 -0.08829754 -0.034746043
000120 26 f1 b7 3d 30 a0 97 bc fd 18 a3 bc 8f 87 71 3d
       0.08981542 -0.018509 -0.019909376 0.05896717
000130 fd 7c 6a ba 5d 84 8f bd e2 dd 3a bd 2a f2 6c 3d
       -0.00089450163 -0.07007668 -0.04562176 0.057848133
000140 2b 57 95 3d 3b 66 9a 3c c0 43 c4 b9 fe 35 4a bd
       0.072920166 0.018847575 -0.0003743451 -0.049367897
000150 06 02 c0 3d 12 ac ff 3b 79 1d 1a bb 69 d8 fd 3c
       0.09375386 0.007802495 -0.0023516102 0.030986981
000160 0d 0c b8 bd 82 60 a0 3d fe 0b 68 bd 97 f2 d5 3c
       -0.089866735 0.078309074 -0.05665206 0.026116652
000170 ef 81 2c bd e9 cd df 3c 81 41 b3 3d d4 42 8d bb
       -0.0421161 0.027319865 0.08752728 -0.004310945
000180 90 95 c2 3c d6 4b 84 3d e1 37 82 bd 81 af fa bc
       0.023752958 0.06459777 -0.06358314 -0.030601265
000190 f6 36 33 bd 6b 83 99 bd 80 27 49 3c ef 94 ff 3b
       -0.043753587 -0.07495769 0.012277484 0.0077997367
0001a0 61 80 76 3d 28 f8 ab 3c 1a 29 3b 3d 73 03 38 bd
       0.060181025 0.020992354 0.045693494 -0.044925164
0001b0 bb 1d be 3b a0 4d c4 3c 88 a0 3c ba d5 af b2 3d
       0.005801884 0.023962796 -0.0007195552 0.087249435
0001c0 53 58 e8 bc 26 9e c9 bc e5 6f bb bd f4 81 97 3d
       -0.028362429 -0.024611544 -0.091522016 0.073978335
0001d0 89 fe e6 bb 70 f7 e5 bd 15 de 9d 3d 3c 40 3b be
       -0.007049386 -0.112288356 0.077083744 -0.18286222
0001e0 e3 30 09 bd a8 59 7e 3d 82 a2 ab 3d 19 8c c0 3d
       -0.033493888 0.06209722 0.08380605 0.094017215
0001f0 e1 7c 67 3d e8 b2 71 bc 7c 92 82 3d 1b dc a7 bc
       0.05651558 -0.014752127 0.06375596 -0.020490697
000200 09 7b c2 3c 1c 22 e9 38 51 2e c9 bc 4a 3f a1 3d
       0.023740308 0.00011116659 -0.024558218 0.078733996
000210 ed ef 0d bd 2c b3 e1 bc dd 8e 23 3c c0 25 4a bc
       -0.03465264 -0.027551256 0.009982792 -0.012338102
000220 b7 9b b7 3d 18 c9 de 3d 75 58 d1 bd 64 54 cd 3c
       0.08965247 0.10878199 -0.1022195 0.025064655
000230 fc 80 5d 3d f6 aa 97 3d 34 f7 81 bc 4b a0 ad 3c
       0.054078087 0.07405655 -0.015864946 0.021194598
000240 5f 9f 20 3d c8 96 87 3d 0f 9c ff bc 44 28 1f bd
       0.039214488 0.06620556 -0.031202344 -0.03885676
000250 75 d3 08 be 62 55 12 be 38 3b 59 bd d8 81 06 3d
       -0.13361914 -0.14290383 -0.05303499 0.032838672
000260 f0 4a 92 bd 95 69 59 bc db 1f 59 3d 09 38 f0 bc
       -0.071431994 -0.013269802 0.053008895 -0.029323595
000270 97 40 02 bc c0 f0 f5 bd 4d 85 83 3d a0 8c 8a bd
       -0.00794997 -0.1200881 0.064219095 -0.06765103
000280 bf df 19 be e6 02 9a bd e2 3d 13 bd 7c 21 ad 3d
       -0.15026759 -0.07520084 -0.035947688 0.08453652
000290 b6 5f a5 bd c4 e5 8e 3b 05 5f 56 be a7 5c c3 3d
       -0.08074896 0.0043608863 -0.20934685 0.095391564
0002a0 a3 a9 6d bd f8 df e6 3c 66 80 11 3c b1 bf 31 bd
       -0.058023106 0.028182968 0.00888071 -0.0433957
0002b0 68 3a 62 3d 3d 71 2b bd 62 6a f5 bc 2c 2d 10 bd
       0.05523148 -0.04185604 -0.029957954 -0.03519933
0002c0 2b 5a f3 3b c2 d0 01 bc 08 02 68 3d 5f 34 50 3d
       0.0074265203 -0.007923307 0.056642562 0.050831195
0002d0 c2 c8 f1 bd b1 aa 48 bd f8 b8 38 bc ac 91 f3 bc
       -0.1180587 -0.04899091 -0.011274569 -0.029732548
0002e0 cd c2 92 3d c9 0c bb 3d 58 d4 12 bc b8 18 09 be
       0.071660616 0.09133298 -0.0089617595 -0.13388336
0002f0 65 ae 9f 3d 49 b6 17 3d fb 57 49 3d 4a c9 e7 bc
       0.07796935 0.037039075 0.04915617 -0.028294224
000300 b1 19 92 3c 30 2b ab 3d ea d3 89 3d 80 1d 7f bc
       0.017834516 0.08357847 0.067298725 -0.015570998
000310 0f 17 92 be 36 56 0d be f9 f5 ee 3b 03 c7 2f bc
       -0.28533217 -0.13802418 0.007292506 -0.0107286
000320 9a ff 4e 3d 7d e8 7c 3d d0 ab c8 bd 19 a1 30 bd
       0.05053673 0.061745156 -0.09798396 -0.043122385
000330 0c 49 87 bc e3 3d 73 3d 8a 79 8d 3d 1d 77 2b 3d
       -0.016514324 0.05938519 0.06907947 0.041861642
000340 be 0e d6 3d 01 9c e9 bd cc 44 77 3b 8c ce 8d 3d
       0.104520306 -0.114067085 0.0037730215 0.06924161
000350 d7 ec ab bd 51 8f e5 3c 60 21 08 bd 64 0b 88 bd
       -0.08394783 0.02802244 -0.033234954 -0.066427976
000360 cb 17 ee 3d e1 bc b3 bd 7b d5 08 3e 66 8d b6 3c
       0.11625632 -0.0877626 0.13362686 0.02228422
000370 f6 06 43 bd 75 f9 a0 3d a9 5d a1 bd ad 96 4d 3d
       -0.04761406 0.0786008 -0.078791924 0.050192524
000380 22 1c 84 bb 1c ea 73 bd 56 87 92 3c 29 d9 3c bd
       -0.004031674 -0.059549436 0.017886799 -0.046105538
000390 48 9c bb bd a1 e0 0e bc 69 0d a0 3d 8d 15 a5 3d
       -0.09160668 -0.008720548 0.07815058 0.08060751
0003a0 ac 06 76 3d ee 3d 20 3d 16 43 24 bc 59 32 8b bd
       0.060064957 0.03912156 -0.01002576 -0.067967124
0003b0 b6 76 58 3d 58 94 94 bd 2b 31 d4 bc e7 75 14 bd
       0.052847587 -0.07254857 -0.025902351 -0.036245253
0003c0 72 c2 96 3d a5 dd c8 3d 22 38 ac bd f9 db cf bd
       0.07361306 0.098079 -0.08409144 -0.10149378
0003d0 4a 87 25 be 38 8c 42 bd 23 75 a3 bb ed f5 b5 bb
       -0.1616489 -0.047497004 -0.004988329 -0.0055529983
0003e0 35 f6 b0 bd 5f 70 8d bc bf 7e 3e 39 04 b5 c4 bc
       -0.0864071 -0.017265497 0.00018167029 -0.024012096
0003f0 6f 4a 1c 3e 26 6f 55 3b 76 b6 d5 3c 05 69 80 3c
       0.15262769 0.003256747 0.02608798 0.015675077

bias f4 [128]
000000 eb f5 cb 3d 7d 34 11 3c 9a 38 cc 3d ab 24 c5 3d
       0.099590145 0.008862612 0.099717334 0.096261345
000010 31 84 50 3d 4a fd 5d bd 27 46 1f bd 3c e1 a6 3c
       0.050907318 -0.054196633 -0.038885262 0.020371072
000020 b6 23 6c 3d d6 42 9b 38 81 82 82 3d fa e0 36 bc
       0.057651244 7.403425e-05 0.06372548 -0.011162037
000030 6e 9d 99 3d e2 d0 5b bd 1a 25 9c bb 32 fa ae 3d
       0.075007305 -0.053666003 -0.004765165 0.08543815
000040 5d 50 0c bd 4d 77 68 bc f7 35 37 bd 35 f8 7a bd
       -0.034256328 -0.0141886 -0.0447292 -0.061271865
000050 ed 53 9e bd a6 7e d1 bb 14 0e 60 b7 1c 0c 1f 3d
       -0.07730851 -0.0063932715 -1.3354718e-05 0.038829908
000060 44 05 e5 bb 15 f2 92 3d 94 5c 81 3d 93 48 87 3d
       -0.006989153 0.0717508 0.06316486 0.06605639
000070 8c 05 61 bb bc 39 02 3d 37 b1 87 bd 34 82 75 3d
       -0.0034335582 0.03179334 -0.06625598 0.059938625
000080 eb fa 34 3d da 65 00 3d 75 af fe bc 0c f3 b3 3d
       0.044184607 0.031347133 -0.031089524 0.08786592
000090 12 c7 d1 bd f3 2c 46 3d b2 b4 69 3d 0a 32 33 3d
       -0.10243048 0.04838271 0.05705709 0.043748893
0000a0 ff b6 6e 3d c1 3b e3 bc 42 80 aa 3d a8 12 b4 3d
       0.058279987 -0.027738454 0.083252445 0.08792621
0000b0 46 20 8e bc d0 a6 9f 3d 79 e9 d0 bc d7 00 9a bd
       -0.017349374 0.07795489 -0.025501953 -0.075196914
0000c0 00 db 7a 3d f7 36 58 3d f3 5d 2d 3d 17 9f 04 3d
       0.06124401 0.052786794 0.042325925 0.032378282
0000d0 e4 27 d5 bc bb 6a e7 3c 2b 4f 79 3d 07 e5 62 bd
       -0.026019998 0.028249135 0.060866516 -0.0553942
0000e0 aa 88 af 3d df 38 fb 3c 29 42 a6 3b 1b 7a bf bd
       0.085709885 0.030666767 0.005073805 -0.09349462
0000f0 ca ad eb bc 59 e3 26 bd fb 79 45 bd dc a5 c0 3d
       -0.028769393 -0.04074416 -0.048212033 0.09406635
000100 85 9e e4 3c 72 6d 6a bd f4 3c 3b bd 2e e1 84 bc
       0.02790762 -0.05723328 -0.045712426 -0.016220655
000110 1c 2e 81 3d 88 ed 3d bd eb 4b 2b 3d 92 3f 29 3d
       0.06307623 -0.046369106 0.041820448 0.04132039
000120 46 e9 a1 bd 68 59 b2 bd b5 45 04 3d 88 c7 b8 3d
       -0.079058215 -0.08708459 0.03229304 0.090224326
000130 ea 46 85 3a 79 c9 cb bd ee 32 c0 3b 73 ef ea bb
       0.0010168229 -0.09950537 0.0058654463 -0.007169658
000140 00 c8 8b bd 6b 22 4c 3c 89 a3 a4 3d b0 7d c4 bd
       -0.06825256 0.012459378 0.08039004 -0.095942855
000150 d7 3c 08 3d 0c e6 5f bc e7 a6 43 bd e8 2f 97 3d
       0.033261146 -0.013665687 -0.047766592 0.07382184
000160 62 7f 8f bb ea 60 b3 3d 6d ef b0 bd 83 ac a8 3a
       -0.004379199 0.08758719 -0.08639417 0.0012868795
000170 22 b2 cb bc 5a 96 0c 3d b0 b5 d4 bd cc aa 3f 3d
       -0.024865214 0.034323074 -0.10386217 0.046793744
000180 99 cc 9c bd eb b7 89 3d b6 16 a6 bd 0a 8d 57 3c
       -0.076562114 0.06724533 -0.081098005 0.013156185
000190 fd 46 49 bd 6f cf 92 bd c8 f9 1d 3d b5 6b 47 3d
       -0.049139965 -0.07168471 0.038568288 0.0486867
0001a0 91 c4 58 3d 17 6d 9f bd 7a 3d 4e bd f3 c8 b0 3d
       0.052921835 -0.07784479 -0.050351597 0.08632078
0001b0 8f d9 98 3c 36 7a 6a 3d c9 48 48 3d dd fe 45 bd
       0.018658428 0.057245456 0.04889754 -0.04833876
0001c0 5b bd 0b bb cd 0f cc 3c 80 6a b9 bd 79 76 61 bc
       -0.0021322581 0.024909878 -0.090535164 -0.013761156
0001d0 a9 f9 e4 3d eb 28 28 bd 1e cc 4d bd 01 35 4c bd
       0.111804314 -0.041054647 -0.05024349 -0.049855236
0001e0 3b 37 37 bc 51 1b bf bc 93 39 a8 bd f4 7a 54 3d
       -0.011182602 -0.023328455 -0.082141064 0.05187507
0001f0 ec ab e7 bd 8c 73 f2 bc 43 75 92 bd 2b 40 fd bc
       -0.11312088 -0.029596113 -0.07151272 -0.030914387

weight f4 [128, 128]
000000 1b 1f 5d 3d bd 67 a6 bd 46 85 c2 bb 26 e9 02 bd
       0.053984743 -0.08125255 -0.0059362976 -0.03196063
000010 f1 ac d9 39 43 9e c5 3a 14 7d fa 3d 48 6e 31 3d
       0.00041518317 0.0015077073 0.12230888 0.043318063
000020 67 10 d1 bd 59 1a df 3a b0 1f 2b 3d 13 82 f3 3b
       -0.102082066 0.0017021402 0.041778266 0.0074312775
000030 d4 2f 8e 3d d4 36 02 be 32 68 bd bd e4 6b a4 bd
       0.06942716 -0.12716228 -0.09248389 -0.08028391
000040 14 e8 19 bd 6d f8 b7 3d bb 3d 3e bd bd f7 50 bc
       -0.037574843 0.0898293 -0.04644559 -0.012754378
000050 b9 5f 11 bc 26 44 5f 3d c9 c5 b0 bd a3 5c 83 bc
       -0.00887292 0.05450835 -0.086314745 -0.016035384
000060 3f 0a b0 bc 79 1f 84 bd f7 80 e9 bc f0 e7 d1 3a
       -0.02148926 -0.064513154 -0.028503878 0.0016014557
000070 92 d6 a0 bd ae a5 83 3d 97 57 17 3d b6 aa c6 3c
       -0.07853426 0.06428085 0.036948767 0.024251323
000080 d6 75 40 3c ef 92 2c bd d7 60 a4 3d 46 8e 24 3c
       0.011746844 -0.042132314 0.08026283 0.010043686
000090 18 b2 cb bd c0 1a 3b 3b 1b 94 a9 bd 76 7c 8a bd
       -0.09946078 0.002854988 -0.08280202 -0.0676202
0000a0 10 87 57 bc 65 6f 3d bd 2e 81 1d 3d df 55 05 bd
       -0.01315476 -0.046248812 0.038453273 -0.032552596
0000b0 ee a5 32 bc 60 a3 1e 3d ae ce 68 bd 15 93 93 bc
       -0.0109038185 0.038730025 -0.05683773 -0.01801447
0000c0 0b 3d e1 bc cd 86 a2 bb d5 0f c6 3d 96 85 fb 3c
       -0.027494928 -0.004959917 0.096709885 0.030703347
0000d0 2a 70 41 3d 73 b2 a9 bc d8 9a 8d bd 4c 55 96 bc
       0.04722611 -0.020714974 -0.069143 -0.01835122
0000e0 10 13 03 bd 8e 9d 0c 3e f1 08 7a 3b f8 58 9d 3c
       -0.0320006 0.13731977 0.0038152302 0.019207463
0000f0 4b dc 28 bd 62 23 1c 3d ba 32 d8 3c fa 7b 86 3d
       -0.041225713 0.03811968 0.026391376 0.065666154
000100 06 a1 78 3d 96 2d ce 3c 61 8a 8b 3d a4 51 b2 b9
       0.06070044 0.025168221 0.06813503 -0.00034011633
000110 06 a1 97 3d 2c a9 bd bc 66 9b 9b bd 79 f7 e2 3c
       0.0740376 -0.023151956 -0.07597999 0.027705895
000120 27 a0 54 3c 03 67 5e 3d 21 29 52 bd 09 b2 00 3c
       0.012977636 0.05429746 -0.051308755 0.007854947
000130 c8 17 4d bd ab 15 b5 bc 6e 7c 17 bd 83 3b d6 3c
       -0.050071508 -0.022105059 -0.0369839 0.026151424
000140 d5 87 b5 bd 6c 2b 46 3c 31 34 a7 3c df d3 9b 3d
       -0.088637985 0.0120953135 0.020410629 0.076087706
000150 2a ec c6 3d 53 8f 12 bd ab 3a 7c 3d 9a 51 b1 bd
       0.097130135 -0.035781216 0.061579388 -0.086581424
000160 8c 94 13 bd 7c 03 a1 bc 9f 95 d2 bc 90 ff 18 3d
       -0.036030337 -0.019654982 -0.02570611 0.0373531
000170 e3 50 da bc 67 76 c5 bc 54 5d bf 3d ea f5 aa 3c
       -0.026649898 -0.02410431 0.09343973 0.020869214
000180 78 6a 2b 3d d0 35 24 3d ad 1f 78 bd e7 ac d5 bc
       0.041849583 0.040090382 -0.060577083 -0.026083423
000190 49 a1 5e 3d 24 6e ab bd 14 0a cb bd 80 5c 36 3d
       0.054353032 -0.08370617 -0.099140316 0.04452181
0001a0 40 aa 6f 3d ce 3c 9e 3d 97 87 db bc 36 73 10 bb
       0.058511972 0.07726441 -0.026798053 -0.0022041327
0001b0 ac 0f 31 bd 3c 2b 7b 3b e0 d9 bf bd b7 db 8d bd
       -0.043227836 0.003832533 -0.09367728 -0.06926673
0001c0 4d 50 1d 3d c2 12 9e 3d 39 ff c5 3d dd b7 cb bc
       0.03840666 0.077184215 0.096678205 -0.024867946
0001d0 f3 0c ae 3c b0 98 d2 bd 5d 0a c7 3d 54 33 a4 bd
       0.021246409 -0.10283029 0.097187735 -0.080176026
0001e0 d9 70 09 bb f7 ea b4 bb f3 f9 a1 3c da c0 2d 3d
       -0.0020971803 -0.005521174 0.019772505 0.042420246
0001f0 f3 0e bb 3c 8c 7c 18 bd cc 91 ae 3d 08 d9 b6 3b
       0.022834277 -0.037228152 0.08523902 0.0055800714
000200 88 ca 2b 3c c9 af b1 bd 9b aa 81 3d d4 64 9d 3d
       0.010485299 -0.086761065 0.063313685 0.07685247
000210 5d b3 28 3d 3d 1f b4 bd 3e e5 03 bc a5 28 b1 3d
       0.04118668 -0.08795021 -0.008050261 0.086503305
000220 03 f6 12 3d 75 c4 ba 3d fd 31 08 3d f3 ee 2f 3d
       0.035879146 0.091195025 0.033250798 0.04295249
000230 d3 dd 81 3d 47 e2 bb bd 47 1a 71 bd 6f 55 56 3b
       0.06341138 -0.09174018 -0.05886295 0.003270473
000240 1f 6c ec bc 9f d1 af 3d 97 af df bd 76 16 0d bc
       -0.02886015 0.08584904 -0.10922163 -0.008611312
000250 76 0b 05 3d 24 a6 44 3d 60 36 c8 3d 23 1b 81 3d
       0.032481633 0.048010007 0.09775996 0.06304004
000260 7b e0 6f 3c ad a5 7a 3d 7b 44 9b 3c 08 41 30 bd
       0.014640923 0.061193157 0.018953552 -0.04303077
000270 5e e3 4d 3b e4 50 c1 3c 97 9f 84 3b 03 89 21 3c
       0.003141604 0.023598142 0.004047345 0.009859326
000280 6d b8 7a bd 07 7f 2a 3d 77 c6 48 3d 78 b4 82 3d
       -0.06121104 0.04162505 0.049017396 0.06382078
000290 61 40 d8 bd d5 39 16 3d ba 56 e7 bb c8 56 1e bd
       -0.10559154 0.036676247 -0.007059899 -0.03865698
0002a0 e9 8f 76 bb d1 43 a2 3d 71 6e 6d bd b3 0c be 3c
       -0.0037622398 0.07923091 -0.057966653 0.023199415
0002b0 fb a7 16 bd c9 bc f6 bc 76 45 98 bd 35 8e 50 3d
       -0.036781292 -0.030119317 -0.074351236 0.05091687
0002c0 d1 fd e6 3c 85 ce bc bd 2d 47 1c 3d f8 a8 75 3c
       0.028197201 -0.09219078 0.038153816 0.014993899
0002d0 3b 40 b2 3c 3b f5 33 bd 2b d5 be 39 23 a4 c1 3d
       0.021759143 -0.043935042 0.00036398447 0.09455135
0002e0 62 8f 89 bd fd 52 8b 3c b6 fd 0e 3e fe 6d ba bc
       -0.06716801 0.017007345 0.1396397 -0.022757526
0002f0 a2 de b3 bc db 3e 8e bc 7c b4 ff 3c 8c d8 d2 3b
       -0.021956746 -0.017363956 0.031213991 0.006434506
000300 68 db ff 3c 79 48 e7 3d eb d5 3d 3d cf 61 8b bd
       0.03123255 0.1129312 0.046346586 -0.06805765
000310 68 b3 41 3c 2f d7 12 be 05 56 88 bd 8b f8 43 3d
       0.011822559 -0.14339899 -0.06657032 0.04784445
000320 5a 4a ca 3c cb f9 5b bd c2 53 5b bd 9f 2d 96 3d
       0.024693657 -0.053705018 -0.053546675 0.0733292
000330 53 19 b7 bd 3b 07 14 bd 0b 58 9c 3d d3 75 a6 bd
       -0.08940377 -0.036139708 0.0763398 -0.08127942
000340 85 97 9d bc 44 d0 82 3d b3 9e 6d bd d3 74 8e 3d
       -0.01923729 0.0638738 -0.058012675 0.06955876
000350 33 19 a3 3d 5a 60 06 3d bc 60 78 bd 08 42 26 bd
       0.07963791 0.03280673 -0.060639128 -0.040590316
000360 8d a3 60 bd 81 b4 7e 3d 5d 0f 4c bb d1 20 db 3c
       -0.054843474 0.06218386 -0.0031137087 0.026749047
000370 f3 0c 56 bd a0 1e 35 bd 16 dc 09 3c 02 66 8b 3c
       -0.052258443 -0.04421866 0.008414289 0.017016415
000380 db bb 94 3d 9d a6 b5 3d 55 b2 e3 bc 14 7c 9e bd
       0.07262393 0.088696696 -0.027794996 -0.0773851
000390 57 0b b4 3d 48 3b 85 bc 17 6a bb 3c d8 0d 83 bb
       0.087912254 -0.016263619 0.022877736 -0.003999453
0003a0 09 e9 4f bd 79 a6 99 bc ca 78 30 3d 74 fb 49 bd
       -0.05075935 -0.018756138 0.043083943 -0.04931207
0003b0 a3 1d 1d bd 1b 53 40 3d 06 56 13 bd f9 e2 3e 3d
       -0.038358342 0.046954256 -0.03597071 0.046603177
0003c0 bc 29 25 3d 6e e6 98 3d f3 85 e6 3b 85 d5 b9 3c
       0.040323004 0.07465826 0.007035011 0.022684822
0003d0 50 aa f8 bc e3 07 f5 bd 6b 3e 3d 3e 77 3d 4d 3d
       -0.030354649 -0.11964395 0.18480842 0.050107446
0003e0 1d f1 e0 3d 2e 0d 28 3d 09 e5 b6 bc 8f 41 95 bd
       0.10983489 0.041028194 -0.02232601 -0.07287895
0003f0 7a ab 10 3e 42 90 97 bd 9d cc 11 bd dc 51 fa bc
       0.14127913 -0.07400562 -0.035595525 -0.030556612

bias f4 [128]
000000 0b 8d b4 3d 5b 47 5d bc 70 a6 a5 3c ab 8c 19 bd
       0.08815964 -0.013505782 0.020220965 -0.037487667
000010 81 77 38 bb 6c bd 25 bd 59 42 0e 3d d0 23 29 3d
       -0.0028147402 -0.04046385 0.034731243 0.04129392
000020 2e 63 a6 3d 56 78 6f 3d f0 c7 14 3d 13 b6 60 bd
       0.08124386 0.05846437 0.036323488 -0.05486114
000030 7d 62 d5 3d 7b 27 86 bd b7 73 37 bb 14 69 55 bc
       0.10419176 -0.06550499 -0.0027992555 -0.013025541
000040 c7 24 2b 3d 92 dd 8d bc 58 52 cc 3c f7 c8 62 3d
       0.04178312 -0.017317567 0.024941608 0.055367436
000050 80 41 a8 bc ea a4 bc 3d d9 f4 01 bd 34 26 c3 3d
       -0.020539045 0.09211142 -0.031727646 0.09528771
000060 35 31 a6 bb a1 a9 18 3c 14 bf 4b 3d c4 bd 4f bb
       -0.005071784 0.009317786 0.049742773 -0.0031698802
000070 6c af 51 3d 19 5e 36 3d 5c 08 4e bd dc 5b 31 bc
       0.051192686 0.044523332 -0.05030094 -0.010825124
000080 46 f0 81 3d c9 0f 49 3c ad 4c b2 3b 2a 7e 4f 3d
       0.06344657 0.01227183 0.0054412694 0.05065743
000090 7f fd d0 bc 7f b5 b8 3d b6 d7 84 bc 31 09 f3 bc
       -0.025511501 0.09018993 -0.01621614 -0.029667469
0000a0 1a 03 01 bd 81 11 44 bc 30 cf 1b bd e8 62 d3 3a
       -0.0314971 -0.011967064 -0.038039386 0.0016127499
0000b0 fd ae 8a bd 39 3d b2 3d 54 58 4b bd 1e ba 00 bd
       -0.067716576 0.087030835 -0.049644783 -0.031427495
0000c0 c6 67 d9 3d f0 ce 78 bb 4e 89 9f 3d 47 da e6 3c
       0.10615496 -0.0037965141 0.07789861 0.028180255
0000d0 d1 90 a9 3d 7b b6 de bd 69 07 1e 3d ef a8 98 bd
       0.08279575 -0.10874649 0.038581286 -0.074540965
0000e0 24 f3 02 3d 1e 31 c2 bc c9 04 3a bd 0e db cb 3d
       0.03197016 -0.023705062 -0.04541472 0.09953891
0000f0 58 e0 26 3b ae 0a d0 bc 60 55 7d 3c 5b 42 c9 3d
       0.002546331 -0.025395717 0.0154622495 0.098271094
000100 aa 7d bc 3a 93 84 f2 3d 12 74 80 bc 4e 51 90 3d
       0.0014380713 0.11841693 -0.015680347 0.07046758
000110 7f 48 a1 3d 21 f1 07 bd 00 a7 48 bd a8 df d4 3b
       0.07875156 -0.033188943 -0.04898739 0.0064963885
000120 19 c4 3c 3d 33 2d 3b 3d 99 e5 67 3c b1 90 4b bd
       0.04608545 0.045697402 0.014153861 -0.049698535
000130 96 43 a3 3d bf 58 2b 3c 5f 07 2e bd 71 a5 ce 3d
       0.07971875 0.01045817 -0.0424875 0.10090149
000140 f5 62 d8 bb d6 6d 6c 3d 3a cf ad 3d fe bf e6 bc
       -0.0066035935 0.057721935 0.08486791 -0.02816772
000150 1e 8e 98 3d a9 7f c0 3d df 08 a4 bc d0 95 bd bc
       0.07448982 0.09399349 -0.020023761 -0.023142725
000160 50 fe 82 3d 39 fa e8 3b cd cc 73 3d 90 71 92 3c
       0.063961625 0.007109907 0.059521485 0.017876416
000170 ff 65 b5 3d d1 e1 32 bd bb f9 32 3d 04 47 f3 3d
       0.08857345 -0.043672387 0.043695193 0.118787795
000180 fa 59 8e bd 9f f2 9e 3d e9 7c 13 3d c1 31 85 3d
       -0.069507554 0.0776112 0.036007795 0.065036304
000190 10 25 aa bd 62 7d 86 3d e0 13 b4 3d cc 8b 92 3d
       -0.0830785 0.065668836 0.08792853 0.071555704
0001a0 5c 71 88 bd 23 eb ca bd b4 c0 f4 bc 25 a5 9f 3c
       -0.066622466 -0.0990813 -0.029877044 0.019487927
0001b0 32 fa 79 3d e1 fb d5 3b fe ee 80 3d f1 e7 75 bd
       0.06102962 0.0065302704 0.06295584 -0.06003565
0001c0 be 7b 05 bd 44 1b 0b 3c b0 79 c8 3d bb f5 89 3d
       -0.032588713 0.008490387 0.09788835 0.067363225
0001d0 90 d7 d9 bd cb 3e d9 3d d6 83 4e 3d d8 f3 bb bb
       -0.106368184 0.1060768 0.050418697 -0.0057358555
0001e0 20 16 82 3d 09 01 5e 3a e1 a7 2c bd 72 26 07 bd
       0.06351876 0.0008468782 -0.04215229 -0.03299565
0001f0 85 10 9b 3c 94 70 b8 3d 7a b1 44 3d 99 47 f1 bc
       0.018928776 0.090058476 0.048020817 -0.029453086

weight f4 [128, 128]
000000 40 00 9e 3b a4 b1 64 bd f2 25 9e 3d ee b5 87 3d
       0.004821807 -0.055833474 0.07722081 0.06626497
000010 1d f5 47 bb f3 b0 70 3d 3e f5 d0 3d 21 04 9a 3d
       -0.003051109 0.058762502 0.10203026 0.07520319
000020 0e a3 cd bc 01 d3 ec 3c 26 ee 24 bd 38 13 95 3d
       -0.025102165 0.028909208 -0.04026618 0.07279056
000030 ae 84 89 bb 6b 5f 53 bd 9b 9c 1b bd e0 05 55 bd
       -0.004196725 -0.05160467 -0.037991147 -0.052007556
000040 26 e6 9c 3c 21 27 09 3d bd b6 9b 3d 51 a0 d8 3b
       0.019152712 0.03348458 0.07603214 0.006610908
000050 de 69 99 3c 9a 63 09 3d f9 1e 9a 3c aa 1c b6 3d
       0.01872724 0.033542253 0.018813597 0.08892186
000060 9f 70 b8 3d dc 4d 22 bd e5 4a cf bc 98 39 75 bd
       0.09005856 -0.039625034 -0.025304267 -0.05986938
000070 1f c4 10 3e 37 83 24 bd 29 91 4d bd 9f d3 d5 bc
       0.14137314 -0.0401642 -0.050187264 -0.026101885
000080 5b 6d cc bd f2 ec dd 3d d0 5f 0d ba 4e 64 80 bd
       -0.099817954 0.10836209 -0.00053930003 -0.062691316
000090 f1 69 86 3d cf 45 0b bd c2 59 26 3c 5c 06 8e 3c
       0.065631755 -0.03400212 0.010153236 0.017337017
0000a0 0e 5a c7 3c b9 c6 5c 3d 92 0f 5a bc e1 a6 ba 3d
       0.024334934 0.053900454 -0.013309376 0.09113861
0000b0 f1 87 3f bd c9 0e 53 3c 04 97 af 3c ff f5 e9 bd
       -0.046760503 0.012881943 0.021434315 -0.11423873
0000c0 ae db d5 3d 94 73 32 bd 71 1f 3b bd 85 de 5f 3d
       0.10442291 -0.043567255 -0.04568428 0.05465557
0000d0 fa d0 70 3c 0f 3b f6 3c 8e 71 47 3d 3d f7 43 3d
       0.014698261 0.030057458 0.04869228 0.047843207
0000e0 63 97 41 bd 22 68 7a 3d 42 12 84 3d a1 44 43 bd
       -0.047263514 0.061134465 0.06448795 -0.04767287
0000f0 5c a4 ba 3d 17 53 0f bd 20 d4 02 3d 37 95 31 3d
       0.0911338 -0.03499135 0.03194058 0.043355193
000100 04 cb 12 be 2d 10 14 3d 5f 76 bb 3d 38 62 91 bd
       -0.14335257 0.03614824 0.09153437 -0.07098812
000110 4a 34 d2 3d 69 e3 f5 bb 3f d5 cb bc d2 a2 3b bd
       0.102638796 -0.007503916 -0.024881957 -0.045809574
000120 80 fc 9d 3d d7 31 e8 bc 04 f1 91 3d 56 d6 dd 3a
       0.07714176 -0.028344078 0.07126048 0.0016924839
000130 65 a1 0a 3a 6b 67 03 bd b9 c8 78 ba bb 58 ce 3d
       0.0005288332 -0.03208105 -0.0009490359 0.10075518
000140 c7 1d 35 3d 11 36 4c bc 90 09 18 3b 78 ab 44 3c
       0.04421785 -0.012464062 0.002319906 0.012003772
000150 14 39 2c 3e e7 b8 b4 3d 2e 0c 0f be 49 1e 9c 3d
       0.16818649 0.0882433 -0.1396949 0.07622964
000160 45 69 4a bd f9 ea 21 3c 6a 72 60 3d 17 30 47 bb
       -0.0494168 0.009882682 0.054796614 -0.0030393654
000170 5c 77 c6 3d 1e 2a ac bc fd b8 c7 bc 66 0d 26 bd
       0.09690735 -0.021016177 -0.024380201 -0.04054012
000180 d2 32 a5 3d 4b a1 3d bd 04 9c f4 3b ac b2 35 bd
       0.08066334 -0.0462964 0.0074648876 -0.044359848
000190 52 e9 c4 3c ab 3b ba 3d 91 d9 b1 3d c7 09 dc bb
       0.024037037 0.09093412 0.086840756 -0.0067150327
0001a0 09 b0 97 3d 1b 98 d7 bd 66 ca 00 bd c8 48 cf 3c
       0.07406623 -0.10527059 -0.031443022 0.02530326
0001b0 4d c5 10 bc b8 12 c1 3d ad 5a 00 bc 60 bf 15 bd
       -0.008836103 0.094273984 -0.007834119 -0.036559463
0001c0 20 00 a8 3d 49 1c 33 3d 5f b2 f5 3c f9 e9 08 bd
       0.08203149 0.043728147 0.02999228 -0.03342626
0001d0 4a 4c 40 3a 7d 5f d6 3d 5c 6f 1a bd 17 2d 8f 3d
       0.00073355867 0.10467432 -0.037703857 0.06991022
0001e0 38 56 ba bc 53 40 c5 3d 86 6c 5b bd ee c5 03 3d
       -0.02274619 0.096314095 -0.053570293 0.032171182
0001f0 d9 62 04 be 05 2f b3 3d 4d 08 8f 3d e6 2d fb 3c
       -0.12928332 0.08749203 0.06984005 0.030661535
000200 23 59 ea 3c 67 24 03 3c d7 07 aa bd bb 72 f6 3b
       0.028606957 0.008004284 -0.083022766 0.007521001
000210 69 79 05 bd ef e0 92 3d 69 08 b1 bd 77 01 fc bb
       -0.03258649 0.07171809 -0.08644182 -0.0076906043
000220 c8 b5 2f bd 34 82 7f bd d7 57 5f bd d3 2a a0 bd
       -0.04289797 -0.06238003 -0.05452713 -0.07820668
000230 15 31 a6 bc 4d 03 a2 3d fd 58 b3 3c ba 3e dd bc
       -0.020287076 0.07910786 0.021893019 -0.02700745
000240 f9 7d 82 bd 65 dd 80 bd cf ef 0c bd 5a a7 10 bd
       -0.063716836 -0.06292228 -0.034408387 -0.03531585
000250 e4 0e 1c bd e9 1f 30 bc 0c 88 9a bc b7 96 26 bc
       -0.03810014 -0.0107497955 -0.0188637 -0.010167769
000260 0d 94 8c bd f0 0c 9c bd b6 8c 74 bd 3b 91 cb 83
       -0.06864176 -0.07619655 -0.059704505 -1.1964611e-36
000270 ca 1e 9b 3d 78 2c 7a bd e4 cb 44 3d c7 7b ab 3d
       0.07574232 -0.061077565 0.048046008 0.08373218
000280 47 8a 24 3d 12 a4 9b bd 1e 2f c6 bd 19 6e 41 3c
       0.040170934 -0.07599653 -0.09676956 0.0118060345
000290 5e 7c ae bd 38 9c ee 3b 73 50 87 3c e1 a7 8a bb
       -0.08519815 0.0072818063 0.016517853 -0.0042314385
0002a0 92 30 0e bd 9a 17 27 3d 8d 0b 5f 3d a6 0d 8e bd
       -0.03471429 0.040793993 0.054454375 -0.06936197
0002b0 32 04 9c 3c ea 60 64 bd 43 90 9c bc 14 ae f4 3c
       0.01904497 -0.055756487 -0.019111758 0.029868163
0002c0 a3 80 da bc 63 c6 f6 3c a3 e3 8f bd 5c 3b 24 bb
       -0.026672667 0.030123895 -0.0702584 -0.0025059795
0002d0 6c 14 0d bd 66 ca 83 3d d0 5e a6 bc c8 67 da bc
       -0.034443304 0.06435089 -0.020308882 -0.026660815
0002e0 54 43 e9 3c 89 8d 3b bd 51 a5 72 bc cd 08 a4 bb
       0.028474487 -0.045789275 -0.014809922 -0.005005932
0002f0 18 3d 84 3d b3 2e 8f bd 80 43 2c bc ba 3b e6 3c
       0.06456965 -0.06991329 -0.01051414 0.028104652
000300 93 45 82 3d fc 3c 92 3d 70 c2 86 3c 71 af 21 bd
       0.063609265 0.07140538 0.016450137 -0.039473955
000310 7d 69 f3 3c 64 86 70 bd 4f 04 c5 b8 97 96 58 bd
       0.029713387 -0.058721915 -9.3944946e-05 -0.05287799
000320 fb 17 b0 bd e6 6b 55 3d 4f 05 bb 3c a5 42 85 3c
       -0.08598324 0.052104853 0.02282968 0.01626713
000330 80 b1 d1 3b e1 2d 85 bd 77 f0 8f 3d 9e 30 5b bc
       0.0063993335 -0.06502891 0.07028287 -0.01337829
000340 e7 ad 22 3d 77 f2 24 3d 7c 84 9a bc 00 d2 6e 3d
       0.039716627 0.040270295 -0.018862002 0.05830574
000350 0e 47 80 3d fa 63 9e 3d 4e fa 3e bd 42 47 10 3d
       0.062635526 0.07733913 -0.046625428 0.035224207
000360 d7 ea 7b 3d 89 42 ba bd 2a 6c 8f bb 2a ab e4 ba
       0.061503258 -0.09094722 -0.004376908 -0.001744603
000370 e5 c5 ad bc b4 bf 4c 3c 3d 5e b4 bc 94 40 fb bc
       -0.021212528 0.012496877 -0.022017593 -0.030670442
000380 7c 90 8d bd ba c9 b1 bd 82 ea 90 3a dc 7b 59 3d
       -0.06912324 -0.086810544 0.0011056217 0.053096637
000390 77 0b 18 bb 01 72 e2 bc 7d eb fb bc de b7 1b 3d
       -0.0023200193 -0.027642252 -0.030751938 0.038017146
0003a0 8a 32 8a 3d f5 5c 8e bc c0 08 41 bb 62 03 1a 3d
       0.06747921 -0.01737831 -0.0029454678 0.037600882
0003b0 ac a3 89 3b 1f 42 48 bd ab 9c 83 bd 3a c4 99 ba
       0.0042004194 -0.048891183 -0.064263664 -0.0011731454
0003c0 dd b4 6f 3d 41 6a 06 3d ce db 19 3c 59 d6 4b 3d
       0.058522094 0.032816175 0.009390784 0.049764965
0003d0 61 c9 7e 3d 4a 2c 0e bd 5a 54 74 3d 34 f5 92 bd
       0.06220377 -0.034710206 0.059650756 -0.07175675
0003e0 bf e3 57 bd db 81 3f bd 98 32 84 3d 6d 8e 6e bd
       -0.05270743 -0.0467547 0.064549625 -0.058241297
0003f0 c3 69 b0 bd ed 84 32 3d 07 cb 22 3d 42 2f b8 bd
       -0.086139224 0.0435838 0.039744403 -0.08993389

bias f4 [128]
000000 92 fd 90 3d 02 c3 65 bd 3f db a7 bc bc 78 6a 3d
       0.07079615 -0.056094177 -0.020490287 0.057244048
000010 50 4e d9 3c 35 4f 87 bb 6a a4 05 3e 34 56 60 bd
       0.0265266 -0.0041293153 0.13051 -0.05476971
000020 b6 fa ac bd 17 df da 3d 58 44 7d bd 8d c8 ee ba
       -0.08446257 0.10687082 -0.061832756 -0.0018217728
000030 61 8f 7a 3b 85 49 2f 3c f9 0a 6f 3d 5c c7 c7 bd
       0.0038232433 0.010698681 0.058360074 -0.09754822
000040 3e e7 2b bb 83 cc bb 3d 3c 8f 29 bd 13 4d 27 bd
       -0.002623036 0.09169867 -0.041396365 -0.040844988
000050 f7 44 ae 3c dc fd bd 3b be 9a c0 3b 35 68 90 3d
       0.02127312 0.0057980847 0.0058778217 0.07051126
000060 c3 67 f0 bc 0c 43 ee 3d 85 01 0e bd 50 96 a7 bc
       -0.029346352 0.11633882 -0.034669418 -0.020457417
000070 3b 9e ad 3d c8 2b ae bc d1 49 40 3c 1a 16 8f 3a
       0.08477446 -0.02126111 0.011736349 0.0010916621
000080 23 3a d1 bd f5 df ba bd 53 93 ce 3d a1 2d f9 3d
       -0.10216167 -0.09124748 0.100866936 0.12166906
000090 75 5d de 3b 82 33 fc 3d 7a c0 aa 3d c6 91 d6 3c
       0.0067860433 0.12314512 0.08337493 0.026192557
0000a0 ed de 86 bd b4 5f 45 3d 48 3a a7 3d 25 fb f8 bd
       -0.065854885 0.048186973 0.08165413 -0.12157277
0000b0 33 d0 06 3c c6 b4 91 3d 19 86 0f 3e b3 62 68 3d
       0.0082283495 0.07114558 0.14015998 0.056734752
0000c0 f4 80 bc 3d d8 8b 67 3d c1 df 59 3d c4 f5 27 bc
       0.09204283 0.05652985 0.053191904 -0.010251466
0000d0 01 88 77 3d e1 ac 88 3d e0 84 74 bd b0 f1 c4 bd
       0.060432438 0.06673599 -0.059697032 -0.09616411
0000e0 23 8f 58 3b f4 59 db 3c f6 94 de 3d 6c f8 b5 3d
       0.00330443 0.026776291 0.10868256 0.08885273
0000f0 78 f5 68 bd e5 aa a8 3d 40 86 81 3c 1f 12 b6 3d
       -0.056874722 0.082357205 0.015811086 0.08890175
000100 40 f7 d6 bd cc 86 80 3d ad 4d 9b 3d a7 40 03 3e
       -0.10496378 0.062757105 0.07583175 0.12817632
000110 14 1a da bb 2c 0a 41 bd 1a ef 9f 3c 0c af b1 3d
       -0.006655941 -0.04712884 0.019523192 0.08675966
000120 ed e3 45 3d ba d4 8c 3d bb 6f 59 bd dc 45 38 3d
       0.04831307 0.06876512 -0.05308507 0.044988498
000130 64 35 e4 3c 4a fd d6 3d 1f d9 96 bc 65 08 d4 3d
       0.02785749 0.1049753 -0.018414078 0.10353164
000140 14 23 34 bc 91 57 f6 3d dc 09 e0 3d 69 79 02 3d
       -0.010994691 0.12028421 0.109393805 0.031854067
000150 4c cd 83 3c 78 a2 75 3c 12 1a 0f 3d 74 a2 91 3c
       0.016089104 0.014992349 0.034936972 0.017777659
000160 d9 ed ca 3d 2b 34 c5 3d ff 33 05 3e a4 df 9b 3c
       0.09908647 0.09629091 0.13008116 0.019027539
000170 3a 81 2f bd ee cb a7 3d ef 23 e9 3d 89 64 12 bc
       -0.04284785 0.081931934 0.11383807 -0.008935102
000180 3f 0a c8 3d 58 02 9c bd 89 28 5d 3d 97 a1 46 bd
       0.09767579 -0.076176345 0.053993735 -0.048493948
000190 3b eb 7d 3d d9 77 72 3d 01 9a 65 3d c1 3b 85 3d
       0.06199191 0.059196327 0.056055073 0.06505538
0001a0 93 7a 7b 3c d7 14 d6 3d e9 a4 85 3d f9 d4 3a 3d
       0.015349048 0.10453194 0.06525595 0.045613263
0001b0 05 a9 50 3d 4f 65 dc 3d 8b 36 86 3d da 1b ed 3d
       0.05094244 0.107615106 0.06553372 0.11577578
0001c0 da a0 ac 3c 2e a5 bb 3d 5f 66 28 3d 65 dc bc bd
       0.021072794 0.09162365 0.041113254 -0.092217244
0001d0 29 57 de bc 8c fa 83 bb 74 dd 44 bd 1d e7 ae bd
       -0.02714117 -0.0040276702 -0.048062757 -0.08540175
0001e0 df bf 9a 3d c6 60 d4 3d 20 a8 a1 3d 64 f2 cc 3c
       0.07556128 0.103700206 0.078933954 0.025017925
0001f0 32 2c 17 3d fb 53 20 3d 26 da aa 3d a6 30 0a 3e
       0.036907382 0.03914259 0.0834239 0.1349512

weight f4 [1, 128]
000000 b6 0d a6 bd 26 99 f1 3c e0 6f 25 3d b9 b6 d5 3c
       -0.08108084 0.029491972 0.040389895 0.026088106
000010 a4 e6 6a bd a7 fc bc 3c 04 dc f4 bd 90 5a 49 3d
       -0.057348862 0.023069693 -0.11956027 0.049158633
000020 36 65 8e 3c f3 ed 2a 3e 73 e0 96 3c 66 79 41 bd
       0.017382246 0.16692333 0.018417573 -0.047234915
000030 9f 6e 5d 3d 04 c2 a2 bd 01 08 2d 3d d3 f2 ad 3d
       0.054060575 -0.07947162 0.04224396 0.08493581
000040 75 e5 b8 bd 57 b1 2f bd 72 b7 7b 3d 53 6a d1 bd
       -0.090281405 -0.042893734 0.061454244 -0.10225358
000050 b0 83 96 bd 70 07 d0 bc c7 6d 57 bd 8f 5b 08 3d
       -0.07349336 -0.025394171 -0.052594926 0.033290442
000060 43 f6 90 bd e6 4c f3 bd 77 f2 4f 3b 72 52 15 bd
       -0.07078221 -0.118799016 0.0031730214 -0.03645558
000070 31 a9 d5 bd 47 90 8a bd ef 02 cf bd 33 aa 59 bd
       -0.10432661 -0.067658 -0.101079814 -0.05314083
000080 65 a9 8b 3d 04 5b dd 3c 92 22 a5 bd 3b 89 a7 bd
       0.06819419 0.027020939 -0.080632344 -0.081804715
000090 28 63 82 bd e7 19 56 bd 6c 0e dc 3d fb 7a 46 3d
       -0.06366569 -0.052270796 0.10744938 0.048457127
0000a0 68 b2 8d 3d 35 58 29 3e 2f c8 e2 3d 20 40 85 3d
       0.06918794 0.16537555 0.11073338 0.065063715
0000b0 f2 0c bf bc 40 42 ce 3d 00 31 83 bd fc 02 00 bd
       -0.023321602 0.1007123 -0.064058304 -0.031252846
0000c0 74 5e 43 3e 66 cb c9 bd 44 6f 34 bd 62 16 37 bd
       0.19079 -0.09853248 -0.044051424 -0.04469908
0000d0 f2 b6 96 3d bc d0 fd bc a5 ae 1a 3d 10 77 6e 3d
       0.07359113 -0.030983321 0.03776421 0.058219016
0000e0 f7 24 ca bd 7d 51 8d bd a1 c6 c5 bd 58 cc a4 bd
       -0.09870332 -0.06900308 -0.09657026 -0.08046788
0000f0 06 f7 85 3c 00 57 ec 3d 78 51 e5 bd e5 43 99 bd
       0.016353142 0.115400314 -0.111971796 -0.07483653
000100 45 b1 c5 3d ea 42 a1 bd ce 24 0b 3e 31 b2 61 bd
       0.09652952 -0.07874091 0.13588259 -0.055101577
000110 c6 02 ab bb 52 4e 7e 3c 8a a7 60 bd 31 dc 18 3e
       -0.0052188365 0.015521603 -0.054847278 0.14927746
000120 a2 26 a3 3d c1 9f 09 be de f7 8c 3d e5 2a f4 3d
       0.07966353 -0.13439848 0.068832144 0.11922244
000130 d4 dc 37 bc 50 a3 33 bd 92 63 98 3c fb 39 0f bd
       -0.011222083 -0.04385692 0.018602166 -0.034967404
000140 0f 96 af bd e1 03 87 bd 17 2e a4 bd ad 46 4e bd
       -0.08573543 -0.06592537 -0.080166034 -0.05036037
000150 a9 86 ba bd 7a fb 8e bd a3 76 be bd 6d b3 67 3c
       -0.09107716 -0.06981559 -0.09299972 0.0141418995
000160 59 bf 87 3d c0 86 d9 bd c8 08 cb bd e9 31 7b bd
       0.066282935 -0.10621405 -0.09913784 -0.061326895
000170 d8 63 fa 39 c8 3d 2a bd 47 91 0e bd a6 e5 bc bc
       0.00047758105 -0.041562825 -0.034806516 -0.023058724
000180 92 0b 04 bd 8c 9f c3 b9 58 da 20 bd 97 c9 d9 3c
       -0.032237597 -0.0003731217 -0.03927073 0.026585383
000190 0c bd ae bd 82 2b 95 3d fc 94 ea 3d 00 ed 38 3d
       -0.085321516 0.07283689 0.11454198 0.045147896
0001a0 08 27 91 bd cf 10 d5 3d aa 3c d4 3d 3a 50 c2 bd
       -0.07087523 0.104035966 0.10363133 -0.09487958
0001b0 0a ca 34 3d e9 96 fe 3d dd ce 9d 3d c5 c9 cf 3d
       0.044137992 0.124311276 0.07705472 0.10145906
0001c0 e5 12 85 bd c9 4f 76 bd 13 6f 06 3e e2 c2 3c 3d
       -0.064977445 -0.060134683 0.13128309 0.046084292
0001d0 82 a8 63 bd 3d 5e d4 bd 2e ad 4c 3c 35 6a 86 3d
       -0.055580623 -0.10369537 0.012492461 0.06563226
0001e0 ed d9 72 3d ad 0f cd bd 6c 27 66 3d 89 bb ab 3d
       0.05928986 -0.100127555 0.05618994 0.08385379
0001f0 ad fb b3 bd a9 97 ae bd 0e f1 8a 3d ef 65 d0 bd
       -0.08788238 -0.08525021 0.06784259 -0.10175692
