AutogluonModels/ag-20220701_234948/models/NeuralNetTorch_BAG_L1/S1F8/net.params (torch, 211783 bytes, 9 tensors)

weight f4 [128, 14]
000000 7d 95 5b bb 59 04 27 3d a5 61 8d be 29 87 36 be
       -0.003350585 0.04077563 -0.2761356 -0.17824997
000010 5c c7 1c bd 0f 67 64 3d 63 0e e4 bc f4 23 91 3e
       -0.03827606 0.055762347 -0.027838891 0.28347743
000020 d8 1c 31 bc 48 72 a8 3d d1 ee 4a bd 21 45 09 bd
       -0.0108101 0.082249224 -0.04954416 -0.033513192
000030 7f 38 ae be 55 91 03 be da 1c e0 bd 26 35 99 3c
       -0.34027478 -0.12848409 -0.10943003 0.018702101
000040 46 16 dc 3d 27 51 60 3e bf ab ed bd 9b 4e 0c be
       0.10746436 0.21905957 -0.116050236 -0.1370186
000050 f5 fd 1a 3e 34 2d 42 3e d2 e5 9a ba b9 7c 4f 3e
       0.1513594 0.18962556 -0.0011817759 0.20262422
000060 90 39 12 bd 28 58 d5 bb 1c ad 91 3e 53 30 a9 be
       -0.035699427 -0.006510753 0.28452384 -0.3304468
000070 72 b7 3b be 7e f3 02 be 3f 41 28 be b1 6c 4f 3e
       -0.18331698 -0.12788197 -0.1643114 0.20256306
000080 94 15 74 be 65 86 15 be 0f 03 6c be 83 c4 8f be
       -0.23836356 -0.14602049 -0.23048042 -0.28079614
000090 08 30 21 be 5b c2 75 3e 98 fa d2 3d 0a 6a 02 3e
       -0.15740979 0.23999922 0.10301703 0.12735763
0000a0 a8 34 93 bd 09 82 c6 bd a3 e3 ef 3b f1 ff 9a be
       -0.07187778 -0.09692771 0.0073208376 -0.30273393
0000b0 61 a9 58 be 47 31 07 be 2e a1 56 3e d8 82 02 3e
       -0.21158363 -0.13202392 0.20959923 0.12745225
0000c0 39 54 1b be ca e5 80 3d 27 f8 19 3e 6c 98 89 3e
       -0.15168847 0.06293829 0.15036069 0.268741
0000d0 03 aa cc 3b ec 52 16 bd 17 1c b5 bc 55 3f 37 be
       0.006245853 -0.036700174 -0.02210812 -0.17895253
0000e0 f0 94 f3 ba b6 22 a4 be 13 55 6a be 56 02 a6 bd
       -0.0018583816 -0.32057732 -0.22884016 -0.08105914
0000f0 4d da e9 3d 47 bc a0 3d c4 53 3f be ca 72 ed 3d
       0.11418591 0.07848411 -0.18684298 0.1159416
000100 78 5e af 3d f0 b3 97 3b b5 cd c2 bc fb 98 0f 3d
       0.0856294 0.0046296045 -0.02377973 0.035058003
000110 77 b4 4e 3e 19 99 85 3e 3d d9 74 be 1c 4b 91 bd
       0.2018603 0.26093367 -0.23910995 -0.07094404
000120 f3 21 fe 3d cf db 9d 3e 41 fc 79 3e 15 17 1a 3e
       0.12408819 0.30831763 0.24412633 0.15047868
000130 46 14 95 bd a6 51 56 be 66 e2 38 ba 27 41 07 be
       -0.072792575 -0.20929584 -0.0007052779 -0.13208447
000140 8a 7f 70 be cd 08 50 3e 11 e1 9b 3e ac 17 a8 be
       -0.23486152 0.20315857 0.3044515 -0.3283056
000150 68 80 6a 3d 30 fa 02 be ca 54 a9 bd 5c 40 b4 bd
       0.057251364 -0.12790751 -0.08268125 -0.08801338
000160 b2 4d 97 3b a1 17 70 be e1 be 9d 3d 5e 71 2f 3e
       0.0046174163 -0.23446514 0.07702423 0.1713309
000170 6c d7 92 3e 6e 38 df 3d 01 e7 2f be 4d 07 2f be
       0.2867998 0.10899435 -0.17177965 -0.17092629
000180 4c e3 6f 3e af 11 47 3d 2d 0f 85 be ac 10 6d be
       0.2342655 0.04860085 -0.2598814 -0.23150891
000190 57 3e 3d 3e 41 a7 27 3e a4 bd 5f be f4 56 87 bd
       0.18480812 0.16372396 -0.21849686 -0.06608382
0001a0 34 af e2 be 08 7a c0 b8 b1 19 24 be 32 13 12 be
       -0.44274294 -9.1780035e-05 -0.16025425 -0.14265135
0001b0 aa 76 1f be 2e 20 80 3d 10 3c 09 be 80 06 94 3d
       -0.1557261 0.06256138 -0.13401818 0.07227802
0001c0 9e 2d 09 be fc 45 32 3e d0 d5 e2 3d 07 97 84 be
       -0.13396308 0.1740951 0.11075938 -0.25896475
0001d0 23 84 f9 3b db 04 a7 3d 76 08 b8 3c a4 66 c0 3c
       0.007614629 0.08155223 0.022464972 0.023486443
0001e0 db c5 af 3d 38 53 cd 3b c0 a8 76 be 14 1d 1c 3e
       0.0858266 0.006266024 -0.2408781 0.15245467
0001f0 8f 4b aa be ff 7b 6b be 0f 40 bc bc 90 0f 37 be
       -0.33260772 -0.2299652 -0.022979764 -0.1787703
000200 7a 6d e7 bd 59 33 53 be 61 27 ec bd fa 8f 41 3d
       -0.11300178 -0.20625056 -0.115309484 0.047256447
000210 78 7a 40 be e4 b4 9c bc 6e 1b 5e 3e 86 ae 90 bc
       -0.18796718 -0.019129224 0.21690151 -0.017661344
000220 a5 cc 01 bd e0 a2 69 bd 18 a7 86 3d 6e ed 86 3d
       -0.031689305 -0.057040095 0.06574839 0.06588255
000230 89 29 80 3e 3f b6 35 3e 57 3c 82 3e 15 20 1c bd
       0.2503169 0.17745303 0.2543666 -0.038116533
000240 a7 98 80 be 8c bd ea bd 9b 64 a9 3e fb 75 03 3e
       -0.25116464 -0.114619344 0.33084568 0.12837975
000250 aa fe 1b be 38 bc cc bd a4 53 93 be 26 72 a4 be
       -0.15233865 -0.099968374 -0.2877475 -0.32118338
000260 3c e8 8f be 76 33 0c 3e bd 86 02 3e 4e b6 ad be
       -0.28106868 0.13691506 0.12746711 -0.3392815
000270 25 68 ca 3d 47 c6 48 be 1e 71 a7 b9 74 9c 3c be
       0.09883145 -0.19606887 -0.00031937 -0.18419057
000280 7d 9c b9 3c 16 04 ac bd 01 ad 90 be 4e 3d 07 be
       0.022657627 -0.08399217 -0.28256992 -0.1320698
000290 2f 06 0e bd 81 70 08 be bf 0b 34 be fb aa e8 3d
       -0.034673866 -0.13324167 -0.17582606 0.11360737
0002a0 1f e3 cd be 2f 19 03 3e 0f 8a b2 3e 66 0a ee bd
       -0.40212342 0.12802576 0.34870955 -0.11623077
0002b0 1e 96 54 3e b4 e2 96 3d ad 3d de be 26 1c b5 3d
       0.2076039 0.07367459 -0.4340643 0.088432595
0002c0 81 aa fd bd c4 a7 41 bd f8 bc c9 3d 84 b0 6b be
       -0.12386037 -0.047279134 0.09850496 -0.23016554
0002d0 c2 5f 5d 3d 7f 73 66 bd 71 f5 0d 3e 8f 4a 46 bd
       0.0540464 -0.05626249 0.1386316 -0.04841095
0002e0 d4 d7 a0 3d 05 48 3f 3e 77 77 af bd 56 98 d2 bd
       0.07853666 0.18679817 -0.08567708 -0.10282962
0002f0 05 b4 83 be fc 54 1f 3e 49 95 41 3e 2c 7c 35 3e
       -0.25723282 0.15559763 0.18904604 0.17723149
000300 91 67 33 be 68 43 7b bb 5e 95 db be bc 53 a5 bd
       -0.17519976 -0.0038339738 -0.42887396 -0.08072612
000310 13 94 2c be bc a1 8d 3c 59 12 3b be b5 65 8d bd
       -0.16853361 0.017289035 -0.18268718 -0.06904165
000320 69 67 aa bc 7c a8 1c 3e 33 4e 71 be 69 94 cf bd
       -0.020801263 0.15298647 -0.23564987 -0.10135729
000330 fd 83 29 be 87 84 71 3e 23 62 2e be 48 c0 50 3e
       -0.16554256 0.23585711 -0.17029624 0.2038585
000340 5c c3 a1 3c cd 80 a6 3d 9b 24 93 3d 7f e6 dd bd
       0.019746475 0.081300355 0.07184716 -0.10834979
000350 13 4d 8a bc 62 5b 0d be a9 aa 51 ba cf 8a e8 3c
       -0.016882455 -0.13804391 -0.00079981476 0.028386502
000360 f9 32 45 be 63 ce 25 be de 29 50 3e d6 fa d7 bd
       -0.19257726 -0.16192012 0.20328471 -0.1054589
000370 b7 dd a5 bd 68 5b 45 3e c6 aa 43 bc 63 ab 00 be
       -0.080989294 0.1927315 -0.011942571 -0.12565379
000380 fd e2 74 be b4 cd e3 3d 05 eb 78 be 32 97 2e be
       -0.23914714 0.11123219 -0.24308403 -0.17049864
000390 ad a0 06 be 59 80 27 bd 71 9d fc 3c 71 3f 56 3e
       -0.1314723 -0.040893886 0.030836793 0.20922638
0003a0 36 1e e4 3d 33 6c 9c 3e e5 18 22 3e 12 e3 44 be
       0.11138575 0.305513 0.15829809 -0.19227245
0003b0 55 61 1a 3e 54 a1 83 be 6f 19 e7 bd 2c f3 8f 3d
       0.15076192 -0.2570902 -0.11284148 0.07028803
0003c0 b2 a6 95 3d a2 8f 8c 3e f4 fe c8 bd 59 18 b5 bd
       0.07307185 0.27453333 -0.098142534 -0.088425346
0003d0 40 34 a5 3c 97 c9 82 be 50 60 44 3e ad db 1f be
       0.020166516 -0.25544426 0.19177365 -0.15611143
0003e0 0f 61 ff bc 45 80 d6 bd 1f db 17 be 6c 78 80 bd
       -0.03117421 -0.10473684 -0.14829682 -0.06272969
0003f0 12 09 4c 3e 3b 1a ef bd d7 69 32 be d1 51 1d be
       0.19925335 -0.11674925 -0.17423187 -0.15363242

bias f4 [128]
000000 6e be 7b 3e 9d e5 f7 3d 86 66 bb 3d 76 51 3c be
       0.24584362 0.12104342 0.09150414 -0.1839045
000010 d0 ab d9 3d b6 f8 d5 3d 44 f6 21 3e a9 74 57 bd
       0.10628474 0.104478285 0.15816599 -0.05260149
000020 d7 8f 38 3c b1 92 34 bd d6 56 94 be c9 3a 1f bd
       0.011264763 -0.04408521 -0.289725 -0.03887442
000030 70 d2 87 be d1 af fb 3d 35 f4 49 be a9 0c 39 be
       -0.2652774 0.12289394 -0.19722064 -0.18071236
000040 83 f7 18 be f4 6e 14 3e 0f 99 60 be e9 ed b5 3d
       -0.14938168 0.1449545 -0.21933387 0.088832684
000050 54 bb 18 3e f5 2e 16 3e 9b 5b 7c 3d 86 57 6b 3d
       0.1491521 0.1466635 0.0616108 0.057456516
000060 66 36 1c 3e 59 f4 fd 3c d1 58 e2 3b 83 05 5f be
       0.15255126 0.031000303 0.0069075604 -0.21779446
000070 e7 b1 8e bc 77 18 85 bb 86 03 a8 3d 8a 20 f2 bd
       -0.017418815 -0.0040617543 0.08203797 -0.118226126
000080 42 ce 83 be a1 94 8b bd 31 f0 05 3e 4b 5a 76 3e
       -0.257433 -0.06815458 0.13079907 0.24057882
000090 96 cf 84 be d0 2a 8f 3d a9 fa 44 be cd f1 65 be
       -0.25939626 0.06990588 -0.19236244 -0.22455521
0000a0 aa ac 1c be 85 c9 a1 bd 86 59 ad 3c b7 aa 9c be
       -0.15300241 -0.07899765 0.021160852 -0.30598995
0000b0 6d ce d9 3d d5 96 36 3e 18 17 07 bd 04 5d 48 3e
       0.10635076 0.17830975 -0.03298101 0.19566733
0000c0 f6 37 20 be 0d 80 1b be 88 5d 34 bb dc ad 46 bd
       -0.15646347 -0.15185566 -0.002752157 -0.04850565
0000d0 00 92 5c be 9d e8 56 be 24 45 8e 3d 2d 73 01 bd
       -0.2154007 -0.20987172 0.06946781 -0.03160398
0000e0 bf d5 5d 3e 5c d4 07 be 9c 02 c4 3d f9 22 21 be
       0.21663569 -0.13264602 0.0957081 -0.15735997
0000f0 8f 8a 10 3e ce 6a 91 bd 39 50 22 3e 25 61 08 3e
       0.14115356 -0.071004495 0.15850915 0.13318308
000100 26 26 42 3e c9 25 09 3e a7 15 b6 bc fd 13 35 3e
       0.18959865 0.1339332 -0.022227122 0.17683406
000110 4c 7b 00 be 35 74 70 3e ee 0e 97 3e 26 95 13 3e
       -0.12547034 0.2348183 0.29503578 0.14412364
000120 66 60 12 be 89 31 3d be 46 ca af 3d 57 73 2a 3d
       -0.14294586 -0.18475927 0.085835025 0.041613903
000130 5c 32 b1 3d d9 dd 42 bc 29 c1 32 3e 4c a4 02 be
       0.086521834 -0.011893713 0.17456497 -0.12757987
000140 20 5d f2 bd 18 cb 89 3d 3b 76 e5 3c 95 dc 3a be
       -0.118341684 0.0672819 0.028010478 -0.18248208
000150 b9 9d d2 bc b6 59 79 be 2f a4 c8 bd 07 be d5 bd
       -0.025709974 -0.24350628 -0.097969405 -0.104366355
000160 0a 46 84 3e 66 45 78 be 46 44 fb bd 55 1c 5c be
       0.25834686 -0.24245223 -0.122688815 -0.21495183
000170 c5 6e 33 3d c5 20 6e be 24 ce f2 3c 18 6e 11 be
       0.04380681 -0.23254688 0.029639311 -0.14202154
000180 79 8f 23 be 57 f8 31 be f8 e6 d2 bc 01 00 3b 3e
       -0.15972699 -0.1737989 -0.0257449 0.1826172
000190 c5 f8 3f 3e 71 2b a7 bd 5c a3 97 be 65 66 e2 bd
       0.18747242 -0.08162583 -0.2961682 -0.110546865
0001a0 b2 81 22 be a8 cf dc bc 06 a6 10 3d 37 07 c7 3d
       -0.15869787 -0.026954487 0.035314582 0.09718173
0001b0 6b af aa 3d 3b ba 16 bc 85 7d 3f be ae bd bd bd
       0.083342396 -0.009199674 -0.18700226 -0.09264694
0001c0 55 75 1c 3c b3 15 4e be ef b4 d3 bd d0 89 32 bc
       0.0095494585 -0.20125465 -0.10337245 -0.010897115
0001d0 29 a9 82 be b0 97 d3 3d 75 7f d8 bc 30 7a 86 be
       -0.25519684 0.103316665 -0.026427964 -0.26265097
0001e0 ed 91 54 3e 59 0c 0c be 85 db 87 3d 9d cb 6c 3e
       0.20758791 -0.13676585 0.06633667 0.23124547
0001f0 7e 25 9f bc 48 c4 bc 3c 38 23 d9 3d 56 57 81 3d
       -0.019427057 0.023042813 0.106024206 0.06315486

weight f4 [128, 128]
000000 4b f6 99 3b 33 01 ec bc 67 d4 c4 3c a2 f9 d4 3d
       0.00469855 -0.028809166 0.024027063 0.10399176
000010 7b 42 9c 3c 61 4b 8d 3d 03 a0 00 3d be fc 72 3c
       0.01907467 0.06899143 0.0314026 0.014830766
000020 fa f8 18 bd 1b 32 60 3c 62 cf e2 bd 53 ce 86 bd
       -0.037346818 0.013683821 -0.110747114 -0.06582322
000030 f0 23 0f be 68 65 6c 3d f4 0d 76 3d 05 d1 ab 3a
       -0.13978553 0.057713896 0.0600719 0.0013108557
000040 f9 5d 05 3d cc de 1d 3d 7a e0 02 bd dc 94 d4 bd
       0.032560322 0.038542554 -0.03195236 -0.10379955
000050 25 37 84 bd d8 f7 35 bd 6b 34 65 bd 56 02 b2 bc
       -0.064558305 -0.044425815 -0.055958193 -0.02172963
000060 08 88 ce bb 23 e7 4b bc b6 14 07 bd 11 b8 5e 3d
       -0.0063028373 -0.012445244 -0.032978736 0.05437476
000070 26 a9 bc 3d 1f a0 31 bd 82 94 15 3d 2b 58 82 3c
       0.0921195 -0.043365594 0.03651858 0.015911182
000080 3e dc ef 3d 9c 2a 52 3c d9 81 aa bc c6 9a f2 bc
       0.1171193 0.012827542 -0.02081387 -0.029614817
000090 4e b0 fd 3d dc fd 4e bd c1 c9 8d bd 0d aa 04 3e
       0.12387143 -0.050535068 -0.06923247 0.12955494
0000a0 8d 89 b6 3d 1d 32 51 bd 4b 19 d7 bc 40 6c bd bc
       0.089129545 -0.051073182 -0.026257178 -0.023122907
0000b0 10 9e c0 bc 40 84 bf bc 57 98 34 bd 8b 62 53 bd
       -0.02351287 -0.023378491 -0.044090595 -0.05160765
0000c0 a3 cd 94 bd 7d 37 58 bd 3c 18 db bd 05 4f 9f bc
       -0.072657846 -0.052787293 -0.10697982 -0.01944686
0000d0 ca cc 4c 3d f1 cc 66 bd 2f 99 82 bb 16 e1 15 bd
       0.04999999 -0.05634779 -0.003985546 -0.03659161
0000e0 80 27 e2 3d b2 1b 46 3d 57 ef 36 3c 32 8f 6f bd
       0.1104269 0.048366256 0.0111654615 -0.05848617
0000f0 8a 37 ab bd 02 62 0e bd 45 06 72 3d 9f 60 18 3a
       -0.083602026 -0.034761436 0.05908801 0.00058127375
000100 6a 0a 14 3c ee 56 4a bd 43 37 27 3d 7e 1a 3c bd
       0.009035686 -0.04939931 0.040824186 -0.045923702
000110 51 23 6a 3d c8 0f a6 3d 2b cc bd bd 50 57 1c bd
       0.057162587 0.08108479 -0.092674576 -0.038169205
000120 6b 89 c2 3d 15 52 ba bc 10 d4 87 bc 5c c5 54 3d
       0.09498867 -0.022744218 -0.016580611 0.05194603
000130 5d 98 60 bc d4 72 e8 bd 65 95 2d bd 78 d7 8f 3d
       -0.013708201 -0.11350027 -0.0423788 0.07023519
000140 76 0f 96 3d ee 9d fd 3c 83 0c 02 3c b1 d9 ce bb
       0.07327168 0.030959096 0.007937553 -0.006312572
000150 8d 3e 94 3d 78 14 d1 bb 42 eb 5e 3c aa 73 2e 3b
       0.07238493 -0.006380614 0.0136058945 0.0026619234
000160 b1 8c 2a bd 96 ed d3 3d be eb 85 bd 53 98 4d 3d
       -0.04163808 0.1034805 -0.06539105 0.050194096
000170 05 fa 4d bd b5 ea a9 bc b5 01 e9 3d 38 db 2e 3d
       -0.050287265 -0.0207418 0.11377279 0.042689532
000180 bc 1c df 3c 3d 8c 69 3d 04 66 af bd 12 0b 31 bd
       0.027235381 0.057018507 -0.0856438 -0.043223448
000190 b6 b7 56 bd af 3e 3b bd b7 19 c0 3c 26 b8 22 3d
       -0.052421294 -0.045714077 0.023449762 0.0397264
0001a0 d2 60 85 3d 0a ea c5 3b a6 a7 07 3d 67 45 54 bd
       0.06512608 0.0060398625 0.033118866 -0.051824
0001b0 70 44 cd 3c 70 74 a0 3b 5f 58 38 3c 61 a8 af 3d
       0.025057048 0.004896693 0.011251538 0.085770376
0001c0 a0 c7 ad bc 8b a8 8f bc 4e d5 80 bd 04 13 b0 3d
       -0.021213353 -0.017536422 -0.06290685 0.08597377
0001d0 c0 82 ce bb d1 34 e5 bd 77 a6 c1 3d cf 30 3b be
       -0.0063022077 -0.111917146 0.09455579 -0.18280338
0001e0 ff 40 37 bd 5b b0 02 3d c2 ae 95 3d ac 20 d8 3d
       -0.04473972 0.031906467 0.07308723 0.10553107
0001f0 6c e4 43 3d fa 81 98 bc 96 8f 85 3d b1 5e 24 bd
       0.047825262 -0.018616665 0.065215275 -0.040129367
000200 e2 d9 4f 3d ac 03 33 ba 51 42 ae bd a5 ef 9d 3d
       0.0507449 -0.0006828855 -0.085087426 0.07711724
000210 da 2d 1c bc 0d ad 23 bc 34 9a a9 bb 89 24 a7 bc
       -0.009532416 -0.009989989 -0.005175853 -0.020403164
000220 45 89 ad 3d 1d 10 f6 3d 74 99 6a bd 2a f3 ae 3c
       0.08473448 0.12014792 -0.05727525 0.021356184
000230 da fb 23 3c 9e dd b9 3d 6e ef 08 bd 93 46 24 3d
       0.010008777 0.09075473 -0.033431463 0.040106367
000240 e4 26 84 3d 4d 8f 9b 3d fd 69 0f be 96 46 18 bd
       0.0645273 0.07595692 -0.14005275 -0.03717669
000250 1d 25 10 be 7f 52 4e be f9 cd 82 bd e4 56 fe 3c
       -0.14076658 -0.20148657 -0.063869424 0.031047292
000260 6c ca 83 bd de 79 03 bd 1e 45 18 3d f0 c1 82 bc
       -0.06435093 -0.032098643 0.03717529 -0.015961617
000270 85 97 7a 3c 5b 32 72 bd e8 a4 33 bd 44 0e c9 bd
       0.015294914 -0.059130054 -0.04385844 -0.09817174
000280 56 cb 60 bd 56 48 69 bd ca 2e 39 bd db 69 f3 3d
       -0.054881416 -0.05695375 -0.045210637 0.11885425
000290 9d 60 c6 bd 5a f7 cb 3c 8e 2a 2e be 7c 9f 4a 3d
       -0.09686396 0.02489822 -0.17008421 0.049468502
0002a0 b0 3f dd bd 12 9d 30 bc 04 8a 2a bc cf 20 8d bd
       -0.10803163 -0.010779636 -0.010408882 -0.06891023
0002b0 60 e6 8f 3d cc 00 36 bd d0 c8 53 bd b6 94 9b bb
       0.070263624 -0.044434354 -0.05170518 -0.0047479523
0002c0 97 fb aa 3c aa d2 e0 3b 5a 05 2d 3d 6a 87 af 3d
       0.02087192 0.0068610506 0.04224143 0.0857075
0002d0 f3 5f 36 be 6f 29 a0 bc b7 89 9d bc 85 52 ea 3b
       -0.17810039 -0.019551007 -0.019230707 0.0071509504
0002e0 bf 74 02 3e 68 84 bf 3d 14 02 88 3b 5a e1 44 bd
       0.12739848 0.09351426 0.0041506384 -0.048066474
0002f0 df 85 bc 3d 66 f0 7e 3d ec 24 05 3d d2 48 b1 bb
       0.092052214 0.06224098 0.032505915 -0.005410292
000300 3a a7 ad 3c 74 1d cb 3d 67 86 1a 3d 1c ed 62 bb
       0.021197904 0.09917727 0.037725832 -0.0034626191
000310 9f b7 ab be 91 a1 9e bd 42 ab 69 3c b5 30 a6 3c
       -0.3353853 -0.0774566 0.014262022 0.020286897
000320 d4 02 67 3d 6a 55 67 3d 5c ad fc bd fc 09 6e bd
       0.05639918 0.05647794 -0.12337753 -0.05811499
000330 73 4f 94 bb 77 84 9c 3d 48 a3 63 3d 03 ff 03 3d
       -0.0045260726 0.07642453 0.05557564 0.03222562
000340 66 38 3f 3d 23 d1 b9 bd d5 18 56 bd 64 65 ad 3d
       0.046684645 -0.09073093 -0.052269775 0.08466604
000350 3e 32 7e bd 53 96 0a 3d d1 af 48 bd 7f 8a d3 bd
       -0.062059633 0.033834767 -0.048995797 -0.103291504
000360 69 aa 12 3e 88 07 07 be 25 7b fb 3d f6 c0 38 3d
       0.14322819 -0.13186467 0.12279347 0.045105897
000370 6e d4 19 bd 65 9b b7 3d a7 74 14 be 82 e9 4c bd
       -0.037556104 0.08965186 -0.14497624 -0.050027378
000380 9e f7 4f 3c a4 fc 35 bd bb 16 37 39 80 82 03 bd
       0.012693314 -0.04443039 0.00017460708 -0.032106876
000390 c0 a2 79 bd ad 2f c0 bb a0 aa b2 3d e6 38 f1 3b
       -0.060946226 -0.0058650584 0.087239504 0.007361519
0003a0 9c 94 40 3d f4 84 b2 3d 33 cf bf 3c dc 38 69 bd
       0.047016725 0.08716765 0.02341423 -0.05693899
0003b0 e3 e7 d9 3c dd 29 ab bd e6 9a 6c bb 8c a2 d2 bc
       0.02659983 -0.08357594 -0.003610307 -0.025712274
0003c0 97 9b 9a 3d 95 01 8c 3d a5 e2 97 bd 0a 43 17 be
       0.07549208 0.06836239 -0.07416276 -0.14771667
0003d0 73 2f c5 bd d4 63 12 bc bd 31 45 bd d3 4c ef bc
       -0.09628191 -0.008934934 -0.048143137 -0.029211437
0003e0 d5 98 c9 bd 68 e3 47 3d 71 a4 16 3c 37 b4 f1 bc
       -0.098436035 0.048800856 0.009194479 -0.029504878
0003f0 ba 9b be 3d 6c ad 65 bc 42 d2 1c bd b1 40 e8 3c
       0.09307046 -0.014018398 -0.038286455 0.02835116

bias f4 [128]
000000 78 9e c3 3d 4e 7d 9f 3c 0f 55 ca 3d af cf dd 3d
       0.0955171 0.01946893 0.09879505 0.10830628
000010 d7 23 43 3d 48 61 3d bd 93 5e ad bc 31 6e c6 3b
       0.0476416 -0.046235353 -0.02116326 0.0060556163
000020 0f 43 49 3d fd fc 02 3c 0a 29 92 3d 29 4e f9 ba
       0.049136218 0.007994887 0.07136734 -0.0019020486
000030 08 b8 93 3d bc f6 1d bd 70 d2 ab bc 8a 01 a7 3d
       0.072128356 -0.038565382 -0.020974368 0.081545904
000040 82 57 39 bd 4b b3 b2 bc e7 d8 24 bd 19 8f a4 bd
       -0.04524947 -0.02181401 -0.040245917 -0.08035106
000050 34 ba 95 bd a6 15 64 bc c8 ce 3a 3c 7f c8 78 3d
       -0.07310906 -0.013921177 0.01140184 0.060738083
000060 9c 23 2b 3a 8c ba 89 3d cb 6f 90 3d 70 36 a0 3d
       0.00065284385 0.06725034 0.07052573 0.07822883
000070 e7 b0 d6 ba 15 52 03 3d a2 06 a9 bd ad 6b 88 3d
       -0.0016379625 0.0320607 -0.08253218 0.066611625
000080 7c e7 0a 3d c3 5d be 3c 15 10 28 bd 96 5d b5 3d
       0.033912167 0.023238068 -0.041030962 0.08855741
000090 04 4b c2 bd c9 e0 68 3d ef 53 9f 3d 32 51 30 3d
       -0.09486964 0.056854997 0.07779681 0.043046184
0000a0 a9 15 b1 3d 69 fe 67 bd 52 e1 b2 3d 1d 14 c7 3d
       0.086467095 -0.05663911 0.08734383 0.09720633
0000b0 08 2b 09 bc b4 60 a9 3d 50 15 43 bc 80 4c 94 bd
       -0.008372076 0.08270398 -0.011906937 -0.07241154
0000c0 eb 1c a4 3d ff 89 34 3d dc 56 50 3d 35 e6 16 3d
       0.08013328 0.044076916 0.050864086 0.036840636
0000d0 74 7e 10 bd 74 cf ad 3c 99 a7 83 3d da a9 64 bd
       -0.035276845 0.021217085 0.06428451 -0.055826046
0000e0 aa 9f b8 3d 75 50 9c 3c 8e 1b dd ba cd 8e d3 bd
       0.090148285 0.019081334 -0.0016869174 -0.103299715
0000f0 19 82 d7 bc d6 e1 c5 bc cd 05 57 bd 64 bf e3 3d
       -0.026307153 -0.024155539 -0.052495766 0.11120489
000100 42 25 9f 3c 61 1c 3a bd 37 d7 44 bd f5 38 1c bd
       0.019426946 -0.04543722 -0.048056807 -0.038140256
000110 a7 15 8a 3d 21 4f 73 bd 14 47 88 3d 6d 67 01 3d
       0.06742411 -0.059401635 0.06654182 0.031592775
000120 0c ec ee bd 3f 6b d1 bd 81 94 82 3b bc 18 b0 3d
       -0.11666116 -0.10225534 0.003984988 0.08598468
000130 b7 66 21 bc 5c 70 8b bd 8c b5 3f 3c f8 3f c5 bc
       -0.009851149 -0.0680854 0.011700999 -0.024078354
000140 96 0a 83 bd 94 63 9b 3c 85 2f ad 3d af 61 90 bd
       -0.063985035 0.018968381 0.08456329 -0.07049882
000150 ce 90 ce 3c 62 39 48 bc 59 eb 3d bd 8d a0 aa 3d
       0.025215533 -0.012220712 -0.046367023 0.08331404
000160 07 b2 29 bd e6 42 ce 3d 7a 10 aa bd e1 9b 99 3c
       -0.041429546 0.100713536 -0.08303924 0.018751087
000170 cb 82 c8 bc 65 c5 eb 3c 71 c0 ce bd 65 cc 4c 3d
       -0.02447643 0.028780648 -0.10095299 0.049999613
000180 c5 b0 bb bd 93 9d 93 3d b8 e4 a9 bd 36 ba de 3c
       -0.091645755 0.07207789 -0.08295578 0.027188402
000190 89 65 9e bd 7c 35 9f bd 0b 00 bd 3c bb 13 9e 3d
       -0.0773421 -0.07773873 0.02307131 0.07718607
0001a0 bb eb 53 3d aa f2 99 bd 8d 20 a3 bd c7 fe bf 3d
       0.051738482 -0.075169876 -0.07965193 0.09374767
0001b0 ea d4 bd 3c 1c 84 de 3b cb 11 10 3d c2 df 4a bd
       0.023172814 0.006790651 0.03517322 -0.0495298
0001c0 cf 59 07 bc 62 55 9b 3c ef 41 cd bd b2 0f 2c bc
       -0.008261158 0.018961612 -0.100223415 -0.010501789
0001d0 58 41 94 3d 94 20 0c bd 81 2f 48 bb 4f a1 6b bd
       0.07239026 -0.034210756 -0.0030545893 -0.057526883
0001e0 85 19 50 bc f3 f5 0e bd 00 dd 97 bd d2 b8 52 3d
       -0.012701397 -0.034902524 -0.07415199 0.05144579
0001f0 d3 b2 dc bd 86 33 bf bc 07 c2 c2 bd 52 5b 35 bd
       -0.107762955 -0.023339998 -0.09509664 -0.044276543

weight f4 [128, 128]
000000 71 86 76 3d fe bd fe bd 06 76 18 bd a1 d7 eb bd
       0.060186807 -0.12438582 -0.03722193 -0.11515737
000010 cb 32 81 3c 95 2b 69 3d d1 49 20 3e 69 96 69 3d
       0.01577129 0.05692633 0.15653159 0.057028208
000020 bf 43 60 bd 1f 99 85 bd 1d 65 00 3d e5 ea d0 bb
       -0.054752108 -0.06523346 0.03134643 -0.006375658
000030 f6 90 ef 3d a2 af 16 be e0 92 fa bd 38 5b c4 bd
       0.11697571 -0.14715436 -0.122350454 -0.09587711
000040 4d 50 53 bd fb 6b 06 3e 64 0a 90 bd 74 a6 ac bc
       -0.051590253 0.13127129 -0.07033232 -0.021075465
000050 ad 2d c1 bc 08 ee 15 3d 69 db 44 bd d3 b1 b0 bd
       -0.02358135 0.036603957 -0.04806081 -0.08627667
000060 1f 2d 66 bd 28 26 8a bd 06 d1 87 bc 76 2b 46 3b
       -0.056195375 -0.06745559 -0.016579162 0.0030238307
000070 9c cf 73 bd 66 77 1b 3d 87 e2 33 3d 10 cf 81 3c
       -0.059524164 0.037955664 0.043917205 0.015845805
000080 fc 1d ec bc b8 b7 a5 bb 55 b4 a2 3d ed 89 68 bb
       -0.028822891 -0.0050573014 0.07944552 -0.00354826
000090 d6 87 51 bd ac e6 9b 3b 36 1c 49 bd 5a 58 92 bd
       -0.051154934 0.004757723 -0.04909917 -0.07145758
0000a0 f0 55 6f bc 86 88 9d 3c 6f 54 50 3d f8 cc 3d bd
       -0.014607891 0.019230139 0.050861772 -0.04633805
0000b0 ab 22 79 3b ff ae a9 3c 3d bb 16 bd df a8 0d bb
       0.0038015048 0.020713327 -0.036799658 -0.0021615548
0000c0 06 30 31 3c c4 45 80 3b e9 73 c7 3d 5c 12 31 3d
       0.010814672 0.0039145667 0.09738905 0.0432304
0000d0 ff 66 72 3d 6d 72 04 3d 68 fe b5 bd 4e 9a 46 bd
       0.059180256 0.032335687 -0.08886415 -0.048487
0000e0 be 99 a5 bc 83 a5 52 3d 77 34 38 3d b1 f3 97 3d
       -0.020214912 0.051427376 0.04497191 0.07419527
0000f0 68 2a 04 bd 64 39 2a 3d 98 a9 45 3d a3 87 8f 3d
       -0.032267004 0.04155864 0.04825744 0.070082925
000100 94 d0 b6 3d f9 50 68 bd 93 12 0c 3d 03 ea 90 bc
       0.08926502 -0.056717847 0.0341974 -0.01768971
000110 e4 20 85 3d b8 9b 2d bd 12 52 c8 bd 68 56 95 3c
       0.06500414 -0.042384833 -0.09781279 0.018229678
000120 91 36 03 3d 98 6b 9f 3d 30 73 07 bc 51 21 17 bc
       0.03203446 0.07784194 -0.008267209 -0.009224252
000130 b2 5f ba bc 30 77 ad bc cb 62 25 bd e0 2c 12 3c
       -0.02275071 -0.021174997 -0.04037742 0.008921832
000140 d2 75 69 bd 86 bc 3b bb e8 89 a1 3c 93 b9 31 3d
       -0.056997128 -0.0028646304 0.01971908 0.043389868
000150 53 c9 bb 3d c8 c6 3e bd 57 5c 4d 3d dd 47 b3 bd
       0.09169259 -0.04657629 0.05013689 -0.08753941
000160 91 9d 7b bc fc f6 2f bd 78 39 bc bc 10 42 4d 3d
       -0.015357391 -0.042960152 -0.022976622 0.05011183
000170 74 34 35 bd ea a4 10 bd 78 cc ae 3d 07 81 74 3c
       -0.044239476 -0.035313524 0.08535093 0.014923341
000180 d7 c3 07 3d 91 f9 23 3c d7 1a 34 bd 10 1b 8a bc
       0.03314575 0.010008232 -0.04397091 -0.016858608
000190 d9 2d c4 3d 07 6b a6 bd 61 41 11 be 5e 80 75 3d
       0.09579057 -0.081258826 -0.14185096 0.059936874
0001a0 67 30 8c 3d b1 a7 9c 3d 50 3e 95 3d b1 81 a9 bc
       0.068451695 0.07649172 0.07287276 -0.020691724
0001b0 73 0b 99 bd 3c 75 fb bd 59 45 27 bc c8 ff 7c bd
       -0.07472887 -0.1227822 -0.010209405 -0.06176737
0001c0 54 0f 88 3c 65 5d 92 3d 14 14 d2 3d e5 f8 43 bd
       0.016608872 0.0714672 0.10257736 -0.047844786
0001d0 16 0e f8 3d 73 f7 63 bd c3 e4 75 3c 00 00 ab bd
       0.12112062 -0.055655908 0.015008154 -0.083496094
0001e0 5b f0 95 bc 5f 94 84 3b d0 65 32 bd 62 dd 1a 3d
       -0.018303087 0.0040460075 -0.043554127 0.037808783
0001f0 35 4e 4e 3b fe 43 65 bd 7f 01 a7 3d 01 ec a7 3c
       0.003147972 -0.055973046 0.08154582 0.020498278
000200 0d 9b f5 3a fd 99 c8 bd 4e 53 34 3d a1 9c d4 3c
       0.0018738225 -0.09794996 0.044024758 0.025953593
000210 ae 38 32 3d 1b 27 08 3d db 5f b2 bd fe a1 a9 3d
       0.043511085 0.03324042 -0.08709689 0.08282851
000220 0c b0 09 3d 42 13 08 3d 03 79 ff bc e3 ad 77 bb
       0.033615157 0.03322149 -0.031185633 -0.0037792854
000230 2a ac b4 3c 1b 2f ee bc 2c 4e 02 be ab 89 74 bc
       0.02205475 -0.029075196 -0.12725133 -0.014925401
000240 39 4e 25 be f5 34 72 3d f3 ea 98 bd 09 e2 f4 bd
       -0.16143121 0.059132535 -0.07466688 -0.11957175
000250 53 fa ab bd 4d f7 db 3b 75 3a aa 3d db 19 58 3d
       -0.08397355 0.00671283 0.08311931 0.052759033
000260 5c c9 e6 bc 25 2e 3a 3d 74 d5 11 bb 56 5f ba bc
       -0.028172188 0.045454163 -0.0022252472 -0.022750538
000270 53 4b f8 3a ec d8 f4 bc cf b6 de bb f9 cf 03 3d
       0.0018943347 -0.029888593 -0.006796695 0.03218076
000280 a3 7e 42 bd 86 3e a3 3b 4f 43 27 3d 10 53 13 3c
       -0.04748405 0.0049818186 0.040835675 0.008991972
000290 0b 8c 74 bc 13 90 0f 3d fc 1a 07 3e 0d f4 41 bd
       -0.014925967 0.03504951 0.13193887 -0.047351886
0002a0 0e a3 75 ba ba c3 8a 3d 42 c1 8d bd 43 9a 06 3d
       -0.00093703053 0.06775613 -0.069216266 0.03286196
0002b0 23 ef 31 bd d0 a7 1b bd fb 53 a5 bd b0 98 de 3c
       -0.04344095 -0.038001835 -0.08072659 0.027172416
0002c0 a8 a1 05 3e 4f f8 4a bd ae 66 17 39 07 43 47 3c
       0.13049948 -0.04955321 0.00014438733 0.012161977
0002d0 1a 56 19 bd 85 a1 47 bd e7 3a 8c bc 25 e9 1a 3c
       -0.03743563 -0.04873802 -0.01711793 0.009455
0002e0 17 5b c9 bd 76 00 8e bb e5 f8 19 3e 66 d5 8b bd
       -0.09831827 -0.004333551 0.15036352 -0.06827812
0002f0 dd 03 6c bd 5c 61 78 3c 7d 7b 8d 3d 6f d5 b9 bc
       -0.05762087 0.015159931 0.06908319 -0.02268478
000300 b2 56 9d 3c 72 d7 db 3c 8a 1a 24 bd 40 31 ac bd
       0.019206379 0.02683613 -0.040064372 -0.08407831
000310 4e 5d c2 bc 54 fe 98 bd fa 61 a7 bd 4e 53 19 3d
       -0.023726132 -0.07470384 -0.081729844 0.03743296
000320 a2 aa 0a 3d 38 6e 87 bd 79 14 54 bc 16 30 76 3d
       0.033854134 -0.066128194 -0.012944334 0.060104452
000330 bb 22 0f be 5d 92 8a bd e8 ba 57 3d e6 2f 34 bd
       -0.13978092 -0.06766198 0.052668482 -0.043990992
000340 5f c4 b6 bd aa 32 53 3d 92 f4 f1 bd 7b 4b 29 3d
       -0.089241736 0.05156199 -0.11814226 0.04133175
000350 cd 41 be 3d 86 99 fa bc f0 0d e6 bd 01 d2 d5 bd
       0.09289894 -0.030590784 -0.11233127 -0.10440446
000360 fd 1d b8 bd 22 43 08 3c 86 a4 32 3d 8f ee 98 3c
       -0.08990095 0.008316787 0.043613933 0.018668441
000370 74 a3 47 bd 45 31 ac bd dc dc 0b bd a2 cc ac 3d
       -0.048739865 -0.08407835 -0.034146175 0.08437468
000380 77 05 2f 3d c7 23 f6 3c ca 81 3b bd 5b 1f 86 bd
       0.04272982 0.030046357 -0.045778073 -0.06548949
000390 14 ff 12 3d 9a cf e0 bc f2 99 32 bd c8 14 5b bd
       0.035887793 -0.027442742 -0.043603845 -0.053486615
0003a0 c5 b8 22 bd 9d 4b da bc c5 1d 94 3d b8 2e be bd
       -0.03972699 -0.026647383 0.072322406 -0.09286255
0003b0 39 14 d8 bd d8 75 f7 bc f4 fe 2e 3d dc dd 27 bd
       -0.10550732 -0.03020756 0.04272361 -0.040983066
0003c0 67 01 5f 3d 11 32 29 3d df bb 2f 3d aa 47 f0 bb
       0.054444697 0.041307513 0.042903777 -0.007332762
0003d0 51 6e 7b bd 74 35 08 bd c1 76 1d 3e 53 16 f0 3b
       -0.061384503 -0.033254102 0.15377332 0.00732688
0003e0 3f 96 96 3d 72 de 9b 3d bb cd 0c bd 19 ae 23 be
       0.07352876 0.076107875 -0.034375887 -0.15984382
0003f0 8a 2c 09 3e 41 f3 a4 bd 17 2a e5 bb 34 28 16 bd
       0.13395897 -0.080542095 -0.006993543 -0.036659434

bias f4 [128]
000000 18 01 a4 3d d3 c7 54 bd 4a 8d 13 3d 2d 87 2e bd
       0.08008021 -0.05194838 0.036023416 -0.042609382
000010 e2 4a 8a 39 ea 9b a5 bd 02 72 50 3d 3a 61 29 3d
       0.00026377203 -0.08086379 0.050889976 0.041352488
000020 04 9b aa 3d 2b 12 c1 3d af 62 b7 3c 7f 95 6e bd
       0.08330348 0.094272934 0.022385923 -0.05824804
000030 03 a4 e0 3d 12 b1 7c bd 7d d0 52 3b 28 d4 2e bc
       0.10968783 -0.061692305 0.0032167726 -0.010670699
000040 4d 55 26 3d 08 18 a6 bc 89 b3 9f 3c b6 bd 6e 3d
       0.040608693 -0.02027513 0.019494789 0.05828639
000050 bc d6 7c bc 17 64 b3 3d b6 da 3b bd f1 1f ba 3d
       -0.015432056 0.08759325 -0.045862876 0.090881236
000060 48 4c 64 3c 20 ba 13 bc 78 d1 16 3d 3b 51 42 3b
       0.0139342025 -0.009016544 0.03682086 0.0029650468
000070 bf 52 51 3d fb 54 60 3d c6 16 cb bc 15 21 87 bb
       0.051104303 0.054768544 -0.024791133 -0.0041238167
000080 62 3f 77 3d df 3b 15 3c ad d1 ef 3c 2d 64 7f 3d
       0.06036318 0.009108513 0.029274786 0.062351394
000090 4d 86 d6 bc df ea 62 3d 6e 66 6a 3b 8f 8d de bb
       -0.026187086 0.05539977 0.003576662 -0.0067917774
0000a0 e4 90 cd bc ca 3a dd 3b c9 f1 db bc af 66 3c 3c
       -0.025093503 0.006751393 -0.02684869 0.011499091
0000b0 63 61 a5 bd f6 ea aa 3d 24 70 49 bd 06 3d b1 bc
       -0.08075216 0.083455965 -0.04917921 -0.021635544
0000c0 2e a0 c4 3d 48 c2 09 bd c4 62 af 3d bf b1 f3 3c
       0.09600864 -0.033632547 0.0856376 0.029747842
0000d0 c6 38 96 3d 4e 65 8c bd 38 f5 b8 3c 62 8b 84 bd
       0.073350474 -0.0685526 0.022577867 -0.06471898
0000e0 a8 63 3c 3d f4 10 95 3c 85 32 0d bd f5 59 c6 3d
       0.045993477 0.01819656 -0.034472007 0.09685127
0000f0 e0 15 29 bc 76 09 ff 3b 3d 8e c8 3c 1f a7 aa 3d
       -0.010320157 0.0077831103 0.024481887 0.08332657
000100 f4 bf 0a bc 96 92 ee 3d a1 f7 07 bc 2a 27 98 3d
       -0.008468617 0.11649053 -0.008298785 0.07429345
000110 97 24 a7 3d 71 2b bd bc 2b 57 84 bd 4b 1f 93 3c
       0.08161276 -0.023092004 -0.064619385 0.017959258
000120 52 29 42 3d 0a 93 4b 3d 77 fe c4 3c ab 8b 59 ba
       0.047402687 0.049700774 0.02404712 -0.0008298705
000130 71 60 99 3d e0 89 b2 3c 8b ab 8f bd 36 29 da 3d
       0.07489098 0.02179426 -0.07015141 0.106523916
000140 f8 24 68 3c 73 d1 7c 3d 18 d0 c0 3d af 90 fc bc
       0.01416897 0.061723184 0.09414691 -0.03083071
000150 11 6d 6d 3d 1a 0e d0 3d 91 37 03 bd d5 65 dd bc
       0.057965342 0.1015894 -0.032035414 -0.027026096
000160 a9 54 49 3d fd c7 6d bc c0 66 5c 3d e0 f7 85 3c
       0.049153004 -0.014513013 0.053808928 0.016353548
000170 38 70 c7 3d ec 7d fa bc 76 29 1d 3d 7f 52 a3 3d
       0.09738201 -0.030577622 0.03836962 0.07974719
000180 47 65 a3 bd ff 4a ab 3d b5 7d 5d 3d 67 e7 b7 3d
       -0.079783015 0.08363914 0.05407496 0.08979683
000190 01 1a 70 bd da 9b 9d 3d 2b 14 c0 3d c2 47 8f 3d
       -0.05861855 0.07695742 0.09378847 0.069961086
0001a0 e2 d3 3c bd 95 a3 ba bd 0c a4 f6 bc e4 52 84 3b
       -0.046100505 -0.09113232 -0.03010752 0.0040382016
0001b0 87 0e 92 3d c6 18 47 bc df d7 a5 3d 1a 46 71 bd
       0.07131677 -0.012151903 0.08097815 -0.058904745
0001c0 e4 1c d1 bc 70 5c 81 3c f9 d8 be 3d 95 67 94 3d
       -0.025526471 0.015791148 0.09318728 0.07246319
0001d0 a1 99 d3 bd b6 d1 c4 3d 32 cd 18 3c a4 f9 b3 3c
       -0.10332037 0.09610312 0.009326266 0.021969624
0001e0 ba 7a 8b 3d 6e 43 15 3c cd 2d 0e bc e4 0d 1b bd
       0.068105176 0.009110315 -0.008677912 -0.037855044
0001f0 7d 7d 29 3d 5c ec cd 3d 6c c1 4c 3d 91 4d f7 bc
       0.04137944 0.100548476 0.04998915 -0.030188354

weight f4 [128, 128]
000000 84 93 40 3c 6d 6e da bc b3 4f b0 3d 38 48 88 3d
       0.0117539205 -0.026663983 0.086089514 0.066544
000010 00 de 11 bb 04 db 84 3d eb 87 da 3d 95 c9 8e 3d
       -0.0022257566 0.064870864 0.106704555 0.069720425
000020 1e f9 04 bd 3c 54 a9 bd 3a 70 ad ba b2 80 02 3d
       -0.03246414 -0.082680196 -0.0013232299 0.031861015
000030 ec c1 c5 ba 4e 38 cb bd 4c 98 1b bd af 19 4e bd
       -0.00150877 -0.09922849 -0.03798704 -0.050317463
000040 a3 cb 41 3c 3e 35 0e 3d 5d a4 81 3d 4e 3f 8d 3b
       0.011828336 0.034718744 0.06330178 0.004310525
000050 d3 37 42 3c 68 d8 13 3d 30 b1 2a 3d 54 d1 d4 3d
       0.01185413 0.036095053 0.041672885 0.10391489
000060 29 6f c0 3d 6b 74 96 bd 15 07 03 bd b4 bc 8f bd
       0.09396202 -0.07346424 -0.031989176 -0.07018414
000070 ce f6 0a 3e b1 46 01 bd af a5 57 bd 82 15 9a 3c
       0.13570711 -0.031561557 -0.052648243 0.018809084
000080 38 18 ab bd 90 87 1b 3e 47 22 a8 3b 5f 3c 8c bd
       -0.08354229 0.15188432 0.0051310393 -0.06847452
000090 8d 70 88 3d c8 f4 f5 b8 2c 04 cb 38 2e 5e 1f bc
       0.06662092 -0.000117281044 9.6805714e-05 -0.009727044
0000a0 a0 48 bd 3c ea 74 4c 3d ce 00 90 bc df 28 b7 3d
       0.02310592 0.049916185 -0.017578509 0.089433424
0000b0 49 05 40 bd db 3c 8d 3b ea 37 ae 3c 3d 92 ca bd
       -0.04688004 0.004310233 0.021266896 -0.09891174
0000c0 c3 e7 2d 3e 6a dd 98 bc 4b 22 34 bd 53 26 55 3d
       0.16982941 -0.018660266 -0.043978017 0.052038502
0000d0 1d 92 92 3c d6 0d dd 3d 8f 21 39 3d 0f e3 df 3c
       0.017891938 0.107936546 0.04519802 0.02732995
0000e0 2e e9 38 bd aa b0 6e 3d 00 2b 96 3d 63 a1 c6 bc
       -0.045144252 0.05827395 0.0733242 -0.024246877
0000f0 89 29 f1 3d 90 91 d8 bc 09 6f 13 3d d0 f8 36 3d
       0.117755 -0.026436597 0.035994563 0.04467088
000100 3d 79 1c be 1d 5e 30 3d 3d ef be 3d 91 3c 90 bd
       -0.15280624 0.043058503 0.09322975 -0.07042802
000110 58 63 c5 3d 94 97 e4 3c 2d 40 ea 3d ad 32 3f bd
       0.09638089 0.02790431 0.11438022 -0.046679188
000120 75 89 99 3d 4d 36 02 bd 66 5d 8e 3d dc bb 3d 3c
       0.07496921 -0.031790067 0.06951408 0.011580434
000130 2b b7 85 b9 34 cf 14 bd 4e 19 00 3d 07 38 07 3e
       -0.00025504208 -0.036330417 0.031274132 0.13204966
000140 23 5b bc 3c 5b 7f 02 3d 0c d9 6f bb 47 a9 60 3c
       0.022992676 0.031859737 -0.0036597876 0.013712234
000150 7c 34 4a 3e 38 34 c0 3d 57 3e e4 bd 2b 64 bd 3d
       0.19746584 0.0938496 -0.11144703 0.09247621
000160 44 8c 0d bd e4 aa 13 bb 29 bc bd 3d 62 78 43 3c
       -0.034557596 -0.0022532279 0.09264404 0.011930557
000170 3b 11 f0 3d 5e b2 7d bc 62 2a 1d bc ad 6e e6 bc
       0.117220365 -0.015484421 -0.009592624 -0.028128946
000180 1e 63 a2 3d e2 c7 58 bd d2 b7 d2 3c fb 18 e1 bc
       0.07929061 -0.052924998 0.025722418 -0.027477732
000190 96 12 aa 3c c9 7c cd 3d 2b f5 c8 3d dc 06 09 bc
       0.020760816 0.100335665 0.09812387 -0.008363452
0001a0 da bb 89 3d e2 99 c7 3b 1f f5 37 bd 68 d1 6d 3c
       0.06725283 0.0060913423 -0.0449115 0.014515258
0001b0 a5 f7 73 bd b1 27 b8 3d 23 d1 23 bc a6 e4 02 bd
       -0.059562344 0.089919455 -0.009998593 -0.031956337
0001c0 8f ab ab 3d 2f 50 39 3d ad d6 13 3d e9 95 c8 bc
       0.083823316 0.045242485 0.036093403 -0.024485545
0001d0 c0 5d 06 bd 59 df d5 3d cd ba 4f bd df 1f a3 3d
       -0.03280425 0.10442991 -0.050715256 0.07965063
0001e0 54 95 61 bc 64 15 c7 3d 8b 39 82 3c 98 f4 0e 3d
       -0.013768513 0.09720877 0.01589658 0.03490123
0001f0 67 27 41 3d 57 15 fa 3d 03 67 9a 3d 47 3c 06 bc
       0.047156718 0.122111015 0.07539179 -0.008193082
000200 e0 cb 19 3d 95 f4 3e bd 6c be 54 bd 5e 5a 13 3d
       0.037547946 -0.04661997 -0.051939413 0.035974853
000210 d1 78 b3 bc 41 82 df 3d b8 17 7d bd cf 96 d0 3c
       -0.021908196 0.10913516 -0.061790198 0.025462536
000220 e2 77 4c bd 68 fd b2 bd ad 15 65 bd 10 70 71 3d
       -0.049919017 -0.0873974 -0.055928875 0.05894476
000230 3c e0 58 bc bc 20 f3 3d 23 7e 29 3d 56 7d 9e 3c
       -0.013237055 0.11871478 0.04138006 0.019346874
000240 b3 df 81 bd 69 bb 10 bd e2 e6 68 3c f4 d7 d6 3b
       -0.06341495 -0.03533498 0.014215203 0.0065565053
000250 39 4b c5 3c 04 9c 38 3d 01 35 55 3d 97 aa d5 bc
       0.02408372 0.045070663 0.0520525 -0.02608232
000260 a4 27 22 bd d2 bb 53 bd ac f1 47 bd 55 fb e2 3b
       -0.039588585 -0.05169279 -0.04881446 0.006926934
000270 89 b1 26 3d 3c 29 99 bc 2c b0 7a 3d 91 ec 36 3d
       0.040696654 -0.01869642 0.061203167 0.0446592
000280 92 f1 0a 3d 29 79 ad bd 4c a4 9c bd 62 0e 8e bb
       0.033921786 -0.08470375 -0.07648525 -0.0043352107
000290 96 38 0a bd 6f 69 93 3c c5 fc 3a 3d 1a 6b 8b 3a
       -0.03374537 0.01799461 0.045651216 0.0010636777
0002a0 13 cd f4 bb 20 e4 c2 3d 7e 9d b4 3d d3 47 eb bc
       -0.007470736 0.09516168 0.08819102 -0.028720772
0002b0 b3 11 fe bb 1e 85 4b bd 87 99 3a 3c 3f 26 2e 3d
       -0.0077535748 -0.049687497 0.011389143 0.042516943
0002c0 79 d1 8f bd 74 04 28 3d 59 65 58 bd a6 8b 3f 3d
       -0.070223756 0.04101987 -0.052831028 0.04676404
0002d0 a0 4d f4 3b 20 d3 33 39 c4 33 b9 3b 59 19 56 3d
       0.0074555427 0.0001714942 0.005651923 0.052270267
0002e0 b5 eb 50 3d 30 8a 13 bd d3 de 7a 3c 01 7a f8 3b
       0.051006038 -0.036020458 0.0153119145 0.0075829034
0002f0 3e 0d 36 3d b8 90 ef bd 13 ab a1 3c be 38 34 3d
       0.044446222 -0.11697525 0.019734895 0.043999426
000300 bf 7a 3b bd 8a 33 c1 3d 55 88 38 3d 24 b1 d1 39
       -0.045771357 0.094336584 0.04505189 0.00039995566
000310 6e fc 8f 3d be 71 81 bd 3e 89 2a bc 73 6c c1 bc
       0.07030569 -0.06320523 -0.010408698 -0.023611283
000320 6c b4 cf bd 4b 95 87 3d ce 06 73 3d c1 f4 22 3d
       -0.101418346 0.06620272 0.05933266 0.039784197
000330 80 78 28 3d 79 2a 8a bc 75 b9 e7 3d b8 24 ee bb
       0.041130543 -0.016865956 0.1131467 -0.007267561
000340 21 07 cf 3d 43 26 80 3d 48 39 ab 3d 10 3f b8 3d
       0.101087816 0.06257298 0.08360535 0.08996403
000350 51 e2 4f 3a bc eb c2 3d 0f 3d e3 3c 5b 3e 80 3c
       0.0007930147 0.09517619 0.027739076 0.015654733
000360 ee d9 51 3d 69 59 00 be 23 28 75 bd f7 a5 c9 3c
       0.051233225 -0.12534107 -0.05985273 0.024615271
000370 0f c1 3b bd 3e b2 c0 3c 90 08 4e bc b2 65 4d bc
       -0.045838412 0.023522492 -0.012575284 -0.012536453
000380 cd 61 f2 bc 20 fe 80 bd a3 df 98 b9 8c b0 22 3d
       -0.02958765 -0.062984705 -0.00029158322 0.03971915
000390 41 3c 78 3c 02 af 71 bc b2 b4 c7 b8 5e 3b 83 3d
       0.015151084 -0.014751198 -9.5227166e-05 0.06407808
0003a0 5e df a7 3d c5 5e 70 3d b8 03 d3 bc f4 ea 23 3d
       0.08196901 0.05868413 -0.02575861 0.04001899
0003b0 38 9d 85 bb 10 90 bf bd a6 32 88 bd f1 8d a8 3c
       -0.00407758 -0.093536496 -0.066502854 0.020575495
0003c0 7f c5 af 3d 52 de 39 3d 0b c7 bb 3c 67 5e 99 3d
       0.08582591 0.045378037 0.02292206 0.07488709
0003d0 d6 ff 24 3e f6 95 f3 bc ba ee 5f 3d 9f 57 3d bd
       0.16113219 -0.029734593 0.054671027 -0.04622614
0003e0 9d 6b 08 bd c0 ce 86 bc 30 1a 8f 3d 5e b3 35 bd
       -0.033305753 -0.016456008 0.06987417 -0.04436051
0003f0 60 c9 e6 bd 4e 6a ac 3c 6a 34 99 3d 6f c8 5e bd
       -0.11268878 0.021046784 0.074807 -0.054390367

bias f4 [128]
000000 91 97 aa 3d d5 37 e1 bd ce b1 70 3c 71 44 a3 3d
       0.0832969 -0.10996977 0.014690829 0.079720385
000010 38 1b 17 3d 7b 86 80 3d 73 77 05 3e 54 6f 59 bd
       0.036891192 0.0627565 0.13033848 -0.053084686
000020 73 17 bd bd 5e de ed 3d a8 6f 69 bd d5 38 8f 3c
       -0.09232988 0.11614679 -0.05699125 0.017483154
000030 be d9 97 3c 8c 41 ce 3c 6d 13 ef 3c ca ef 6b bd
       0.018536445 0.02517774 0.029184068 -0.057601728
000040 93 d6 8d 3c f2 87 e3 3d 79 3e 20 bd 99 5b 6b bb
       0.017314231 0.11109914 -0.03912208 -0.003591275
000050 f6 f5 04 3d 75 e7 86 3c 5e bb 86 3c 4d ad 87 3d
       0.03246113 0.01646779 0.016446766 0.066248514
000060 7a 96 42 bd 05 b8 df 3d ed dc 0c 3d 6e 09 4f bc
       -0.047506787 0.10923771 0.03439038 -0.012636526
000070 c2 97 b4 3d f0 b3 eb bb 66 48 7d 3c a7 4b 49 3c
       0.08818008 -0.007193081 0.015459156 0.012286103
000080 51 7d 83 bc 0c 53 af bd e9 ba d8 3d ef 04 05 3e
       -0.016050966 -0.08560762 0.10582525 0.12990163
000090 ca e0 94 3c 82 4b 05 3e 4c 88 c3 3d 32 75 15 3d
       0.018173594 0.13017085 0.09547481 0.03648872
0000a0 66 0d 7b bd ab 71 61 3d fe d8 c3 3d 15 2c da bd
       -0.061292075 0.055040043 0.09562872 -0.10652939
0000b0 d3 e5 30 3c 42 6a b4 3d 40 06 18 3e 7c 76 86 3d
       0.010796982 0.088093296 0.14846134 0.06565568
0000c0 c6 ef b7 3d d9 6e 8f 3d 89 89 81 3d 16 17 ec bb
       0.0898128 0.070035644 0.06325061 -0.0072049005
0000d0 50 22 7b 3d b0 70 95 3d ec 1d 29 bd 96 a6 95 bd
       0.06131202 0.07296884 -0.0412883 -0.07307164
0000e0 0e 05 5f 3c 4c ed 1a 3d 10 d4 ef 3d b8 73 c8 3d
       0.013612045 0.03782396 0.117103696 0.097876966
0000f0 4c b5 2c bd f5 0c cf 3d f4 52 43 bb 08 fe dd 3d
       -0.042165086 0.10109893 -0.0029804083 0.10839468
000100 12 25 94 bd 1b 44 9b 3d 87 fb a6 3d eb 28 0b 3e
       -0.07233633 0.075813495 0.08153444 0.13589828
000110 fa 0c 26 bc 8c f6 50 bd e8 fc d9 3c c2 34 a6 3d
       -0.01013493 -0.051016375 0.026609853 0.081155315
000120 a5 c9 07 3d 15 7e 87 3d 44 a3 4a bd bd 3e 39 3d
       0.033151288 0.06615845 -0.04947211 0.045225848
000130 99 de 43 3d a5 94 f2 3d f0 de 7f bd 1d ee f9 3d
       0.047819708 0.11844758 -0.06246847 0.1220362
000140 f8 5e ad bc e3 12 04 3e 26 df f3 3d 87 c0 21 3d
       -0.021163449 0.1289783 0.119077966 0.03949025
000150 10 88 56 3c c3 77 06 3d 06 f0 2c 3d d7 27 18 3d
       0.013093963 0.032829057 0.04222109 0.03714737
000160 9d 44 dd 3d 83 54 da 3d f9 9f 0c 3e 34 b8 5a 3d
       0.108041026 0.106606506 0.137329 0.053398326
000170 1f 8a 3c bd a6 43 c3 3d fe 56 fc 3d 39 52 16 bc
       -0.04603016 0.09534387 0.1232128 -0.009174877
000180 e1 a9 d5 3d bf 00 97 bd b5 93 7b 3d dd bf 8c bd
       0.104327925 -0.07373189 0.06142016 -0.068725325
000190 da 8d 99 3d a8 55 72 3d 59 86 66 bc 3f 0d b9 3d
       0.07497759 0.05916372 -0.014070117 0.090357296
0001a0 72 fc dd 3c 44 1f f7 3d e3 0c a2 3b d0 ab 87 3d
       0.027097914 0.1206651 0.004945384 0.066245675
0001b0 d2 13 55 3d 96 71 da 3d d8 ae 6e 3d fb dd f9 3d
       0.052020855 0.10666196 0.058272213 0.122005425
0001c0 e0 d9 ea 3c 74 82 ce 3d 1f 77 9a 3d 5a 24 c6 bd
       0.028668344 0.10083476 0.07542252 -0.09674902
0001d0 8e 0b be bc e5 0a e5 3b 64 67 4d bd 59 32 a1 bc
       -0.02319887 0.006989824 -0.05014743 -0.019677328
0001e0 69 6e ab 3d 30 12 dc 3d 76 0b b6 3d ab a8 e5 3c
       0.083706684 0.107456565 0.08888905 0.028034529
0001f0 eb 15 48 3d 1a 3b 35 3d c0 6f a3 3d 8c 3f 12 3e
       0.048849028 0.044245817 0.07980299 0.14282054

weight f4 [1, 128]
000000 76 00 b3 bd 53 fc f7 3c f8 0b 4e 3d 24 56 71 3d
       -0.08740322 0.030271685 0.050304383 0.05892004
000010 bd 98 81 bd 2e 14 f0 3d 6d 1e 0b be da 9d 48 3d
       -0.06327961 0.11722599 -0.13585825 0.048978664
000020 8c 0e d4 3c ac c3 2f 3e 2c 07 a2 3c 6a 71 a4 bd
       0.025885843 0.17164487 0.01977881 -0.080294445
000030 6f 45 65 3d d5 5d f0 bd ce 8b a8 bd 79 1f 65 3d
       0.05597442 -0.11736647 -0.08229791 0.055938218
000040 a2 1d b8 bd eb cb 28 bd 5a 80 8f 3d ec 5e b9 bd
       -0.08990027 -0.041210096 0.07006903 -0.09051308
000050 20 56 9d bd ed 98 e1 bc 24 3a 65 bd 8d b3 ce 3c
       -0.07682443 -0.027538741 -0.05596365 0.0252321
000060 10 fe 24 be 0b dc 16 be 8f ef 19 3e 35 6a 15 bd
       -0.16112542 -0.14732377 0.1503279 -0.03647824
000070 2d 90 d9 bd fc 66 8d bd 5c cc cd bd ed 8a a5 bd
       -0.106232025 -0.06904408 -0.10048744 -0.080831386
000080 9e 84 be 3d 62 7b 2f 3d f3 be ac bd ea 58 b1 bd
       0.093026385 0.042842276 -0.08434858 -0.08659537
000090 ad e4 84 bd f8 39 6b bd 50 03 ec 3d b6 af 58 3d
       -0.06488929 -0.05742833 0.11524069 0.052901946
0000a0 93 6a 15 3e cf 24 db 3d 7b 3d 0e 3e d6 55 15 3d
       0.14591436 0.1070038 0.1389064 0.036458813
0000b0 c9 2e c8 bc 77 09 fc 3d b1 39 84 bd 65 55 02 bd
       -0.024436371 0.12306493 -0.06456316 -0.03181972
0000c0 47 a6 17 3e 73 d7 cc bd 28 fd 85 bd df 9b 3e bd
       0.14809524 -0.10002031 -0.06542426 -0.04653537
0000d0 88 71 a1 3d 76 b4 1c bd ac 84 3c 3d bf 5c 5f 3d
       0.078829825 -0.03825804 0.046024963 0.05453181
0000e0 5a bc d7 bd 3d eb 93 bd 01 1c d0 bd aa 5e b2 bd
       -0.10533972 -0.072226025 -0.10161591 -0.08709462
0000f0 99 3a 6d 3b 9b b3 06 3e 37 a3 f0 bd 84 bd 9a bd
       0.0036198257 0.13154452 -0.11749881 -0.075556785
000100 12 8a 93 3d db b2 a8 bd 7c fe 16 3e 62 80 83 bd
       0.07204069 -0.08237239 0.14745516 -0.064209715
000110 8d 92 02 3e 5a c2 80 3c 99 7a 6a bd 8a 1e 27 3e
       0.12751217 0.015717674 -0.057245824 0.16320243
000120 b2 61 5f 3d 49 4b 13 be d7 4f 8c 3d d8 eb d0 3d
       0.05453653 -0.14384188 0.06851166 0.102012336
000130 aa 8a 6a bd 89 70 4a bd d6 71 0e 3d cb 3f 1b bd
       -0.057261147 -0.04942373 0.03477653 -0.037902635
000140 75 3a 0e be d2 63 a2 bd 83 e4 aa bd 88 72 46 bd
       -0.13889487 -0.079291955 -0.083443664 -0.04844907
000150 0b f0 8c bd 85 c3 9b bd a3 bd c4 bd de 47 3e 3d
       -0.06881722 -0.07605652 -0.09606483 0.046455257
000160 55 00 a6 3d 91 12 df bd 7e 76 d9 bd bb 8f 69 bd
       0.08105532 -0.10892213 -0.10618304 -0.057021838
000170 89 27 e9 3a 42 6b 3b bd 13 76 2f bd ed 2d 73 bd
       0.0017788272 -0.045756586 -0.042837214 -0.05936997
000180 76 49 25 bd 24 94 75 bb 97 1a 5f bd 8d c5 27 3c
       -0.04035326 -0.0037472332 -0.054468717 0.010239971
000190 1a 89 e6 bd ce b7 8c 3d b8 23 40 3c 58 b5 a1 3d
       -0.11256619 0.068709955 0.011727266 0.07895917
0001a0 4a 4e 96 bd c1 95 08 3e 0e 0c 40 3d 47 4c b2 bd
       -0.07339151 0.13338377 0.046886496 -0.08705955
0001b0 a1 03 92 3d 53 30 0c 3e 7a ab ba 3d 9f be d6 3d
       0.071295984 0.13690309 0.09114738 0.10485577
0001c0 ad 95 89 bd 3d 7a 81 bd e5 59 3b 3e fd e4 48 3d
       -0.067180015 -0.06322143 0.18296011 0.049046505
0001d0 1f c1 51 bd 28 9d cc bd a1 9e 49 3c 04 ee fc 3d
       -0.051209565 -0.09990913 0.0123058865 0.123500854
0001e0 e7 47 9f 3d d6 67 cd bd 19 2d 83 3d 34 1b a6 3d
       0.07777386 -0.10029571 0.06405086 0.08110657
0001f0 54 21 bb bd 08 4c a3 bd 0b 82 c0 3d 3f 0b d9 bd
       -0.09137216 -0.07973486 0.09399804 -0.10597848
