AutogluonModels/ag-20220702_011935/models/NeuralNetTorch_BAG_L1/S1F6/net.params (torch, 211783 bytes, 9 tensors)

weight f4 [128, 14]
00000000: 7737 fe3c 7f3f a83d 1ae5 6cbe 39b7 37be
00000010: 5a1f b2bd b27b 2a3d c1c5 81ba b53e 813e
00000020: 7968 39bd 1dbd e63d c7c6 56bd d18e 9ebd
00000030: a07a aebe 374e 4abe 511a 00be d548 553c
00000040: 36ea f73d 1bd8 663e 6aa5 c7bd d0f3 0dbe
00000050: c0f0 1c3e 15d7 1e3e c21b 623a d282 5f3e
00000060: 4d29 04bd 1e41 11bc 34a1 873e c593 9dbe
00000070: feaf 3ebe f199 94bd 6d94 00be 4fa9 8c3e
00000080: 75fe 30be 8ae8 24be cc16 65be c3b8 8dbe
00000090: 342e 1abe 721a 793e cbed e73d 05f9 d83d
000000a0: b773 8dbd 37cb dfbd cd97 f03c 6e96 99be
000000b0: ff2b 50be 2867 44be 6d0f 2f3e 7d04 123e
000000c0: 1658 15be 8313 a6ba 05b9 3b3e 312d 8a3e
000000d0: ab9a 3a3d 1ff0 223c ce36 463d dac1 3cbe
000000e0: 2306 40bc 03fc a6be 512c 7bbe ba70 a2bd
000000f0: a3fb ca3d f1c8 903d 6fcc 43be ccc5 f73d
00000100: 5911 943d 95bd 9cbb 2774 c6bc cc1b f63c
00000110: de3d 2c3e 317c 783e fd8e 83be aa2d e0bd
00000120: 2845 b83d d390 a43e 20bd 683e 64a5 2d3e
00000130: c225 0ebd 1af6 2dbe 1e90 88bc dd0b 16be
00000140: 3117 83be a52a 493e 13a1 973e af2d acbe
00000150: 87d6 403d 520b 31be 75b8 96bd 3fb9 62bd
00000160: e03f 8bbc 7d6e 79be 5ec2 a13d 970d 053e
00000170: 2088 903e 2db0 cb3d c203 46be 1286 52be
00000180: bd21 573e e761 e0ba 0030 59be a4a7 89be
00000190: a9ed 153e 6ba6 223e 372c a4bd 026a 19bd
000001a0: e6f7 a6be 6957 87bc b0f1 12be 53b2 3ebe
000001b0: 5574 ecbd bc76 943d f0a9 2bbe c041 1c3e
000001c0: 47cf 2ebe d769 913e 71ea 433e ed77 63be
000001d0: 2f4c 0fbd d54d c03c 9cba 433d b8da 473d
000001e0: 7da9 3f3d 180a 543c cc06 33be 8e23 d73d
000001f0: e4d0 6dbe a9d0 65be b0c0 82bd 4a05 97be
00000200: 2cd2 36be 64dc 33be 7638 80bd 512a 083c
00000210: d7c3 33be 9e05 94bc 7570 0f3e 8328 a83b
00000220: 26e6 5a3c 91ab bcbd 2031 ae3d 0121 373e
00000230: 89cc 863e 6a95 1a3e 9bcb 6c3e 42c7 53bd
00000240: 8b2a 58be 1dbf 07be 5422 a13e b5b7 143d
00000250: 85bf 2abe d97e dcbd 46af 98be 9d48 b1be
00000260: 7dab 82be a8a9 d73d 0bfe e83d e917 afbe
00000270: 297a b63d fa51 20be 1387 4ebd 522f 32be
00000280: 18b2 93ba 84e5 81bd 740c 99be 0abf 2cbe
00000290: 1c81 50bd 1330 f4bd 4b2a 1ebe 67e8 b93d
000002a0: 2e2c debe b1b1 fc3d 5829 b43e b0d7 d0bd
000002b0: be60 813e f26f 863d 484a d4be e0aa d53d
000002c0: 1e7c fabd 9449 47bd 89fa f93d ce3c 6ebe
000002d0: 4cd3 dd3d b745 79bd 47ec 2e3e 04ab 25bd
000002e0: 9aa7 883d 2f41 393e 358d f0bd 209c fbbd
000002f0: c140 80be c3f0 073e 9150 423e a254 303e
00000300: c916 17be 858e a0bc c771 d9be 0525 c0bd
00000310: 7a64 3ebe 8cef 3fbc e6d3 3fbe 1c6b efbb
00000320: 0e97 b0bd 6db3 033e 0df5 80be 50e5 69be
00000330: eeb8 ccbd 74de 273e 5350 c6bd 4af7 563e
00000340: 93e5 033d 5dd8 423d 3be8 c03c 8f4c a6bd
00000350: 88c2 a0bb d0bc 00be 2793 e63b cf66 403d
00000360: a127 59be ce23 55be b6a1 223e 5d6f ffbd
00000370: 3cc9 babd c8b1 613e 0f2a e63d 9559 a6bd
00000380: 9123 68be bb31 313e 2904 67be 0518 10be
00000390: 1ad0 1cbd f703 80bd 3760 133d 0efc 6d3e
000003a0: 2846 c13d 8cab 823e c4bf 2f3e 0261 59be
000003b0: 56f1 8d3d d16d 54be a41b 05be e3d8 5c3d
000003c0: 2fc6 5b3d 048d a13e 5ced 82bd 3da8 87bd
000003d0: 9e76 643d 9dd3 64be 2c26 323e de0b 21be
000003e0: fb44 5fbd c9d7 e3bd 0974 31be 38a1 aabd
000003f0: 7757 853e ef97 46be 514a 6fbe bae5 0ebe
0.031032307 0.08215236 -0.2313427 -0.17940988 -0.08697386 0.04162187 -0.0009900854 0.25243154
-0.04526565 0.11266539 -0.052435663 -0.07742084 -0.3407793 -0.19756399 -0.12510039 0.013017853
0.12105219 0.22543375 -0.09748347 -0.13862538 0.15326214 0.15511735 0.0008625352 0.21827248
-0.03226595 -0.008865623 0.26490176 -0.30776802 -0.18621823 -0.072559245 -0.1255662 0.27472922
-0.17284568 -0.16104332 -0.22371978 -0.27680025 -0.15056688 0.24326494 0.11324652 0.10594372
-0.069068365 -0.10927432 0.02936926 -0.2999758 -0.20329283 -0.19179976 0.17095728 0.14259525
-0.14584383 -0.001267061 0.18332298 0.26987603 0.04555766 0.009944945 0.04839211 -0.18433324
-0.011720213 -0.32614145 -0.24528624 -0.07931657 0.09911277 0.070695765 -0.19120954 0.12098274
0.07229871 -0.004783342 -0.024225308 0.030042551 0.16820475 0.24266125 -0.2569503 -0.1094621
0.089975655 0.32141742 0.22728395 0.16957623 -0.034703977 -0.16988412 -0.016670283 -0.14652963
-0.2560363 0.19645174 0.29615077 -0.33628604 0.04707959 -0.17289475 -0.07359401 -0.055352446
-0.016998231 -0.24358554 0.07898401 0.12993465 0.28228855 0.09945712 -0.19337371 -0.20558956
0.21008964 -0.0017119021 -0.21209717 -0.26885712 0.14641441 0.15883796 -0.08016246 -0.037454613
-0.32611006 -0.016521173 -0.14350009 -0.18622713 -0.11545626 0.07249209 -0.16764045 0.15259457
-0.17071258 0.28401062 0.19132401 -0.22213717 -0.034984764 0.023474613 0.047785386 0.04879257
0.046792496 0.01294186 -0.17483062 0.105048284 -0.23224217 -0.22442879 -0.063844085 -0.29496223
-0.17853612 -0.17564541 -0.06260769 0.00831087 -0.17555176 -0.018069085 0.14007743 0.0051317825
0.013360536 -0.09212411 0.085054636 0.17883684 0.26327923 0.1509606 0.23124544 -0.0517037
-0.21109979 -0.13256498 0.31471503 0.03630801 -0.16674621 -0.10766382 -0.29821223 -0.34625712
-0.2552146 0.10530406 0.1137658 -0.3419793 0.08910019 -0.15656272 -0.050421786 -0.17400864
-0.0011268286 -0.06342605 -0.29892313 -0.1686975 -0.05090438 -0.11923232 -0.15445821 0.0907753
-0.4339308 0.123385794 0.35187793 -0.10197389 0.2526912 0.065643206 -0.41462922 0.104329824
-0.12230705 -0.048654154 0.12205989 -0.23265383 0.10831317 -0.0608575 0.1708232 -0.040446296
0.066725925 0.18091272 -0.11745683 -0.12285638 -0.25049403 0.13275437 0.18976046 0.17219785
-0.14754786 -0.019599209 -0.42469618 -0.09382061 -0.18593016 -0.011714827 -0.18733177 -0.0073064696
-0.086225614 0.12861414 -0.2518696 -0.22841382 -0.0999621 0.16393453 -0.096832894 0.20992771
0.03220136 0.04756962 0.023548236 -0.08120071 -0.0049060024 -0.12572026 0.007036585 0.046973046
-0.21206523 -0.2081444 0.15882 -0.12472413 -0.09120414 0.22040474 0.11238491 -0.08122555
-0.22669818 0.17304127 -0.2256018 -0.14071663 -0.0382844 -0.06250756 0.03598043 0.23240682
0.09437209 0.25521505 0.17162997 -0.21228412 0.06930797 -0.20745017 -0.12998825 0.053917777
0.0536558 0.315529 -0.06392929 -0.06623886 0.055777185 -0.22346349 0.17397374 -0.15727183
-0.054509144 -0.11125142 -0.1732942 -0.08331531 0.26043293 -0.19393896 -0.23368193 -0.13954821

bias f4 [128]
00000000: 4b27 513e 9401 e93d 1766 a73d 8fd1 fbbd
00000010: 099e cf3d 4c71 b63d b5d2 fa3d 0898 9bbc
00000020: 1829 12bb 632d 43bd 66ea a2be 242f 15bd
00000030: 4169 84be 5604 ff3d 1986 30be 950d 25be
00000040: 9bc1 1abe db76 033e 4427 4cbe d646 ed3d
00000050: ba21 1d3e c25b 2e3e 9e61 963d bc1e b33d
00000060: 0828 1f3e 721f 7f3d b9c7 d03a 1add 5dbe
00000070: cf9f d3bc 7a8f a8bc 34dc 383d 03be babd
00000080: 21b7 7ebe 785a 9dbd 8ce3 d23d 7b71 603e
00000090: 359c 86be 8317 b93d 299b 44be 1483 5fbe
000000a0: fcd2 2abe 0d85 bdbd 2044 03bb cff0 94be
000000b0: b85a 003e 07a1 6c3e 32e4 76bb 703a 4f3e
000000c0: f134 f0bd 1b0c 22be b7c1 8e39 b8f9 83bd
000000d0: 7e24 5abe b037 51be 1455 ad3d dce1 8d3c
000000e0: d1c4 913e fe8f 26be deef c03d 95a2 bdbd
000000f0: f47b e73d 0698 20bd 510a 573e 8784 043e
00000100: adde 403e 8591 213e aaf5 b73b c38e 223e
00000110: 97f0 f1bd b1dd 7b3e 5650 9e3e f391 3b3e
00000120: f061 09be 99b4 22be c334 9f3d 4410 6d3d
00000130: 61da 9d3d fbb7 463c 3e91 4f3e 48dc f5bd
00000140: c61f 07be e2ba 303d 358b 4c3d 1a23 3bbe
00000150: 1d5d 94bc af35 74be 27cb e7bd 8121 84bd
00000160: 61dc 523e b12b 61be 4f29 26be c271 6ebe
00000170: 77bf 813d f5f1 68be 7adc 483d e2b1 e5bd
00000180: a796 36be 9729 29be 633f 4ebb 1020 443e
00000190: e3a7 613e 8489 c8bd bbfe 9abe e92b d6bd
000001a0: 1cf2 24be f608 dfbc be58 f93b c63d ba3d
000001b0: 481b d43d 33d4 deba 6923 33be 0bc0 9cbd
000001c0: 4cd1 89bc ba71 38be cb8d aebd 3b2b 01bd
000001d0: 3b0e 87be 5c64 e13d 8970 36bd 5d48 7dbe
000001e0: ad7c 413e 6ac7 0fbe c430 923d bf68 833e
000001f0: 4682 d9bc 4d28 373d 25e8 d13d f193 9b3d
0.20425145 0.11377254 0.08173769 -0.122958295 0.10137565 0.089083284 0.122472204 -0.018993393
-0.0022302326 -0.047650706 -0.31819457 -0.03642191 -0.25861552 0.12451999 -0.17238654 -0.16118462
-0.15112917 0.12838309 -0.19936854 0.115857765 0.15344897 0.1702719 0.07342838 0.087460965
0.15542614 0.062285848 0.0015928663 -0.21666375 -0.025833039 -0.020576227 0.045131877 -0.09118273
-0.24874546 -0.07683271 0.10297307 0.2191829 -0.26291052 0.09037688 -0.19199814 -0.21827346
-0.16682047 -0.09253893 -0.002002962 -0.29089972 0.12534606 0.23108302 -0.0037672636 0.20237136
-0.11728848 -0.1582493 0.0002722868 -0.064441144 -0.21302983 -0.204314 0.08463493 0.017319612
0.28470472 -0.16265866 0.09420751 -0.09259526 0.11302939 -0.03920748 0.21000029 0.1294118
0.18834944 0.15778168 0.0056140022 0.15874772 -0.11813467 0.24596287 0.30920666 0.18317394
-0.13416266 -0.15889205 0.077737354 0.05787684 0.07707668 0.012128825 0.20270249 -0.12004906
-0.13195714 0.043146975 0.049937446 -0.18275109 -0.018110806 -0.23848604 -0.11318045 -0.06451703
0.2059188 -0.21989323 -0.16226695 -0.23285583 0.06335347 -0.2274855 0.049038388 -0.11215569
-0.17830907 -0.16519772 -0.0031470887 0.19152856 0.220367 -0.09791854 -0.3027247 -0.10457594
-0.16107982 -0.027225953 0.007609456 0.090938136 0.10356766 -0.0017000496 -0.17493977 -0.07653817
-0.016823433 -0.18012133 -0.085231386 -0.03153537 -0.26378044 0.1100547 -0.044540916 -0.24734636
0.18895216 -0.14040914 0.071382076 0.25665852 -0.026551377 0.04471617 0.10249356 0.07596577

weight f4 [128, 128]
00000000: baf0 1f3d ed4b fa3a eedb e83b 04b4 d93d
00000010: 594f 45bc 7587 1c3d a847 903c 4ed1 07bd
00000020: 7795 0ebd 7a5f b53c e633 f8bd 8be6 24be
00000030: 3698 5bbb 2078 6a3d ca4c 6d3d 6882 f3bc
00000040: 6fa3 0f3d 23a4 fd3c 3e34 5ebd 9537 b8bd
00000050: 62f0 cebd 334c 62bd cf02 10bd 9ce2 0ebd
00000060: 1acc 04bc 70ae 573c a718 40bd 0dd3 a63d
00000070: 8b2c b13d 440d a1bc 6f98 5cbb 7e5d 583b
00000080: 2fa4 af3d 36d0 1a3c 9464 57bc 5555 26bd
00000090: 46ed d03d d940 57bd 2c61 53bd 591e 1f3e
000000a0: 723e a93d 3582 33bd 1616 39bd fac4 04bc
000000b0: 446e 86bd 089c 52bd a138 5dbd e9a3 40bd
000000c0: 8337 4abd e12c 3dbd 6788 84bd 0306 b8bc
000000d0: df53 5c3d 6972 43bd 819e 2cbd 9a2e 0cbd
000000e0: b749 e43d a17b d93d 28be c8bc b2e0 91bc
000000f0: 82fb 35bd 388e 90bd b641 223d ec3e 903c
00000100: edcd 2d3d f433 33bd d94e ea3c 46dd f6bd
00000110: aa51 803d b95b c73d b787 bbbd 72fd 0abe
00000120: 5fe8 be3d 0040 033c 5378 6bbd 05a9 4f3d
00000130: 1424 aebb 82aa 0d3a 8309 3bbd 4e9d e03d
00000140: 60c1 513c 7c9f 6c3d c2b9 4d3c b50f 3abd
00000150: e1a9 423d a9ad 3f3d 63cb 093c beb6 a23c
00000160: 0ff8 81bd 3266 a53d 3833 27bd ccab 3c3d
00000170: 7c32 64bd f341 e2bc d30a 023e fa8a bc3c
00000180: 1f7d 07bb 6456 443d b356 99bd 690c 92bd
00000190: 54af 62bd a767 cbbd 56c9 65bb 3ef2 b9bc
000001a0: 30e8 e43c a46b f43b f70a ed3c 3a15 a8bd
000001b0: 3de0 2f3a d542 a83b a754 7e3b 7c99 bf3d
000001c0: 4af1 26bd 47d1 95bb 8e82 eebd 6a85 803d
000001d0: 5a95 a1bc 05b3 b1bc 92e7 823d 89e1 26bd
000001e0: fafa 66bd b043 493c 7ed1 e83d 9142 b53d
000001f0: 0654 7a3c d459 2dbd b857 483d 2ded aabd
00000200: 7924 40bc 72e4 eebc a6d0 acbd 6367 6c3d
00000210: 1169 cfbb 6bec 2abc e70e 90bc 62b9 e1bb
00000220: 1df8 c83d c727 9f3d 5704 9bbd 0c9a 2e3d
00000230: b4dc 0f3d 83ef 183d 1bd1 7ebd baa3 ed3c
00000240: 101f 563d e68d 883d 0355 a5bd 0a3b e2bc
00000250: 4f6e 02be 2af9 ecbd 51e1 9bbd 87ba 053d
00000260: 00ad d7bd c869 493d cbab 4e3d 0c5d 0ebd
00000270: 5b15 ccbc 857a e6bd 7e23 99bd 739f b2bd
00000280: 2ef7 88bd 5f75 ebbc 69fb 84bd db7c 9f3d
00000290: 7bd0 82bd 726a 45bc 715b 3bbe eef7 263d
000002a0: ee9b 0cbe 1ddd 5a3c d12d e1bc 4c09 92bd
000002b0: 9ea1 9d3d a397 38bc 3dc7 42bd 57aa 1abd
000002c0: 530c bfba 4f9d 8abc 6a2c 013b 1ea1 b13d
000002d0: ad33 21be 96bf 6fbd 8414 48bc ff6f 8bbc
000002e0: c7dc 0b3e b276 ad3d 3058 ecbb 6355 8ebd
000002f0: e1df 743d 4e73 1a3d e189 ca3c 38dd 04bd
00000300: 2556 5e3c fb94 9e3d 762b 7a3d f1e3 b7bb
00000310: 801e 75be f304 a0bd e9b8 9a3c e9ca 323c
00000320: 4bce b2bc a7f0 863d 94aa ddbd 2903 43bd
00000330: 9b4f acbc 870a 6b3d 3123 593d 4591 273d
00000340: ff22 b13d fc20 cfbd d2e0 2ebc 155d ad3d
00000350: e272 69bd 8e03 88bc 3c87 05bd b266 3cbd
00000360: 28af 163e 8332 c8bd 9b02 f03d 7c98 c03c
00000370: 980c 40bd f57d 6d3d 5f5c 21be 0a84 d4bd
00000380: b044 3abd 836c 5cbd dc3f ae3c b9c3 0bbd
00000390: b314 c4bd bc1f 053c 5f77 a23d 097c 413d
000003a0: 082f 5c3d 7ef7 b239 dcad 673c e1da 9abd
000003b0: 86ce 9e3c 41ea a9bd 0099 e9bc fec2 bebc
000003c0: bbfc 993d 1911 8b3d 1933 08bd 0881 9fbd
000003d0: 8dda fabd 1572 7abc d24c f0bc 9be2 713c
000003e0: 2486 d3bd 61ac aabc 57eb fabc 6d30 1cbd
000003f0: c23d 9e3d 08fb ae3c 9480 c23c d39a 953c
0.039047934 0.0019096114 0.007106296 0.106300384 -0.012042844 0.03821512 0.017612293 -0.033158593
-0.03481051 0.022140253 -0.12119274 -0.1610357 -0.0033507473 0.057243466 0.05793456 -0.029725268
0.03506797 0.030962056 -0.05424904 -0.089949764 -0.10104443 -0.05524845 -0.03515893 -0.03488408
-0.008105302 0.013164148 -0.04689851 0.081457235 0.08651074 -0.019659646 -0.0033660193 0.003301471
0.085762374 0.009449055 -0.013146538 -0.040608723 0.10201506 -0.052552078 -0.051606342 0.1553892
0.082638636 -0.043825347 -0.04518708 -0.0081036035 -0.06564 -0.051418334 -0.054009084 -0.047031317
-0.049369346 -0.046185378 -0.06471329 -0.022463804 0.053790923 -0.047716532 -0.04214335 -0.03422413
0.111468725 0.106192835 -0.024504736 -0.017807338 -0.04442931 -0.07058376 0.039613448 0.017608128
0.042432714 -0.04375072 0.02860205 -0.12053923 0.06265576 0.097342916 -0.09156745 -0.13573244
0.09321665 0.008010864 -0.057487797 0.0506983 -0.0053143594 0.0005404131 -0.045663368 0.109675035
0.012802452 0.057769284 0.012556495 -0.045425136 0.04752529 0.046796475 0.008410308 0.019862529
-0.063461415 0.08076133 -0.04082033 0.046062276 -0.05571221 -0.027619338 0.12699442 0.023015488
-0.0020673943 0.04793395 -0.0748724 -0.07131273 -0.055342987 -0.099318795 -0.0035062633 -0.022698518
0.027942747 0.007459121 0.028935893 -0.08207174 0.00067091343 0.00513492 0.003880778 0.09355447
-0.040757455 -0.004572067 -0.11645995 0.06275447 -0.019724537 -0.021691808 0.06391825 -0.04074243
-0.056391694 0.012284204 0.113680825 0.08850587 0.015278822 -0.042321995 0.04891178 -0.08346019
-0.011727446 -0.029161666 -0.08438234 0.057715785 -0.0063296636 -0.010432343 -0.017585231 -0.0068885544
0.09812949 0.07771259 -0.07569187 0.04262738 0.03512259 0.03733779 -0.062211137 0.029008735
0.052275717 0.0666769 -0.08072855 -0.027616043 -0.12737392 -0.11570962 -0.07611335 0.03264859
-0.10531044 0.049173146 0.050456803 -0.034756705 -0.024912527 -0.112538375 -0.07477473 -0.08721819
-0.06687771 -0.02874249 -0.06493265 0.07787486 -0.06387421 -0.012049304 -0.18296601 0.040763788
-0.13731357 0.013358382 -0.027487667 -0.071306795 0.07696842 -0.011266622 -0.04755329 -0.037760105
-0.0014575816 -0.016920714 0.001971031 0.08673309 -0.15742369 -0.05853232 -0.012211923 -0.017021177
0.13658439 0.08469905 -0.007212661 -0.0694988 0.05978382 0.03770762 0.024723949 -0.032437533
0.013570343 0.077432595 0.061076604 -0.0056118895 -0.23937416 -0.07813444 0.018887 0.010912635
-0.021826884 0.065888695 -0.10823551 -0.047610436 -0.021034053 0.057383087 0.053012077 0.040910024
0.08649253 -0.10113713 -0.0106737185 0.084650196 -0.056994326 -0.016603258 -0.032599673 -0.045996375
0.14715254 -0.09775259 0.11719247 0.02351021 -0.04688701 0.05798145 -0.15757893 -0.10376747
-0.04547566 -0.053814422 0.021270685 -0.034122203 -0.095742606 0.008125242 0.079329245 0.04723743
0.05375579 0.00034135202 0.014140572 -0.07561279 0.019385587 -0.082966335 -0.028515339 -0.023286339
0.07518908 0.067903705 -0.033251856 -0.07788283 -0.122487165 -0.015285988 -0.029333506 0.0147635
-0.1032832 -0.02083415 -0.030629797 -0.03813212 0.07726623 0.021359935 0.023742951 0.018262303

bias f4 [128]
00000000: 8bc1 9d3d c5cb cb3b cf1c dd3d 3c3a ba3d
00000010: 3ea8 7f3d 5911 59bd 9506 28bd 9eda b43c
00000020: 6a52 3a3d 1e86 173b 2650 983d 2254 c5bb
00000030: 6830 883d f45a 6dbd 1c36 aabc 022f bd3d
00000040: a40e 3dbd f4e8 03bc 4523 01bd 13ed d9bd
00000050: ed95 93bd ce7c 82bb 824a d73b 2684 663c
00000060: 47f7 803c 1cf2 913d 2e6d 833d c2c9 953d
00000070: 5b76 91bb 2800 ea3c 283b adbd 4201 813d
00000080: 3d1b 4f3d aac9 b43c 87b7 23bd 7f51 b13d
00000090: f484 b1bd 739c 313d edc5 503d 65a6 243d
000000a0: b75d 6d3d a27f 3ebd bea8 9a3d 428c c93d
000000b0: 0b10 7fbc 6dcf b13d bfc3 17bd bac8 99bd
000000c0: 4db5 a83d 23c7 553d 1113 4c3d d46c 3c3d
000000d0: dca7 e9bc 01a4 1f3d 0929 423d 6f16 3abd
000000e0: 2754 963d 49eb f53c f40b 653d 62bd e1bd
000000f0: 64a5 cbbc 32c9 c1bb 06fd 55bd 2e23 c93d
00000100: eeb3 c53c af2a 7abd 41ec 20bd 89af fcbb
00000110: 5f8a a23d bbef 70bd 87e1 613d 658e 203d
00000120: 7de7 91bd a225 adbd d65d 0f3c 5220 a53d
00000130: 3261 063c 5d33 a9bd f1a7 413c 6119 4ebc
00000140: 87b8 89bd 7e8b 7a3c 9bdc a23d e4a9 b6bd
00000150: 00ef e63c 7040 4dbc 5118 52bd 82e9 713d
00000160: e32f c3bc ea6d d63d 2263 a2bd 3434 bb3c
00000170: f2dc f1bb 3dea 1a3d cdfc e1bd bcc1 393d
00000180: c543 aabd 292c 803d 9c64 a9bd b432 c13c
00000190: b508 90bd 7851 98bd ddf3 cf3c 99a8 393d
000001a0: 7320 873d 8cb3 8fbd 6cf0 b2bc 5974 b83d
000001b0: 44ce 123d acba 2d3d 833f 1d3d 3f6d 43bd
000001c0: a567 baba b813 f93b cec2 acbd ee82 a8bc
000001d0: 5774 8a3d e829 3dbd c710 b5bc faf9 3fbd
000001e0: a91f 9abb 7351 4ebc 8663 adbd 858b 593d
000001f0: a4ae e3bd eb9f ffbc 03bb 9bbd 7866 e9bc
0.07702931 0.0062193596 0.107965104 0.090931386 0.062416308 -0.05299506 -0.041021902 0.022076901
0.045488752 0.0023120712 0.07437162 -0.0060219923 0.06649858 -0.057948068 -0.020777754 0.09237482
-0.04615654 -0.008051146 -0.031527776 -0.106409214 -0.072063304 -0.003982163 0.0065701613 0.014069593
0.015742911 0.07126257 0.06417309 0.07313873 -0.004439158 0.028564528 -0.08458549 0.06299068
0.050563086 0.022068817 -0.039969947 0.08658122 -0.08667937 0.043362092 0.050970007 0.04019775
0.0579507 -0.04650844 0.07551716 0.09841205 -0.01556779 0.086821415 -0.037051912 -0.07508989
0.082377054 0.052191865 0.04982287 0.046002224 -0.028522424 0.038974766 0.047402415 -0.04543155
0.073402695 0.03001942 0.055919603 -0.1102245 -0.024859138 -0.005913877 -0.052243255 0.09821163
0.024133649 -0.061075862 -0.03928781 -0.007711355 0.079365484 -0.058822375 0.05514672 0.039198298
-0.07124231 -0.084544435 0.0087504 0.08062805 0.008201884 -0.0826175 0.0118198255 -0.012579293
-0.06724649 0.015292047 0.079522334 -0.08919123 0.028190136 -0.01252757 -0.05129272 0.05906058
-0.023826545 0.10470183 -0.07929064 0.02285204 -0.007381075 0.037821043 -0.11034546 0.045350775
-0.08313707 0.06258423 -0.08271143 0.023583747 -0.07032911 -0.07437414 0.025384838 0.045326803
0.06597986 -0.07016668 -0.021843158 0.090065666 0.03584124 0.042414352 0.038390648 -0.047711607
-0.0014221562 0.0076012276 -0.084355935 -0.020570245 0.06760471 -0.046182543 -0.022102727 -0.046869256
-0.004703481 -0.012592661 -0.08466248 0.05311157 -0.111172944 -0.031204185 -0.07604029 -0.028491244

weight f4 [128, 128]
00000000: 1c8b 903d d3f7 87bd b186 24bd 094f 55bd
00000010: bfbb 273c e7e5 a63d 0c4a 053e 6411 3a3d
00000020: 2315 81bd bd5b debc a3a7 853d 9d86 b03b
00000030: cf72 a33d 346d 06be 4928 c3bd 50e6 9dbd
00000040: a561 0dbd 8c53 543d 327c a1bd 6430 6ebc
00000050: cbca cbbb 9e9d ed3c 5385 91bd c783 223e
00000060: ba92 66bd 2770 44bd becb 2abc c62b f93b
00000070: 6da5 8ebd ad31 603d 770a 583d 29a5 673c
00000080: dc9e 8cbc 9910 683c 7814 db3d 6295 613c
00000090: 8108 563d bc2f 333c c2f4 dcbd 412b c2bd
000000a0: c694 6cbc 6408 86bd ebc8 243d 26be 5bbd
000000b0: 3c7c 81bb f129 f73c 5087 48bd 961d 12bc
000000c0: e665 2cbd 114d 9fbb a196 bd3d 32bc 663d
000000d0: 69e6 9b3d f717 c93c 383e debd e990 22bd
000000e0: 9036 23bd e8b3 093e 5d7f f53c d00d 8a3d
000000f0: 6946 6abd 79cf 143c b2ea 8e3c 21cc 863d
00000100: 6577 a93d fee7 8bbd 396e 5e3d 5797 5c3d
00000110: 26e8 703d 2b2c 193d 8336 b2bd b2d1 993c
00000120: 1d0a 7e3d 1081 723d 15a6 c6bd ffc8 d5bc
00000130: d77b 59bd 352e aabc 8fba d3bc c020 22bc
00000140: cab8 4cbd 031f 03ba 1091 073c af38 a43d
00000150: 4d42 b13d fbc9 cabc d545 0a3d dfaa cbbd
00000160: 5b24 71bd abc1 d5bc 473f a7bd b86e 1b3d
00000170: 27ce 6abd 75e7 0abd 518a dd3d 3310 203b
00000180: 1d27 5e3d 7456 80bc d98c 3abb 1cff bebc
00000190: 7782 b83d a39c a5bd 3335 98bd 32e9 833d
000001a0: 5235 863d 70f0 9f3d cddf d83b c796 c0bc
000001b0: 7d40 7dbd 3593 633d 4d5f 82bc aa71 913b
000001c0: 7f72 003d 2f1f 6e3d a92b b53d 27cc 0dbd
000001d0: 15ff c53c c4a4 6ebd 085c 563d 4ce6 93bd
000001e0: 20d1 56bc 43e7 e63b b8ed 143d 5711 2a3d
000001f0: 4b02 3fbd 511e 95bd d7dd 8d3d bc9f d2bb
00000200: 2c7e a33c ab00 8dbd ebfd 8c3d 8f91 5c3d
00000210: fee8 5a3d dff8 9abc bcef a93d 155a de3d
00000220: 088c 943c bf4d cd3d cf33 003d a3f4 943c
00000230: 8d67 ad3d 3feb acbd 017c ecbd c724 d23b
00000240: 9461 5abd bf86 bf3d f5e9 04be a8c6 bcbc
00000250: 1269 1c3d bf0b 043d 4274 d63d 8089 613e
00000260: c31c 183d 0527 843d 79a2 de3c 8ebd 1fbd
00000270: db21 c63b 11b1 ea3c 4fe9 913b 9ce1 023c
00000280: 57ac 3dbd 0129 a83c 8c10 3e3d b4f0 8a3d
00000290: c724 54bd 52fd 423d 57bf ccb9 0166 02bd
000002a0: c664 043c 6961 a03d 2af9 ecbc affb 873c
000002b0: 31de e6bc 7716 29bc af52 c0bd 504e 613d
000002c0: 13d2 a03d 9a72 89bd edb9 bd3b de94 af3c
000002d0: 8c83 f53c c48f 9fbc 5f20 88bc 2ba0 a73d
000002e0: ac5c 56bd 960f 7f3d a22a 133e a64f e5bc
000002f0: 2962 18bd 9b1b 0bbd f58f c23c f1aa 2f3c
00000300: c55a fb3c 8038 143e c201 f63c 0797 57bd
00000310: 5352 49bb 2101 aabd 4800 11bd dd9d 3d3d
00000320: c33f 993c e72a 16bd 64e7 cabd 71fe 913d
00000330: 12f2 5abd 089b c4bc ff5d b73d 4ed0 10bd
00000340: 5680 b7bc c3d6 443d 3f76 87bd e4ac c33d
00000350: 7fab a23d 0fe1 453d e9f6 51bd 13dd 7cbd
00000360: a2dd afbd 6a73 a03d 7180 5bbc 030b a93c
00000370: 91d6 2bbd 726d 66bd c8a8 30bc 72bf 393d
00000380: 49e9 a33d 3632 c13d 639c acbd a71f b8bd
00000390: e5a7 eb3d 3f80 0cbd 55e6 b63b ec3f ec3b
000003a0: e173 b9bc 6211 d1bb f5a5 e93c 7a76 8abd
000003b0: c0c5 46bd bc9d d03d 3afa 12bd 2b5e a43d
000003c0: 3c0b 8b3d b96c 833d db0c c33b f44e 043d
000003d0: 9385 64bb 91ac 11be 9d8e 103e aaa4 5f3d
000003e0: f189 b23d 7af7 3b3d 2182 fdbb 2070 82bd
000003f0: 5baa 953d 6967 8abd 9c6e 1abd 3fdd 24bd
0.07057783 -0.066390656 -0.040167514 -0.052077327 0.010237633 0.08149319 0.13016528 0.04542674
-0.0630286 -0.027143354 0.06526115 0.005387141 0.079808824 -0.13127595 -0.09529168 -0.07709944
-0.03451695 0.05183749 -0.078850165 -0.014537904 -0.006219243 0.029005822 -0.07105508 0.15870582
-0.056292273 -0.04795852 -0.0104245525 0.007604095 -0.06965146 0.054734875 0.052744355 0.014138498
-0.017165594 0.014164113 0.106972635 0.013768526 0.052254204 0.010936674 -0.10788871 -0.09480906
-0.014439767 -0.06544569 0.040230673 -0.053648137 -0.0039515775 0.030171366 -0.04895717 -0.008918187
-0.042089365 -0.004861482 0.09257246 0.05633182 0.076123066 0.02454756 -0.10851711 -0.03968898
-0.039846957 0.13447535 0.029967958 0.06740916 -0.057196055 0.009082668 0.017445896 0.06581903
0.08274726 -0.068313584 0.054304335 0.053855266 0.058815144 0.037395637 -0.087018035 0.018776748
0.062021364 0.059205115 -0.096996464 -0.026096819 -0.05309662 -0.020773986 -0.025845794 -0.0098955035
-0.049980916 -0.00050018745 0.008274332 0.08018624 0.08655224 -0.024754515 0.033758003 -0.099447004
-0.058872562 -0.026093325 -0.08166366 0.037947387 -0.05732551 -0.03391214 0.108173974 0.0024423718
0.05423652 -0.015666224 -0.00284653 -0.023315005 0.09009259 -0.08086517 -0.07432022 0.06440963
0.06553139 0.07809532 0.006618476 -0.023509396 -0.06182908 0.05556031 -0.015914584 0.0044385986
0.031359192 0.058135208 0.08846218 -0.034618523 0.024169484 -0.0582626 0.05233386 -0.0722166
-0.013111383 0.0070466115 0.03635952 0.041520443 -0.046633046 -0.07281173 0.06927078 -0.006427733
0.019957624 -0.06884893 0.068843685 0.053849753 0.053444855 -0.0189175 0.08297679 0.108570255
0.018133178 0.100245945 0.03129941 0.018183058 0.08467016 -0.08443307 -0.11547089 0.0064130756
-0.053315714 0.09351873 -0.12979873 -0.023043945 0.03818614 0.032237764 0.10471393 0.22025108
0.037136804 0.06452755 0.027177082 -0.038999133 0.0060465164 0.028648885 0.0044528614 0.00798836
-0.046306934 0.020527365 0.0464025 0.06784192 -0.051792886 0.047604866 -0.0003905247 -0.03183556
0.008080667 0.078310795 -0.028927404 0.016599504 -0.028182121 -0.010320297 -0.09390771 0.055006325
0.078525685 -0.06711312 0.0057899863 0.02143329 0.029969953 -0.019477732 -0.016616998 0.081848465
-0.052334473 0.062270723 0.14371732 -0.02799208 -0.037202988 -0.033961874 0.023750285 0.010721908
0.03068293 0.14474678 0.030030135 -0.052634265 -0.0030719235 -0.083009966 -0.03540066 0.04629313
0.018707162 -0.03666201 -0.099074155 0.07128609 -0.053453512 -0.023999706 0.08953475 -0.035354905
-0.022400063 0.048056375 -0.066143505 0.09554461 0.079428665 0.048310336 -0.051260862 -0.06173427
-0.08587195 0.078345135 -0.013397322 0.020635134 -0.041952673 -0.05625672 -0.010782428 0.045348592
0.0800348 0.09433405 -0.08428266 -0.08990412 0.11506633 -0.034301993 0.005581657 0.0072097685
-0.022638263 -0.006380246 0.028521517 -0.06760879 -0.048528433 0.101863354 -0.035883166 0.080257736
0.06789252 0.064172216 0.00595246 0.032301858 -0.0034869656 -0.14225985 0.14116903 0.054600395
0.087177165 0.04589031 -0.00773646 -0.063690424 0.07307883 -0.06758005 -0.03770314 -0.04025006

bias f4 [128]
00000000: f948 a83d 71c6 d73b a378 203d d3c6 22bd
00000010: 7656 6f3a e863 8abd 92ca 4c3d a222 313d
00000020: ba94 463d 95fe 783d e7b5 1ebd e9cb d3bc
00000030: b613 ce3d 444e e1bc e165 213c 88cd 33bc
00000040: 1c74 4f3d 63f4 4f3b 4990 3c3c 7da0 643d
00000050: fb1b b1bc fa9d b73d 9247 13bd f6f0 a53d
00000060: ec2c 183c 9025 b93c fe3a 2f3d 6779 3abd
00000070: 0559 4c3d f387 663d 2fa3 1dbd 6f96 5abc
00000080: 7947 8b3d 3f34 99bc 3bef 5f3c 3c78 4b3d
00000090: 2d26 e6bc 4212 bf3d df6d 30ba 67b9 01bd
000000a0: 1e07 a7bc 331e 0039 782a 33bd 06c1 10bc
000000b0: 799b c7bd 9b30 b63d e4fa 57bd d97d 3fbd
000000c0: c6df ca3d be67 84bc 43e9 a03d d298 f93c
000000d0: 44b7 b53d a727 8ebd 7fff 003d 12bb 7abd
000000e0: 5636 2b3d e424 b6bb 9f23 1abd 038d f13d
000000f0: 377c dd38 96bc 3cbc b6d9 c03c fcfd d23d
00000100: 2371 6d3c 0537 0f3e d368 e5bb 1731 993d
00000110: e5cf b83d b893 26bd 313d f8bc 51e3 823c
00000120: 6582 353d 6d45 753d af5e 3e3d dcd5 b1bc
00000130: 7e0e b53d 8ef2 803c c7cb 9cbd c7fe c83d
00000140: 01fb 1abd 0450 f33c 1fc8 c43d afd5 9ebc
00000150: e934 9f3d cd0f b93d 74a3 00bd 47ed 463c
00000160: ad25 b13d 50f7 afba 0f68 8b3d 7e39 063d
00000170: 8ca7 ba3d 13a4 2abd 7f31 b53c ef6b cd3d
00000180: 7107 88bd 011e 933d 51fa d93c feeb 363d
00000190: 89ce b7bd e920 903d 8f72 a13d f52f 8f3d
000001a0: d645 72bd 0d21 c2bd 67f0 43bd 2508 263b
000001b0: 0ac9 813d 86d4 9cbc 3f3e bb3d d95c 62bd
000001c0: 69bd ebbc 9321 b8bb 5c30 a63d 3292 8c3d
000001d0: f693 bdbd a4fd ba3d c20d 3a3d 726b b4b9
000001e0: 52c3 4b3d 17f6 fc3b f8bb 12bd 2a9f 1cbd
000001f0: 42d4 573d 3e5a a93d 5038 173d 1d7f 0bbd
0.082170434 0.0065849354 0.03917755 -0.039740395 0.000913001 -0.06757337 0.049997874 0.04324592
0.04848168 0.060789663 -0.038747694 -0.025854068 0.10062353 -0.02750314 0.00985095 -0.010974295
0.05064784 0.003173136 0.01150901 0.055817116 -0.021619787 0.089656785 -0.035956927 0.081026
0.009288054 0.022600919 0.04278087 -0.045525935 0.049889583 0.056281995 -0.038485702 -0.01334153
0.06800742 -0.01870167 0.013667877 0.04967521 -0.028094376 0.09329654 -0.0006730239 -0.031670954
-0.020389136 0.00012218281 -0.043741673 -0.008835083 -0.09746451 0.088959895 -0.052729502 -0.046750877
0.09905963 -0.01616275 0.07856991 0.030468378 0.08872846 -0.06941157 0.03149366 -0.06121356
0.041799866 -0.005558597 -0.037631627 0.11794474 0.00010561238 -0.011519572 0.023541313 0.1030235
0.014492306 0.13985832 -0.0070010214 0.07480066 0.09024028 -0.04066822 -0.030302616 0.015977534
0.044313807 0.059880663 0.046477016 -0.021708421 0.08840655 0.01574066 -0.07656055 0.0981422
-0.037837032 0.02970124 0.096084826 -0.019389002 0.07773764 0.09036217 -0.03140588 0.012141532
0.08649764 -0.0013425145 0.06806957 0.032769673 0.09113988 -0.04166038 0.022118328 0.10030352
-0.06642044 0.07183457 0.026608618 0.044658653 -0.0897494 0.07037527 0.078831784 0.06991569
-0.059148632 -0.0947896 -0.047836687 0.0025334444 0.06337173 -0.019144308 0.09142732 -0.055264328
-0.028776841 -0.0056192367 0.081146926 0.06863822 -0.09256737 0.09130409 0.045423277 -0.00034412328
0.04974682 0.007719766 -0.035823792 -0.03823773 0.05269266 0.082691655 0.03691894 -0.03405677

weight f4 [128, 128]
00000000: 7e7b 433c 7b18 55bd f4a4 b33d d022 563d
00000010: a241 c5bb 5e5d 913d 2143 d73d 04c3 943d
00000020: 2b3c 2ebd edc6 f33c 9fe1 2f3c fac7 0a3e
00000030: 750b e2bb 530f c6bd 80a1 05bd 7c87 44bd
00000040: f986 9f3c 7dd5 033d e5ff a43d fdc5 933b
00000050: 0497 943c 7f80 113d 1278 163d e90a b93d
00000060: b188 cf3d d0e4 07bd a5e6 24bd 4316 a6bd
00000070: 0052 023e 2cf9 0fbd f9d7 61bd 0bc8 ebbc
00000080: dbf3 95bd 2d5f be3d 7cb0 0dbc 9297 c7bc
00000090: 3b8a 823d c29c 01bd 3489 c43a 109e 07be
000000a0: 4abb d23c c4fb 5b3d 7321 80bc d9aa ae3d
000000b0: 0abd c8bd bdbf 603c 01f6 823c 909d a0bd
000000c0: 67e2 e53d a388 ebbd beff 2cbd 9fa1 693d
000000d0: ec3a 3e3b 6505 4d3d 6ecb 253d b55e 973d
000000e0: e4aa 26bd 2192 583d 0c8d 853d 1d47 73bc
000000f0: 81c7 ae3d b2f5 eabc b931 f83c f337 373d
00000100: 721c dfbd 3a69 1b3d f428 d13d 3d07 90bd
00000110: 6139 d33d a439 cebb 99f3 aa3d 8f13 16bd
00000120: afe0 9d3d bf20 d8bc 30ef 483d ad61 2c3c
00000130: 89a1 393c 0fc3 f6bc 6c45 febc 3575 ea3d
00000140: 4fa9 3d3d 2294 d03c c133 0e3d cf1a 603c
00000150: c789 3c3e de37 c03d 2423 9abd 4547 893d
00000160: c4da 16bd 57ee 123b 065f a83d 07e1 12bb
00000170: 997a b93d 2703 a6bc 0fe7 053b 9f0b 00bd
00000180: 06c5 f73d 0ff1 30bd 1a9a 33bd fbd8 abbd
00000190: d6b9 8a3d d878 c63d d2fb b33d f5ec 0abb
000001a0: 62c6 e73d a0b6 ee3c 96af 81bc 02a7 253c
000001b0: 0e88 20bd d41f 003e caa3 8cbc aa18 f6bc
000001c0: d020 9e3d c993 2a3d 1e6d c03c 422e 26bd
000001d0: f543 783c 42f9 ed3d bbb7 c4bc 0b25 983d
000001e0: 7ed0 cbbc b8de c13d 414a 53bd bb44 e13c
000001f0: 3b5f 83bd 9406 b63d 53be 953d 698a a63d
00000200: 2a34 fe3c c3c6 c33c 70cc a8bd 83e4 783c
00000210: c141 37bd b40f 533d 8fa6 b6bd 99c7 2fbc
00000220: 818d 8bbd 2ae5 a2bd f185 81bd ac25 aebc
00000230: a101 babc 4205 b93d fce0 c03c fc03 c4bc
00000240: 9fe8 a0bd 3389 8cbd f32d 5ebd bd8e e5bc
00000250: de2b 02bd 07cb 32bc 92ad 883a 0ab4 afbb
00000260: 24ec 9ebd ce13 a8bd 5d9c 8cbd 6719 6c3b
00000270: 5913 903d cd6e 3abd 277b 523d 9684 9c3d
00000280: d958 383d 986e 9abd d25d b4bd 2318 893c
00000290: aca4 7cbd d5c4 863b c014 563c c6b4 4b3a
000002a0: 0b87 2bbd 20b2 443d 2053 4e3d 8f68 8dbd
000002b0: b427 c4bc 9a87 7ebd 134b c4bc aaa7 663c
000002c0: 10ff efbc e64a 3c3d 1967 94bd a5b9 17bb
000002d0: c31b edbc 999c 813d 351c c9bc 9830 dbbc
000002e0: 9ff8 f23c d78a 5fbd 843c 20bc 61f6 d73b
000002f0: af21 923d 2d06 95bd b432 6dbc 744a e33c
00000300: 95ec 86bc 5f23 903d 45c4 c63c f82d 0ebd
00000310: d82d 173d 7692 6abd b596 34bc c9ad 6fbd
00000320: bc23 a7bd 358a 423d 3741 003d fdb0 a53b
00000330: ce1f 9b3a a7cf a5bd 8204 903d 3303 5dbc
00000340: aafb 373d a71c 483d d2b1 e7bc 92d1 673d
00000350: 8c65 923d 4cb8 9f3d 0307 75bd 2d6e d53c
00000360: 092f 763d 264f c5bd abdd d6bb c32c c53a
00000370: 4f16 f7bc abb7 693c a18b 55bc 91ff b7bc
00000380: 3080 74bd 609d a1bd 467b c63a fae1 603d
00000390: 0210 13bd d6ba f1bc b0df 01bd 1e4b 0a3d
000003a0: c6a2 483d 5055 4d01 965c 83ba 93ec d13c
000003b0: 2eef d73b d02d 7abd 8c67 8ebd 8c66 64ba
000003c0: 058e 713d 08cf 0a3d e464 2e3c b918 703d
000003d0: 3cf8 3b3d f30e 1bbd 9840 543d 9b9e 53bd
000003e0: 006b 4cbd acdf 1abd 861a 4e3d 708f 57bd
000003f0: b8f3 cebd 3220 323d 1603 2b3d 7db3 a4bd
0.011931298 -0.0520253 0.08771697 0.052279294 -0.006019787 0.070978865 0.10510851 0.07263759
-0.04253785 0.029757941 0.010734945 0.13552848 -0.0068983384 -0.096708916 -0.03262472 -0.04798077
0.01947354 0.03218602 0.080566205 0.004509686 0.018138416 0.035522934 0.0367356 0.09035284
0.10133494 -0.033177197 -0.040259022 -0.08109715 0.12726593 -0.03514974 -0.05513761 -0.028781911
-0.07321902 0.09295497 -0.008648034 -0.024364267 0.063740216 -0.031643637 0.0014994503 -0.1324389
0.025724072 0.0537069 -0.01564095 0.0852868 -0.09801681 0.013717589 0.015986444 -0.07842553
0.112248234 -0.11500671 -0.042236082 0.0570389 0.002902682 0.050053973 0.04047721 0.07391111
-0.040690318 0.052873734 0.06521043 -0.014848498 0.08534146 -0.02868161 0.030297147 0.04473109
-0.108940974 0.03794215 0.10212889 -0.070326306 0.103136785 -0.0062934924 0.08347244 -0.036639746
0.077088706 -0.026382802 0.049056232 0.010521335 0.011330017 -0.030122308 -0.031038962 0.11448137
0.046304043 0.02546126 0.034717325 0.013678267 0.18411933 0.09385656 -0.07526234 0.06703047
-0.036829725 0.0022419894 0.08221249 -0.0022411959 0.09056587 -0.020265175 0.002043191 -0.031261083
0.12098126 -0.04319864 -0.043848135 -0.08390995 0.06773727 0.09691018 0.08788265 -0.0021198366
0.113171354 0.029139817 -0.015830796 0.010110619 -0.03919225 0.12512141 -0.017167944 -0.030041058
0.07721102 0.041644845 0.023489531 -0.04057146 0.015152921 0.11619808 -0.02401339 0.074289404
-0.02487969 0.09466308 -0.051584486 0.027498594 -0.06414648 0.088879734 0.07311692 0.081318684
0.031030733 0.023898488 -0.08242118 0.0151912 -0.044740442 0.051528648 -0.08918487 -0.01072874
-0.06814099 -0.07953866 -0.063243754 -0.021258198 -0.022705855 0.09034206 0.02354478 -0.023927681
-0.07856869 -0.06862106 -0.05424304 -0.028022164 -0.031780116 -0.010912663 0.0010427705 -0.0053620385
-0.07759884 -0.082069024 -0.068657614 0.0036025883 0.0703494 -0.045515824 0.05138698 0.07642476
0.045006607 -0.07540625 -0.08806957 0.016735142 -0.06168048 0.0041128197 0.013066471 0.0007770773
-0.041876834 0.048021436 0.050372243 -0.069047086 -0.023944713 -0.06214104 -0.02396158 0.01407806
-0.029296428 0.045969866 -0.07246227 -0.0023151424 -0.028943902 0.06328697 -0.024549583 -0.02675657
0.029659567 -0.054575767 -0.009780053 0.00659065 0.07135331 -0.072765686 -0.014477421 0.027745463
-0.016470233 0.070379965 0.02426351 -0.034711808 0.036908954 -0.057268582 -0.0110222595 -0.058515344
-0.08161113 0.047495086 0.031312194 0.005056499 0.001183504 -0.08096247 0.0703211 -0.013489532
0.04491774 0.04885545 -0.028283034 0.056596346 0.07148275 0.07798824 -0.05982114 0.026053512
0.06010345 -0.09634237 -0.0065571866 0.0015043247 -0.030162005 0.014264981 -0.013033778 -0.02246073
-0.05969256 -0.07891345 0.001514294 0.054903008 -0.035903938 -0.029508036 -0.031707466 0.033763044
0.048983358 3.7713762e-38 -0.00100221 0.025625503 0.0065897917 -0.061078846 -0.06953344 -0.00087127904
0.05897333 0.033888847 0.010644171 0.058617327 0.04589103 -0.037856054 0.051819414 -0.05166493
-0.04990673 -0.037810966 0.050318263 -0.052627027 -0.101050794 0.043487735 0.04175099 -0.08042047

bias f4 [128]
00000000: 0bf5 a03d c8ac 82bd 9d8e 243d 338f 5a3d
00000010: 5604 043d 4c27 37bc e11b 053e 47a9 55bd
00000020: 0ccf cbbd d6bf bf3d 97b5 67bd 1dd1 153c
00000030: 9501 a03c 8c93 583b 747b 9f3d a777 06be
00000040: 8ff4 ef3b 1056 ce3d b79d 28bd cecc 97bc
00000050: 79d9 d03c 79e1 573b a24d bebb 68ef 893d
00000060: bb32 58bd eed3 ef3d 42f0 c9bc ba9e a7bc
00000070: eb56 ab3d 2de2 57bc 56c5 873c cf2b 0dbb
00000080: 3c92 7ebc 8247 a8bd e2ea c73d 16da fb3d
00000090: 0f23 393c e7be fd3d b68d a43d 4663 92bc
000000a0: 6f80 83bd f31b 673d 155e a63d 95f9 d0bd
000000b0: 2c5d d7bb 0aa9 9d3d 04f7 0c3e 7a23 5a3d
000000c0: 83c4 753d 5050 613d 7259 6f3d eb28 a9bb
000000d0: f445 4b3d 7358 863d bff9 f2bc 75ad abbd
000000e0: b241 d63b d614 f53c 7471 e03d d039 ba3d
000000f0: 914c 673c 10be 973d 84cf 623b 52cc bd3d
00000100: c0d3 90bd cf6b 603d 7612 ae3d 7e65 023e
00000110: 731b 983c ee48 54bd e8f4 923c 9e34 873d
00000120: 02d0 9f3c f870 ab3d 0857 923c f361 373d
00000130: b682 a93c cdbe e13d eac1 2dbd 13fd e43d
00000140: b925 c5bb 529d dc3d 637b dc3d c2e8 093d
00000150: 4671 04bb 44bb d33c 4dd6 033d e61c b83c
00000160: b8a1 ac3d 8f72 c93d 52e6 053e 4383 023d
00000170: 1514 8bbd dfa6 a53d 2658 ef3d dbf0 87bc
00000180: d63d cc3d 08ac 2abc 96a0 383d 43c8 caba
00000190: 325d 893d 6825 3e3d 245b 673d 02be 9a3d
000001a0: 75dd ad3c 2df6 d33d 7d2d cd3d 0500 493d
000001b0: 56d6 6d3d e012 ba3d e22f e63c 54a6 e83d
000001c0: 5fbc 9d3c f215 be3d 115e 6f3d 3527 c5bd
000001d0: 241c e4bc a190 82bb 5b5b 44bd 54e4 c3bd
000001e0: a2e3 793d 1548 d73d 2acc 853d dbe3 9c3c
000001f0: 57fd 313d 77f3 113d f586 9a3d 473d 093e
0.07859238 -0.06380612 0.04017507 0.05335922 0.032230698 -0.011178803 0.12998916 -0.05216339
-0.099516004 0.09362762 -0.056569662 0.009144095 0.019532004 0.003304693 0.07787219 -0.13131581
0.007322855 0.10075009 -0.041166034 -0.018530276 0.025494324 0.0032940789 -0.0058075944 0.06735116
-0.052782755 0.11710344 -0.024650697 -0.020461429 0.08366188 -0.013176483 0.01657359 -0.0021541005
-0.015537795 -0.08216764 0.09761597 0.12297456 0.0112998625 0.12389927 0.08034842 -0.017869603
-0.06420981 0.05642314 0.081234135 -0.10203854 -0.0065723862 0.07698257 0.13766104 0.05325649
0.06000186 0.055008233 0.05843491 -0.0051623485 0.04962726 0.06559839 -0.029660104 -0.08382694
0.006538593 0.029917162 0.109591395 0.09093058 0.014117376 0.074092984 0.0034608552 0.09267487
-0.07071638 0.054790314 0.08499615 0.12734029 0.018567776 -0.051827364 0.017939046 0.06601833
0.019508366 0.083711565 0.017863765 0.044771146 0.02069221 0.110227205 -0.04242126 0.111810826
-0.00601646 0.10772194 0.10765722 0.03366924 -0.0020209118 0.025846131 0.032186795 0.022474717
0.08429283 0.098363034 0.13076141 0.031863462 -0.0679094 0.08088469 0.11686735 -0.016594341
0.09972732 -0.010416992 0.04507502 -0.001547106 0.06707229 0.046422392 0.056483403 0.07555772
0.021223763 0.10349689 0.10018442 0.049072284 0.058065735 0.09085631 0.028099004 0.113598496
0.019254861 0.092815295 0.058439318 -0.09626619 -0.02784545 -0.0039845263 -0.047938686 -0.095650345
0.061008103 0.105117954 0.06533082 0.019151619 0.043454494 0.035632577 0.07545272 0.13402282

weight f4 [1, 128]
00000000: 3faa adbd c763 913c 5114 053e 715d be3c
00000010: 7b6c 6dbd 324f fa3b 8868 e4bd 323e 433d
00000020: f349 cb3c 0415 163e dc6a 0b3c ad62 4ebd
00000030: 68c7 be3d 0497 a2bd 322e b0bd 3052 943d
00000040: 17a6 b6bd 1e29 3abd 5d42 723d d699 b0bd
00000050: 6327 93bd 8659 e2bc 003f 86bd 0ff9 d43c
00000060: 9ce6 5ebd 1f77 2ebe 638a 463d 7807 10bd
00000070: d4fa c0bd 3b02 7fbd 912e d0bd 09ad 86bd
00000080: 9a40 eb3d f23d 3e3d 5d55 a7bd 27b7 a4bd
00000090: 638e 84bd f549 51bd ad8d d13d d920 223c
000000a0: 49e1 403d 2fd1 d43d 39ec 023e 1e28 393d
000000b0: d36a eabc 7c86 ea3d 25e8 83bd 68c9 e7bc
000000c0: 80d9 243e 071f c0bd db64 0dbd e7bb 3abd
000000d0: 9909 853d c1ed 32bd 949e 613d 562d 2e3d
000000e0: 145a cabd 9156 8ebd 19e4 ccbd 4ff2 a4bd
000000f0: 026e 003e 38fc d43d 3d20 cbbd df1a 93bd
00000100: fc2e 8a3d d7e7 f5bd 3327 383e 4f2c 73bd
00000110: 80cf 043d 6897 8b3c 7dbc 52bd 0ee4 f83d
00000120: 90e4 7b3d 67b8 adbd 6b0b 223e e178 ee3d
00000130: bbe3 b6bc 032c 3cbd dd9b 3f3d 7c01 11bd
00000140: f094 a1bd 53c8 8ebd dd6e a4bd 0a50 41bd
00000150: 6650 02be 41c1 8fbd 312d c4bd 83a5 9f3c
00000160: 97ce 823d 2dc9 d6bd 5f4b d2bd 2236 53bd
00000170: d16c 20bc 7dc9 0dbd 4bfb 0abd 2284 6cbd
00000180: b2ae 2fbd fa26 ae3b f685 27bd 733f 8f3d
00000190: a0a6 e0bd 976a 793d a046 ca3d 5271 183d
000001a0: ee57 96bd 98da 153e 4c60 423e 0725 65bd
000001b0: 150b 803d b6f0 043e c292 983d ddc4 e23d
000001c0: 4a3c 85bd 9b1a 72bd 6dc1 143e 2171 353d
000001d0: 293f 97bc 5914 ccbd 48f5 633c bb62 6f3d
000001e0: 8164 6e3d cd2b d0bd f691 3b3d 4427 513d
000001f0: 4e90 adbd 3982 a4bd 17f8 973d e925 ccbd
-0.084797375 0.017747773 0.12996031 0.023237916 -0.057964783 0.0076388353 -0.1115275 0.047666736
0.024815535 0.14656454 0.008509364 -0.050387073 0.093153775 -0.0793896 -0.08602561 0.072422385
-0.08918398 -0.04544937 0.05914532 -0.08623092 -0.07185247 -0.027630579 -0.06554985 0.025997667
-0.054419145 -0.17037629 0.04847182 -0.035163373 -0.09422842 -0.062257987 -0.10165132 -0.065759726
0.11486931 0.046445794 -0.08170579 -0.08042746 -0.064724706 -0.05109592 0.10232101 0.009895527
0.04708985 0.10391461 0.12785424 0.045204274 -0.02861539 0.11451432 -0.064407624 -0.02829428
0.16098595 -0.09380918 -0.03452001 -0.045589354 0.06495971 -0.04368377 0.055082873 0.042523704
-0.09880462 -0.06950105 -0.10004444 -0.08054029 0.12541965 0.103996694 -0.09918258 -0.0718286
0.06747243 -0.120071106 0.17983703 -0.059368428 0.03242445 0.01703997 -0.051449288 0.12152873
0.06149727 -0.084824376 0.15824668 0.116441496 -0.022325387 -0.04594041 0.046779502 -0.035401806
-0.07889736 -0.069718026 -0.08028958 -0.04719547 -0.12725982 -0.07019282 -0.09578932 0.019488102
0.0638706 -0.1048759 -0.10268282 -0.051565297 -0.009791569 -0.034615982 -0.033931058 -0.0577432
-0.04289121 0.005314705 -0.04089924 0.06994524 -0.10969281 0.060892668 0.09876752 0.037217446
-0.0734099 0.14634168 0.18982047 -0.055943515 0.06252114 0.12982449 0.07449867 0.11072705
-0.0650564 -0.059107404 0.14526911 0.04429734 -0.018462734 -0.099648185 0.01391346 0.058443766
0.058201317 -0.10164604 0.045793496 0.051062837 -0.084747896 -0.080326505 0.07420366 -0.09968168
