AutogluonModels/ag-20220702_011935/models/NeuralNetTorch_BAG_L1/S1F2/net.params (torch, 211783 bytes, 9 tensors)

weight f4 [128, 14]
00000000: 8fb3 aa3b 59cf b23d 8997 72be ef1c 44be
00000010: e2d0 8bbd 8a8d 113d 0080 b0bc 02f0 713e
00000020: 11ae 0bbd 0321 143e 5980 16bd c09f 6abd
00000030: 24b3 aabe 8eb1 2abe e0f1 86bd c2ef 363b
00000040: ce2f be3d 2d45 573e 8e5d eebd 659f 13be
00000050: d573 253e a965 413e e16c 6abc 8f5c 563e
00000060: f29e e8bb 831c 18bc d4f9 9b3e 6aaa 91be
00000070: ddea 3fbe 29d9 d8bd bcb6 17be cc57 7b3e
00000080: 926d 37be e2de 17be 4d8b 66be bacf a6be
00000090: 8626 d4bd 0b97 5c3e c920 f63d 5b45 0a3e
000000a0: eb38 2dbd b1df fabd 0ade 3e3d b732 99be
000000b0: 52db 62be f705 49be c420 373e 4d24 0c3e
000000c0: 09db 06be e12b 3e3d 9800 403e 92ea 843e
000000d0: 2c12 8d3d 0428 02bb f2f1 743d 826f 3bbe
000000e0: 926f 10bc 5896 a4be c864 81be 7a8e b9bd
000000f0: 6d2b f43d 860a 733d 4d2a 50be 1e9a e23d
00000100: 6132 7a3d 850b 10bc 0a49 89bc 29f5 e13c
00000110: 6109 6e3e f055 823e 4308 93be 1a18 9ebd
00000120: 75ed d03d 2cc2 933e fadc 773e 5915 403e
00000130: 2e02 a3bd 5703 64be 510e a2ba 9024 02be
00000140: 074d 80be 0b8a 813e 546c ab3e bfd7 8cbe
00000150: 0398 583d 7cc6 44be 1a53 f0bd 20b1 b2bd
00000160: 2f88 14bd 37c8 65be 53f6 a73d a4fb 073e
00000170: 288a 843e 483b aa3d e340 6ebe 5298 62be
00000180: bf08 1b3e 7424 8fbc b398 32be 1266 89be
00000190: c10d 0d3e 94e2 443e a9c1 a2bd 5bd3 82bd
000001a0: 023b a7be c4be 8fbb b7ac 20be ca63 41be
000001b0: 3d4e 8bbd 458b 683d 4257 debd efcc f03d
000001c0: 10ca 1ebe e6de 723e 026e 263e cee8 77be
000001d0: cdad 80bc abb3 8b3d 45ff 923d 5d55 a73c
000001e0: c99b b23d 11ac 163c da10 3dbe bac8 103e
000001f0: abd2 75be e280 67be 7dca 40bd f469 68be
00000200: fcd6 19be 80fa 3abe 4e7e a8bd a884 c43c
00000210: 4cdb 2cbe f4d5 84bb f59a 5e3e b4c6 1dbd
00000220: 3b44 473c c159 98bd f83c e43d 6e37 be3d
00000230: 06e1 8d3e bc37 203e 4e76 743e 68d4 77bd
00000240: 05ea 81be cf8d 24be 6c33 8a3e 5d4f 013d
00000250: 0e26 14be 8bfd 00be 56cc 8bbe 9795 aabe
00000260: 3b96 90be 0fbb 143e 9255 e13d 1176 a5be
00000270: f7bd db3d fab0 21be 9157 dabc c5aa 46be
00000280: 7bc4 c0bc 9719 d2bd bc44 8bbe 4095 19be
00000290: 861c 15bd eb5b f9bd 124b aabe 9879 243e
000002a0: 6a2a c8be 055e c93d 98aa ab3e 9ccd 92bd
000002b0: 3196 753e 164c 3c3d 1dbf c2be 31df d53d
000002c0: 662e a8bd 8017 5dbd 698c 1b3e 812c 80be
000002d0: b901 4d3d c9ee 9bbd 800a 363e 5fb0 cabc
000002e0: e7be a13d 7fb2 103e e38d a3bd a404 ffbd
000002f0: 6c4c 81be 5194 183e 31cc 593e 2540 433e
00000300: c6eb 05be 6816 41bc cdda a1be 4c8e c9bd
00000310: 684d 2bbe 57c5 9f3c 3b65 34be 6fe5 94bc
00000320: 1bb7 0f3d 99b1 193e c98d 5abe aa25 b7bd
00000330: 0c8b 1dbe ff65 683e bcb6 83bd dd8c 603e
00000340: 5e9c a03d 0de0 af3d 1d6c 71bc 8d8c e2bd
00000350: 207d 6ebc 310a 08be 035b f53c 3571 8a3d
00000360: a2c5 62be 922f 5dbe f90d 323e f432 efbd
00000370: 00a8 d8bd 8233 7d3e b387 183c f0d8 59bd
00000380: 91bf 51be f6a6 213e 5ad4 86be 2e10 1bbe
00000390: 5c08 65bd 2eba e7bc 2dd7 383d cff3 7f3e
000003a0: a931 753d 9911 663e 1ec6 1b3e e2c2 47be
000003b0: 2bff 473e d5ad 61be 1636 ebbd 8255 783d
000003c0: 008a 743d 4826 953e cfe9 aebd 5820 90bd
000003d0: 22da c13d e9a8 68be 5507 333e 17a5 26be
000003e0: 66e4 9dbc 5130 ffbd dd72 35be 4649 0ebd
000003f0: 6791 6c3e a94e 0fbe 9346 4fbe 1272 0bbe
0.0052093933 0.08730955 -0.23690619 -0.19151662 -0.068269506 0.035535373 -0.02154541 0.23626712
-0.03410155 0.14465718 -0.036743496 -0.057281256 -0.33339798 -0.16669294 -0.06589103 0.0027913903
0.09286462 0.21022482 -0.11638938 -0.14416273 0.16157468 0.18886437 -0.014308185 0.20933746
-0.007099026 -0.0092841415 0.3046404 -0.28450328 -0.18741937 -0.10588295 -0.14815801 0.2454521
-0.17912892 -0.14831117 -0.22514077 -0.32580358 -0.1035891 0.21541993 0.12017972 0.1350302
-0.04229061 -0.12249697 0.04659847 -0.29921505 -0.22153977 -0.19631182 0.17883593 0.13685723
-0.13169493 0.046428565 0.18750226 0.25960213 0.06888232 -0.0019860277 0.05980105 -0.18304256
-0.008815663 -0.32145953 -0.25272202 -0.090603784 0.11922345 0.059336208 -0.20328636 0.11064552
0.0610832 -0.008791809 -0.01675846 0.027582722 0.23245765 0.2545619 -0.2871724 -0.07719441
0.10201541 0.2885908 0.2420539 0.18758143 -0.079594 -0.22266899 -0.0012363886 -0.1270926
-0.25058767 0.2530063 0.33481085 -0.2750835 0.052879345 -0.19216341 -0.117346 -0.0872519
-0.036262687 -0.22439657 0.082012795 0.13279587 0.25886655 0.08312088 -0.2326694 -0.22128418
0.15140055 -0.017473437 -0.17441063 -0.26835686 0.13774778 0.19227058 -0.07947094 -0.06387969
-0.32662207 -0.0043867547 -0.15690885 -0.18885723 -0.06802032 0.056773443 -0.10856487 0.11757838
-0.15506768 0.23717842 0.16252902 -0.24209902 -0.015707875 0.06821378 0.07177595 0.020426447
0.0872112 0.009196297 -0.1846346 0.14139071 -0.24006145 -0.22607759 -0.047068108 -0.22696668
-0.15023416 -0.1825962 -0.08227216 0.023989037 -0.1688053 -0.0040538255 0.21738799 -0.038519576
0.0121622635 -0.07438994 0.11144441 0.09287916 0.27710742 0.15646261 0.23873255 -0.0605053
-0.25373855 -0.1606972 0.26992357 0.031569827 -0.14467642 -0.12596719 -0.27304333 -0.33317253
-0.28239617 0.14524482 0.11002649 -0.3231664 0.10729592 -0.15790167 -0.026653083 -0.19401081
-0.02353119 -0.10258787 -0.27200878 -0.1499834 -0.036404155 -0.12175735 -0.332604 0.1606201
-0.3909486 0.09832386 0.3352859 -0.07168123 0.23983075 0.045971 -0.38036433 0.10442961
-0.08211975 -0.05397749 0.15190281 -0.25033954 0.05005047 -0.07613904 0.17777443 -0.024742303
0.0789774 0.14130591 -0.07986047 -0.12452057 -0.25253618 0.14900328 0.21269299 0.19067438
-0.13078222 -0.011785127 -0.31612244 -0.09841594 -0.16728747 0.019503279 -0.17616741 -0.018175809
0.035086732 0.15009154 -0.21343149 -0.08942731 -0.15385073 0.22695158 -0.06431338 0.21928735
0.07842325 0.08587656 -0.014735249 -0.11061964 -0.014556199 -0.13285138 0.029950624 0.06759874
-0.22145703 -0.21600178 0.17388143 -0.116796404 -0.105789185 0.2472668 0.009309697 -0.053185403
-0.20483233 0.15786347 -0.26333886 -0.15142891 -0.055916175 -0.02828702 0.045127083 0.2499535
0.059861813 0.2246765 0.15212294 -0.19507936 0.19530933 -0.22038968 -0.114849254 0.06062842
0.05970192 0.2913077 -0.08540689 -0.07037419 0.09465434 -0.22720684 0.17483266 -0.16273914
-0.019273948 -0.124603875 -0.17719598 -0.034737848 0.23102342 -0.1399485 -0.20241766 -0.13617733

bias f4 [128]
00000000: 12c4 6b3e 1759 063e d567 e03d cc9a fcbd
00000010: 46e4 d03d c1df 143e cab5 b33d 365b 85bc
00000020: c977 d33c c269 fabc 11e4 92be 224b c3bc
00000030: d7b8 81be a294 113e b059 20be 8cea 16be
00000040: 5137 1cbe 35a4 0b3e 7b5e 20be 7468 ab3d
00000050: 3260 183e 248f 1d3e a870 9f3d 5eca b73d
00000060: e50c 363e 9a5a 983d 79cc 28bc 5f33 4bbe
00000070: 1538 30bd 7323 0d3b b725 843d ec0e e1bd
00000080: 4e80 86be 3a36 92bd e42b f73d adf3 593e
00000090: 9230 84be 246d d83d 1f96 3fbe 33e4 5dbe
000000a0: d11f 13be b2cf aebd aba6 333d 5116 92be
000000b0: 00be 063e 92b8 5a3e 7a17 7abb df20 783e
000000c0: 7797 ffbd cfad 25be 3c82 1fbc c2f6 83bd
000000d0: 8c9e 51be 8ba1 4fbe 3677 c33d ab7f 24bb
000000e0: 9d3b 8b3e c6ac 0cbe b71e b13d c5d9 f7bd
000000f0: 9971 113e 74bb 88bd f640 353e fcdb f83d
00000100: d4df 353e 3c32 1f3e efd5 e2bb f44c 423e
00000110: 83dd 00be 04b0 873e 88d3 943e 4608 223e
00000120: 7cc9 02be 31bc 21be 1398 9c3d 4ead a53d
00000130: e8d4 c53d f281 b33c 0e03 4b3e 01df edbd
00000140: 51b4 e9bd 4475 2f3d 24bc 95bb e0d5 17be
00000150: 32de bdbc 7d78 4cbe 1012 cdbd a1c7 85bd
00000160: b561 673e 5d97 63be ae96 09be f488 6abe
00000170: f0ae 953d 5e31 76be afa4 fd3d 3272 48be
00000180: 67f0 2cbe 2586 30be 3e80 b2bc 5058 613e
00000190: fa55 593e 6168 b6bd 329c 98be f6dc fabd
000001a0: 1a1e 13be f680 4dbd 2715 dc3c 1691 dc3d
000001b0: 32bc ea3d b788 39bb 10f1 28be af51 a7bd
000001c0: fab4 1dbd cf28 fcbd 6c2d a4bd f0f3 3dbd
000001d0: d6a9 89be a43b ff3d 7681 2dbd 5dfb 7cbe
000001e0: 0843 513e 2618 0bbe cefa 103d 26a2 7a3e
000001f0: 81b1 02bd ad9f 3c3d 335f d53d 0bd5 a43d
0.23024014 0.13119923 0.109573044 -0.12334213 0.1019979 0.1453848 0.08774908 -0.016278844
0.025813954 -0.030568007 -0.28689626 -0.023839537 -0.25336334 0.14216855 -0.15659213 -0.1473791
-0.15255477 0.13636859 -0.15661041 0.08369532 0.14880446 0.15386635 0.07785159 0.08974145
0.17778356 0.07439156 -0.010302656 -0.19843815 -0.043022234 0.0021536022 0.06452506 -0.10989174
-0.26269764 -0.07139249 0.12068918 0.21284361 -0.25818306 0.10567692 -0.1870961 -0.21669082
-0.14367606 -0.085357085 0.04386012 -0.2853265 0.13158417 0.2135947 -0.0038160966 0.2423129
-0.124800615 -0.16179584 -0.00973564 -0.0644355 -0.20470637 -0.20276468 0.09544222 -0.002510051
0.2719392 -0.13737783 0.086484365 -0.12102083 0.1420349 -0.06676379 0.17700562 0.12151334
0.17761165 0.15546507 -0.0069224755 0.18974668 -0.125845 0.26501477 0.29067636 0.15823469
-0.12772173 -0.15794446 0.07646193 0.08089696 0.09659749 0.021912549 0.19825384 -0.116148
-0.11411346 0.042836443 -0.0045695473 -0.1482768 -0.02317724 -0.19967838 -0.10013211 -0.06532217
0.22595866 -0.2222571 -0.13436386 -0.22903806 0.07308757 -0.2404227 0.123849265 -0.19574812
-0.16888581 -0.17238672 -0.021789666 0.22006345 0.21224204 -0.089066274 -0.29806668 -0.12249176
-0.14366952 -0.050171815 0.026865555 0.107698604 0.11461677 -0.0028310248 -0.16498208 -0.08169877
-0.03850267 -0.12312471 -0.08016476 -0.046375215 -0.26887387 0.124625474 -0.04235979 -0.24705262
0.20435727 -0.1358343 0.035395436 0.24475917 -0.031907562 0.046050716 0.104185484 0.08048447

weight f4 [128, 128]
00000000: 5432 b7bc 1cd3 c2bc 3bd2 193d 55e7 b83d
00000010: 4069 19bc 1ffd 4f3d 55ad c73c ad14 af3c
00000020: 7353 52bd 6629 cb3c 21c7 c9bd 6776 a8bd
00000030: 7887 a1bd 6569 843d 19a5 9c3d 498f 46bc
00000040: 8776 dabb 30ad 7b3d 8e60 2abd c80f 96bd
00000050: 6f56 58bd db60 00bd f102 88bd 4707 e1bc
00000060: a907 e7bc e05e e33c 18b9 07bd fd80 043d
00000070: 32de d23d a38e fcbc e69f 2b3d d9db b93c
00000080: 6c60 f73d 403a 5e3c d12b 7dbc 416d 02bd
00000090: be0c f83d 0306 28bd 0eb6 28bd 6619 093e
000000a0: 041d eb3d 1d8b 29bd 9954 89bd 49df 613c
000000b0: 46b1 1bbd 0a4b ccbc 01d6 cbbc 5460 5dbd
000000c0: 4d1e 3abd fc8d 8ebd 11a6 d6bd dca9 b5bc
000000d0: 220f 563d bac6 73bd 1d6a 7abc f176 bbbc
000000e0: 3734 9c3d 90cb 223d 5a3b d33c f59b b6bc
000000f0: 6fe8 72bd 16c8 35bd c07d 6d3d 9224 4cbb
00000100: 1200 75bc ae6d 23bd 7c8d 223d 5d10 a3bd
00000110: f05a 933d 8c31 9c3d fc9c abbd 6516 20bd
00000120: 0743 d63d b970 42bd 2cc2 47bb 64d7 a63d
00000130: 4f66 d9bb 5e10 93bd b706 0bbd ec2e a33d
00000140: c6f4 a33d 4ce1 c43c ea14 a83c d751 8c3b
00000150: 061a c03d ffc0 24bc a61f 743b dc82 883c
00000160: c519 61bd 2630 bc3d 6aa0 c0bd d806 7f3d
00000170: e896 0dbd 4b63 f5bc 55f2 c53d 3b0b d63c
00000180: f995 b53b f9b0 323d 19b0 94bd 3a42 4abd
00000190: 3fec 43bd aa12 a2bd 6e97 483b a308 dc3c
000001a0: d72f 813d 5cec 7f3b a2a5 8e3c bff6 83bd
000001b0: eb6b 45bc 9f50 bf3c b2b6 133b 7821 e43d
000001c0: 5924 56bd 645f bf3c 747d a3bd c889 393d
000001d0: 1b67 40bd c02d 8abd cce2 a13d eaca 1abe
000001e0: 271f 31bd ab91 c73c f705 c13d 68ae dc3d
000001f0: e361 e33c eed9 ddbc 1c7c aa3d fdb1 6bbd
00000200: 35e5 b9ba 0b9c ddbc fac7 c9bd 9bd7 6f3d
00000210: 087a a3bc 32c3 c53a 37aa 33bc 8ad0 e1bc
00000220: e2bf de3d bc8b d93d 61a7 85bd 20e1 e03c
00000230: 846e 6c3c bcae 563d 1ea6 80bd 3d33 003d
00000240: d7dd b03d 0ecc 953d c151 7fbd cdcd 1ebd
00000250: 6ade f3bd aa1e 33be 2898 4dbd bb7d 0d3d
00000260: 3441 c5bd 24cd 443c 6227 643d 063f 72bc
00000270: cdda 723c 3bfc 8abd ea99 0bbd 97e5 bfbd
00000280: 6568 9ebd 59b0 8abd d24a a7bd 13e5 ae3d
00000290: cfd7 7dbd ffea 9dbc 2a37 2fbe e842 583d
000002a0: ae4c 05be 862c 263d 0e46 b2bc 1c57 a4bd
000002b0: 142c 913d dbca edbc 752a ecbc bfae ebbc
000002c0: c646 8f3c da14 b7bb 89e5 1cba b9bd d03d
000002d0: 4444 18be ddf3 5cbd 98ab bfbc ae85 5dbc
000002e0: 1d11 0a3e d48d c13d 5b5d 82bb 6119 cdbd
000002f0: 1221 793d 6d8a f73c 2a9c 243d ae93 0bbd
00000300: e452 843c a6fd 9d3d ac12 773d e526 25bc
00000310: abe1 82be c444 92bd 2bc1 483c 419c 5d3c
00000320: b6ce 383c 97a8 953d ff9d d7bd 3b52 86bc
00000330: 2899 54bc ceeb 8b3d 0874 4e3d 20f9 213d
00000340: 2cd5 813d 0650 c4bd 0ef7 8fba 601a 933d
00000350: 2b06 7fbd c71c 823d b4ca 2fbd c475 a3bd
00000360: af77 133e c5b4 d5bd 45c5 013e 2703 483c
00000370: aefa 5dbd 166d 243d 4b34 cebd a0c6 b63d
00000380: 7619 c6bc b4f8 15bd da89 d33a fdf1 fdbc
00000390: 290d c0bd ee25 b3ba c325 933d f96a a53c
000003a0: 9c65 423d 43cf cb3c cc6a 983c ca44 47bd
000003b0: 4647 e33c 79e1 aebd d458 99bc 90d9 edbc
000003c0: 6660 8a3d adef 053d 7f4a a1bc d511 70bd
000003d0: da6c d5bd fdea 52bc 4d09 94ba 5747 5d3b
000003e0: 7d61 99bd 2b74 1d3d 79ef 843c c45e 1cbd
000003f0: ba72 d73d d071 fdba c88a 3bbd f40a 123d
-0.022362866 -0.023782305 0.037554007 0.09028498 -0.009363472 0.050778504 0.024374643 0.021372164
-0.051349115 0.024800014 -0.09852434 -0.082257085 -0.07887167 0.06465415 0.076486774 -0.012119123
-0.0066669616 0.06144446 -0.041595988 -0.07327229 -0.052816804 -0.03134237 -0.06641186 -0.02746929
-0.028201895 0.0277552 -0.033135504 0.032349575 0.10296287 -0.030829733 0.041900538 0.02268784
0.12078938 0.013563693 -0.015452341 -0.031842474 0.121118054 -0.04102136 -0.041189246 0.13388595
0.11480144 -0.041392434 -0.06705589 0.0137861455 -0.038010858 -0.024938125 -0.024882318 -0.054046944
-0.045439053 -0.06960675 -0.104808934 -0.022175722 0.052260526 -0.059515692 -0.015284088 -0.022883864
0.07627147 0.039744914 0.025785137 -0.022291163 -0.059303697 -0.04438027 0.057981253 -0.0031149727
-0.01495363 -0.03989952 0.03968571 -0.079621054 0.07195079 0.07626638 -0.08379552 -0.039083857
0.10462003 -0.047470782 -0.0030480726 0.08146551 -0.0066345106 -0.07180856 -0.03394195 0.07967934
0.08005671 0.024033211 0.020517785 0.004282217 0.093799636 -0.0100557795 0.003725031 0.016663961
-0.054956216 0.09188871 -0.094055966 0.062262386 -0.034567744 -0.029954573 0.09665362 0.026128402
0.00554156 0.043625806 -0.072601505 -0.049379565 -0.047832724 -0.07913716 0.0030607837 0.026859587
0.06307953 0.0039050793 0.017412964 -0.064435475 -0.012049655 0.023353873 0.0022539315 0.11139196
-0.052280758 0.023360915 -0.07982913 0.045297414 -0.04697333 -0.06747007 0.07904586 -0.15116468
-0.0432426 0.024361452 0.09424966 0.10775453 0.027756637 -0.027081456 0.08324453 -0.05754279
-0.0014182689 -0.027051946 -0.098525956 0.058555227 -0.01995565 0.001508808 -0.010965875 -0.02756526
0.108764425 0.10622355 -0.065260656 0.027451098 0.014430646 0.052412733 -0.06281684 0.031298865
0.086360626 0.07314311 -0.062333826 -0.038770486 -0.119076565 -0.17492166 -0.050193936 0.034543734
-0.09631577 0.0120118 0.05570162 -0.014785534 0.014822674 -0.067863904 -0.03408233 -0.09369963
-0.077347554 -0.06771917 -0.08168568 0.08539786 -0.06197339 -0.019277094 -0.17110887 0.05279818
-0.13017532 0.040569805 -0.02176192 -0.08024427 0.07088485 -0.029027393 -0.028828839 -0.028769849
0.017489802 -0.0055872025 -0.0005985131 0.10192437 -0.14869791 -0.053943504 -0.023397252 -0.013520641
0.1348309 0.0945088 -0.003978414 -0.10014606 0.060822554 0.030217374 0.040187992 -0.034076385
0.016152807 0.07714395 0.06032054 -0.010080074 -0.25562796 -0.07142022 0.012253086 0.013526023
0.0112797525 0.073075466 -0.10528182 -0.016396632 -0.012975968 0.068320855 0.050403625 0.039544225
0.063394874 -0.09585576 -0.0010983662 0.07182765 -0.06226174 0.06353145 -0.042917922 -0.079814464
0.14401124 -0.1043487 0.12672909 0.012207783 -0.054194145 0.040143095 -0.10068568 0.089246035
-0.024182063 -0.036614135 0.0016139105 -0.030999178 -0.0937751 -0.001366792 0.07184937 0.02019261
0.047460184 0.024879104 0.018605612 -0.048649587 0.027743947 -0.08539099 -0.018719114 -0.029034406
0.06756668 0.032699276 -0.019688843 -0.058610756 -0.104211524 -0.012873408 -0.0011294276 0.0033764446
-0.074892975 0.038440865 0.01622747 -0.038176313 0.10519929 -0.0019336287 -0.04578665 0.035654977

bias f4 [128]
00000000: c692 ae3d 8f1b 153c 3f76 c23d da10 cd3d
00000010: 6909 853d f596 55bd 42b9 b4bc f18f ab3b
00000020: 907d 343d 9db2 593c 38a6 953d 19f8 97bb
00000030: 8277 773d a03f 60bd 8de4 04bc bcd8 ad3d
00000040: 8f33 56bd be2b e2bc 3c19 17bd ec61 9fbd
00000050: a178 9fbd d007 0a3b 67b1 9c3a 922e 6f3c
00000060: 81ff 223c 2077 9f3d 80a4 813d 9ffb 9c3d
00000070: 0861 a3bb e44d 133d bd5f 89bd ce04 923d
00000080: 5ff4 433d 2437 d83c ae5f 15bd 4727 c33d
00000090: 29a1 b1bd 90ca 663d afd2 693d 940a 233d
000000a0: 6c16 9c3d 2971 9ebd d196 ba3d 0625 c23d
000000b0: d2f2 4ebc b134 b13d 5f84 a4bc 913a 7cbd
000000c0: c07a a83d 4af7 6c3d d18c 773d 0018 3a3d
000000d0: 6625 8dbc 832c 86bc bd50 203d 8cab 54bd
000000e0: 87dd 903d 5815 083d d500 843c 0a2e c8bd
000000f0: 8ae8 e4bc f5ef 43bd 6851 7abd bc82 d33d
00000100: 005f dd3c c44e 66bd dd51 05bd 31f5 a93b
00000110: 6d88 9d3d 3d7d 51bd 3754 493d 0687 173d
00000120: 88d1 1cbd d326 91bd e824 823b b928 b23d
00000130: 9cfb 2cbc f6ad 91bd 822c 093b ef43 52bc
00000140: 6828 76bd 35d7 8f3c 0e15 ab3d 93aa a0bd
00000150: 12c6 c53c 9a2e 57bc 4b22 35bd 8b4a a53d
00000160: 9d59 dabc bc44 e93d c10f 9bbd 6df1 503c
00000170: 89a6 c5bb 797c 283d 1ec8 d3bd a404 ed3c
00000180: 8d0d b9bd 4858 843d bdf9 a5bd db37 c13c
00000190: 6923 98bd f717 8fbd dde1 953c af6a 723d
000001a0: 3b8a 8b3d 5883 87bd 5b2c 2abd 64ad b93d
000001b0: dc18 123d c403 833d afd6 433d db48 1ebd
000001c0: 9fad 1fbc 77ba 153c 1df6 9cbd 0cb7 97bc
000001d0: 4db8 ad3d ab0c 43bd 409a c7bc a0c9 56bd
000001e0: ea3d 9aba 74d1 bbbc 355a 90bd da8b 6c3d
000001f0: 8878 b7bd e0a7 2dbd 570e 54bd 3b5e 01bd
0.085240886 0.009100809 0.0949521 0.1001298 0.064959355 -0.052145917 -0.022060994 0.005235665
0.04406506 0.013287214 0.07307094 -0.00463773 0.060416706 -0.054748178 -0.008111131 0.084886044
-0.052295264 -0.027608749 -0.0368893 -0.07782349 -0.0778668 0.0021061786 0.0011954725 0.014598506
0.009948612 0.07786393 0.06330204 0.076651804 -0.0049859323 0.035962954 -0.06707714 0.07129823
0.047840472 0.02639348 -0.0364682 0.09528976 -0.08673317 0.056345522 0.05708569 0.03980501
0.07621464 -0.07736427 0.09110797 0.09479718 -0.012631135 0.08652628 -0.02008265 -0.06157929
0.08226538 0.05785302 0.060437027 0.045433044 -0.017229747 -0.016378647 0.039139498 -0.051921412
0.07073503 0.03322348 0.016113678 -0.09774406 -0.027942915 -0.047836263 -0.06111279 0.1032767
0.027022839 -0.05622746 -0.032548774 0.0051867 0.07692037 -0.051144827 0.04915258 0.036994003
-0.038285762 -0.07087483 0.0039716847 0.086991735 -0.010558035 -0.071132585 0.002093107 -0.012833579
-0.06009713 0.017558673 0.08353625 -0.078450345 0.024142299 -0.013133669 -0.044222157 0.080708586
-0.026654059 0.11390063 -0.07571364 0.012752873 -0.0060318154 0.04113433 -0.10340904 0.028932877
-0.09035788 0.06462151 -0.081042744 0.023586204 -0.07428629 -0.06986993 0.018296177 0.059183773
0.06813475 -0.06616849 -0.041546207 0.09066275 0.03566824 0.063972026 0.04781216 -0.0386437
-0.009745984 0.009138695 -0.0766413 -0.0185199 0.08482418 -0.047619503 -0.024365544 -0.05243838
-0.0011767719 -0.022927023 -0.070484556 0.05775056 -0.089585364 -0.042396426 -0.051771488 -0.031584006

weight f4 [128, 128]
00000000: e863 663d e05b 8fbd 1870 1fbd 78e2 0fbd
00000010: c125 e33a 1381 b93c be34 c13d 610e 433d
00000020: ac19 b6bd 811f 26bd 7f5e 443d 5175 5a3b
00000030: 9d59 dd3d b9f3 67bd 8233 bcbd 38eb 98bd
00000040: c7e8 5f3b beae da3d 16d7 33bd a8f9 18bd
00000050: 7ab8 683c 0254 283d 8887 7cbd 3030 e53c
00000060: 2c42 37bd d90b 8dbd d6b7 54bc a790 e7ba
00000070: 4500 8fbd 4aff 913d bf35 143d 1dce a03c
00000080: 4938 6a3b e8da 1bbd d29a bc3d e442 bd3c
00000090: c212 2e3d 9a0e 0a3c 4498 e6bd f73b 86bd
000000a0: cce4 c9bb f434 e2bd 2a23 183d 542e b8bc
000000b0: aa23 883c 3424 333d d93a d5bc 1c93 05bc
000000c0: 183e f1bc 81ae 93bb 91b8 9e3d f2c5 203d
000000d0: 190b 8e3d f3c0 3f3d b7c4 90bd 87a8 1fbc
000000e0: 68d0 f1bc 36b0 ab3d 857f d13c 0162 543d
000000f0: 755f 4abd f3d9 c63c 0d44 df3c a419 ad3d
00000100: baf7 923d 4a02 eebc 3478 833d 1e21 943c
00000110: 63c6 7d3d 772f 073d c2cb 9dbd ae64 f63c
00000120: c3c1 8bbd 5f23 293d 567e 17bd 4ca5 fbba
00000130: 4202 87bc eb7d 96bc cfe6 2abd a642 1c3d
00000140: 535c 80bd 1b78 e0bb d33c 833c a20d 703d
00000150: e5f8 be3d 2750 febc a791 883d e922 bdbd
00000160: 8de6 75bd be54 22bd 249e bebd fa32 4c3d
00000170: 386c 14bd f72a f4bc 99ed d03d 5b66 0e3d
00000180: 4c9e 0c3d 643d 093d c461 84bd 0b34 1dbd
00000190: 5f55 f03d d895 b1bd 0f55 08be ad90 363d
000001a0: 8b20 6b3d cc85 7f3d 6c61 a2bc 2318 8c3b
000001b0: 591b 2bbd 155f 9a3d a222 a2bc 80c2 79bd
000001c0: 30c0 863d 2a61 b83d 4476 bd3d b311 d3bc
000001d0: 8868 8a3c 310d d3bd 486e bc3d e771 94bd
000001e0: 85e0 24bc f8b7 96bc 49e1 d23c 5638 473d
000001f0: 5606 c039 47eb 04bd 432d c53d d84c 433c
00000200: e67c 403d af10 cabd 3861 0a3d 244a 293d
00000210: c1b3 1e3d a73b a33d 433c f03c bac2 b53d
00000220: 94e0 d33b cc49 223d 7ab8 bd3c aa40 d6bc
00000230: c6e0 b33d 514c 863d 0698 0dbe 7339 4f3c
00000240: 26c6 c9bd 795c 6c3d 62f4 b6bd 4608 bbbd
00000250: 42c4 96ba 7baa ca3c 585a de3d 17fa 083e
00000260: 9983 12bd 30e7 6d3d cad2 d33c f36c 3dbd
00000270: 6681 a23b fb4b 59bc eea7 913b de5f 70bb
00000280: f300 08bd 3375 3dbd 7f97 ad3c ac5f 3f3d
00000290: 6efd 24bd b07b ee3c 25b1 9b3d 3edf 87bc
000002a0: 31d7 74bc 8996 b93d 0b81 65bd c181 003d
000002b0: a666 27bd b5f1 7cbd aa33 9cbd 4144 bf3c
000002c0: 8129 463d 5799 8bbd 348a aebb 5821 9d3c
000002d0: f606 1ebb de8d b73c e803 86bc d84f cc3d
000002e0: 072b e3bc b9ca 1b3d 5143 273e ea70 9fbd
000002f0: a3a5 a4bc 5f93 053d 7a39 f63c f473 853c
00000300: baae 38bc 6ab0 3bbb 4bb1 1ebd 2e83 2fbd
00000310: fa98 013d 1b94 81bd d0ab 9fbd 6d04 293d
00000320: a9f7 dbbd 1648 7cbd 45a6 51bd e9db 843d
00000330: 23e2 cdbd ffcd 9cbd f285 a43d 11a4 93bd
00000340: e9ab 8abd c1a4 373d 9c11 b4bd d7b2 003e
00000350: 09de a63d 1c3c eabc ae44 80bd 6818 71bd
00000360: cb4c bebd 5b03 acb9 842e f0bb 0a25 373d
00000370: 7555 60bd 5c04 38bd baa3 37bd 9835 1e3d
00000380: 77d1 9f3d c45d 783d d47a 26bc 6c6e 3fbd
00000390: a805 d83d 013f cfbd 4bf7 31bd f646 ecbc
000003a0: 9d95 22bd ca8a 44bd 37cc bb3b 8a83 87bd
000003b0: 3c1b 68bd 837a ff3d 80d8 31bc f676 a73c
000003c0: 6f1d 523d c7e8 a03d 256f 683d a56f 63bb
000003d0: d056 bb3b bf19 80bd 8d62 153e 215a d33b
000003e0: 949d 8e3d c3d7 8a3d 2a7d 78bc 08a4 a3bd
000003f0: fff0 053e 2590 debd 6431 5b39 147d 52bd
0.05624762 -0.06999946 -0.03892526 -0.035128087 0.0017329977 0.022644555 0.09433888 0.047621135
-0.08891615 -0.04055739 0.04794168 0.0033334086 0.10808108 -0.056628916 -0.09189512 -0.074667394
0.0034165846 0.10677861 -0.043906294 -0.037347466 0.014204139 0.04109574 -0.06165269 0.02797708
-0.04474084 -0.068870254 -0.012983283 -0.0017667011 -0.06982473 0.07128771 0.03618407 0.019629532
0.0035739115 -0.038050562 0.09209217 0.023103185 0.042498358 0.008426333 -0.11259511 -0.06554406
-0.006161308 -0.11045256 0.03714291 -0.022483028 0.016618568 0.043735698 -0.026029037 -0.008152749
-0.029448554 -0.0045068865 0.07750047 0.039251275 0.069357105 0.04681487 -0.070687704 -0.00974477
-0.029518321 0.08383219 0.025573501 0.051851276 -0.04940744 0.024273848 0.027254129 0.08452156
0.07176156 -0.029053826 0.06419411 0.018082198 0.061956774 0.03300425 -0.07704879 0.030077305
-0.068240665 0.041293498 -0.036985718 -0.0019199043 -0.016480569 -0.01837059 -0.041724022 0.0381495
-0.062676094 -0.006850255 0.016020214 0.05860675 0.093248166 -0.031044079 0.06668406 -0.09235174
-0.060034323 -0.039631598 -0.09307507 0.049853303 -0.036236018 -0.029805643 0.10201568 0.034765583
0.03433065 0.033505812 -0.0646396 -0.03837971 0.11735033 -0.086711586 -0.13313697 0.044571567
0.057404082 0.062383458 -0.019821845 0.0042753383 -0.041774128 0.07537667 -0.019791905 -0.060976505
0.065796256 0.090029076 0.09251073 -0.025765276 0.016895548 -0.103052504 0.09200722 -0.07248288
-0.010063295 -0.01839827 0.02574219 0.04863771 0.00036625814 -0.03245094 0.096277736 0.011920176
0.046994112 -0.098664634 0.03378412 0.04133047 0.038745645 0.07970362 0.02932561 0.08875032
0.006465981 0.03962116 0.023159254 -0.026153881 0.087831065 0.06557525 -0.13827524 0.012647974
-0.09852247 0.057705376 -0.08933331 -0.091324374 -0.0011502581 0.024739495 0.108570755 0.13376652
-0.035770033 0.058081806 0.025857348 -0.04624648 0.004959273 -0.013262744 0.0044450676 -0.0036678235
-0.03320403 -0.046254348 0.021190403 0.0467221 -0.040280752 0.029111713 0.07602147 -0.016585942
-0.014943884 0.090619154 -0.056031268 0.031373743 -0.040869378 -0.061753947 -0.07627042 0.023347976
0.048379425 -0.06816357 -0.0053265337 0.019180939 -0.0024113036 0.022406515 -0.016359285 0.099761665
-0.027730478 0.03803513 0.16334273 -0.077852085 -0.020098513 0.032611247 0.030056704 0.016290642
-0.011272127 -0.0028639087 -0.0387433 -0.042849712 0.03164003 -0.06327077 -0.077964425 0.041263986
-0.10740597 -0.061592184 -0.051183958 0.06487257 -0.10052898 -0.07656478 0.080333605 -0.072090276
-0.067710705 0.044834856 -0.08792421 0.12568222 0.081478186 -0.028593116 -0.062630996 -0.058861166
-0.09291991 -0.00032808897 -0.007329764 0.044713058 -0.054769 -0.044926032 -0.044833876 0.03862533
0.07803624 0.060636297 -0.01016112 -0.046736166 0.10547954 -0.10119439 -0.043448728 -0.02884243
-0.039693464 -0.047983922 0.0057311314 -0.06616886 -0.056666598 0.12474539 -0.01085484 0.020442467
0.0512976 0.07856899 0.05674662 -0.0034703996 0.005717136 -0.06254911 0.14588375 0.006449953
0.069636494 0.067794345 -0.01516656 -0.07990271 0.13080214 -0.10867337 0.00020903867 -0.051388815

bias f4 [128]
00000000: 921d c23d 57a3 1dbd 0acc 133d 554f c9bc
00000010: 0fd0 56bb 5cbd 94bd d6aa 763d 7d84 263d
00000020: e92c 943d fbe3 f53c 999f 10bd febe c5bc
00000030: 43c8 b43d e380 99bd b801 b3ba cce6 aabc
00000040: 46a5 283d 3ca8 6cbc e52e ac3c 0505 243d
00000050: c3c7 ffbc 9ccb c23d 0261 33bd a016 ca3d
00000060: 8813 05bb f1be dbbb abec 403d 7079 b9bc
00000070: de15 653d b457 453d b55b 68bd 752a 18bb
00000080: 8d91 033d ffbe 093c f3ad 1a3b 63f9 8e3d
00000090: 3b19 afbc 1dd5 933d f499 02bd c426 8abc
000000a0: 073e bfbc 0043 cbbb f591 fdbc afdf 433b
000000b0: c416 45bd 422c bb3d 97f6 5dbd 7dcf 07bd
000000c0: 68aa b93d d384 62bc 94ab 8f3d 28d1 d23c
000000d0: ff34 a13d bef1 99bd a61f 113d 4913 91bd
000000e0: 8a83 ea3c 6af4 693c e9ae 43bd 3a52 003e
000000f0: c366 883a bda1 a8bb a050 633c 2c86 ba3d
00000100: 7ff8 65bc e4f9 063e fee5 d7b9 3b92 a43d
00000110: fedd c03d 3958 54bd 8b49 90bd a9fd 533c
00000120: 0655 373d c701 153d c07f 893c fe56 9ebc
00000130: ae34 ab3d 94aa 283c cd00 96bd 6a84 c63d
00000140: d944 3bbd a6c9 8b3d 0665 dc3d 2977 c8bc
00000150: 1bb2 9e3d 1300 c03d beee 87bd 2c39 87bc
00000160: 10ea 833d fede 11bc 3faa 803d cd17 573c
00000170: 53ed bc3d 9d39 25bd a1d1 313d 76b8 e03d
00000180: 25a6 94bd 5720 aa3d f2a9 443d cbb8 1e3d
00000190: d785 98bd b76b 9a3d 44c6 a43d 3f76 993d
000001a0: fce5 2cbd 01cd c0bd 9fbc 93bd 076a 5c3c
000001b0: bf56 b53d 64ca 053c b5cf ac3d 48d7 8cbd
000001c0: a233 edbc ae1d 023c d01d a93d 4e7e 853d
000001d0: f3c0 c0bd e2b5 de3d 139c ea3c 3569 5cbc
000001e0: 31ed 763d b680 f93a 0c91 253c 90ec 04bd
000001f0: 3c6b 803d 45f8 b93d 38ef 333d f955 90bc
0.09478296 -0.03848585 0.03608326 -0.024573961 -0.0032777821 -0.0726268 0.060221516 0.040653694
0.072351284 0.030015936 -0.035308454 -0.024138924 0.088272594 -0.07495286 -0.0013657128 -0.020862006
0.041173242 -0.014444407 0.021018455 0.04004385 -0.031223183 0.09511492 -0.043793686 0.098675966
-0.002030583 -0.0067061116 0.047100704 -0.022640914 0.055929057 0.048179343 -0.056728084 -0.0023218666
0.03212123 0.008407353 0.0023602217 0.069811605 -0.021374336 0.072183825 -0.031885102 -0.016864188
-0.023345007 -0.0062030554 -0.030953387 0.0029887964 -0.048117414 0.09139301 -0.054190245 -0.03315686
0.090657055 -0.013825613 0.07015148 0.0257345 0.07871436 -0.07516812 0.035430573 -0.070837565
0.028627176 0.014279464 -0.04777423 0.12531367 0.0010406602 -0.005146234 0.013874203 0.091076225
-0.014036297 0.13181263 -0.00041179353 0.08035704 0.09417342 -0.05184195 -0.07045277 0.012938895
0.04475882 0.036378648 0.016784549 -0.01932859 0.08359657 0.010294575 -0.073243715 0.09693225
-0.045719955 0.06825571 0.10761456 -0.024470882 0.07748815 0.09375014 -0.06637333 -0.016506754
0.06441128 -0.008903263 0.06282472 0.013128233 0.092249535 -0.040338147 0.04341281 0.10972683
-0.07258252 0.083069496 0.048013635 0.03875045 -0.07447403 0.07540076 0.08045629 0.07493257
-0.042211518 -0.094141014 -0.07213711 0.013453013 0.08854436 0.0081659295 0.084380545 -0.06876999
-0.028955285 0.0079416465 0.082576394 0.06518231 -0.09411802 0.10874535 0.028638875 -0.013452818
0.060284797 0.0019035551 0.010105383 -0.032452166 0.06270453 0.09080557 0.04392931 -0.01761912

weight f4 [128, 128]
00000000: b709 0f3c 8b43 fcbc 5624 b43d 4ff0 633d
00000010: e4eb 21bc 095b 913d e0f6 d13d 5fc0 8e3d
00000020: 2eff 6dbb d82b 4d3b 8bbe b2bb 5bb1 dc3d
00000030: b7cb 23bc ba7f bebd 67c0 23bd f98d 42bd
00000040: 2df2 843b 9ce1 033d f0c3 963d e2be 713c
00000050: 94c6 813c 13ff 173d 6064 863c e14e ab3d
00000060: 1247 c53d 7d24 9bbd d6fd 35bd dc49 e2bd
00000070: bcb8 063e b05f 1fbd e1d4 6dbd 18a1 0bbd
00000080: 2eb5 36bd 015b e93d 9e4b 35ba a37f dfbc
00000090: 90cf 7b3d 0cf2 d7bb 56c9 083b b5a4 4fbc
000000a0: 9862 ad3c 9bab 4e3d c322 8ebc 232a ab3d
000000b0: b65b f1bc 1b28 0aba 11c8 943c 79a8 05be
000000c0: ce2d 183e cfa9 01bd a1fb 43bd e76d 5e3d
000000d0: b2f2 a33b 32b9 c23c cd01 2f3d 6a32 e53d
000000e0: 390b 46bd be80 5a3d 753b 7e3d b0b9 acbc
000000f0: 13d3 c43d 63ec a9bc 5d8f ca3c 5be0 1f3d
00000100: 0de8 abbc 454c 063d df02 bf3d 2733 93bd
00000110: 5135 d03d 1acc 0dbb f655 0bbd 0a31 38bd
00000120: ec6c 8a3d 69c6 16bd cb74 af3d 3391 e53b
00000130: 40c7 aa3b 26db 0abd e2d1 85bc 9831 d93d
00000140: 1fae 043d 0575 893b c749 153d dc6e ef3b
00000150: 93a1 403e a630 b53d 323b f5bd cab7 803d
00000160: 98d3 39bd 452a 60bc 19c4 c03d 920a 8937
00000170: 7cd0 e23d 11e6 ccbc 6777 eabb cea7 2dbd
00000180: 4ae8 d43d 9683 3abd 8934 28bd 2862 fcbc
00000190: 73dd 1e3d 6c79 c83d 91da b83d 6a16 72bc
000001a0: 06a9 833d dbf3 3abd 828d e2bc 6680 833c
000001b0: 0c40 14bd 4781 8f3d f482 b1bc 898b 1dbd
000001c0: 82b2 983d 0828 3a3d e7d7 f73c 7831 0bbd
000001d0: f187 bf3b 6494 053e 155a ddbd 1889 9d3d
000001e0: 232a 97bc dd5a e53d 84ca b6bc a30c a23c
000001f0: 0e73 9abd 1aca b33d 83ac 973d 0fbb 873c
00000200: 3885 d63c dcc9 9d3b a40e aabd 32b0 f03b
00000210: 5cc8 06bd 104c 913d 4cab aebd bdb9 0dbc
00000220: 9084 31bd d6fb aabd 94c5 86bd 5296 97bd
00000230: b1c0 bdbc 7e7d a23d d070 b63c aa4c bbbc
00000240: 4a07 85bd 1612 79bd 2483 5ebd df07 26bd
00000250: 1ac2 2bbd ed6c 18bc 2efb 0dbb c719 52bc
00000260: f6ca 8cbd 12a8 9bbd db43 7ebd 4c01 15bd
00000270: 6832 9b3d 2e8b 64bd 2a21 3d3d ee58 9c3d
00000280: 63ac 243d 9df2 9dbd 915f dabd fd37 673c
00000290: df9f b0bd 897b f03b 8797 443c 6671 5cbb
000002a0: 8ed3 1abd eccf 2d3d e797 613d 75af 9ebd
000002b0: a55f a603 2f8c 5ebd 964f 7dbc 20be 133d
000002c0: 78a2 e5bc 132c 0d3d a591 8fbd 8258 6839
000002d0: 9e7a e8bc 7ef1 7a3d fc97 bebc 6759 d2bc
000002e0: 36fa e03c 542c 3bbd 0548 66bc 6871 563b
000002f0: cf51 753d 7d8d 8ebd b07f 36bc cad2 d63c
00000300: c6de 823d ff5d 933d 285e 6c3c 4ed7 1bbd
00000310: 1083 e33c 896a 6cbd fdf1 ffba 7589 67bd
00000320: 4982 9fbd 564c 5a3d 96ff b63c 16b9 7c3c
00000330: e81b a93b f130 94bd 5bf0 8f3d f0e4 67bc
00000340: 5d11 2d3d 36fb 2f3d d0a0 98bc 1675 453d
00000350: 79b0 733d fb83 9f3d 122f 26bd 9917 083d
00000360: 788f 823d 128e babd dd6d 01bc ae6c 3b3a
00000370: d1ce a7bc 0b97 213c 6109 e6bc 313b 0ebd
00000380: 9873 8ebd f081 afbd dc75 9a39 2eea 5f3d
00000390: 8bef 52bb f4db 02bd b1e1 04bd fe74 1b3d
000003a0: fca4 2c3d 5055 4d01 25e1 a1bb e052 033d
000003b0: 9707 f73b 9b6b 47bd 033c 84bd f1bf a6ba
000003c0: 0a27 6e3d 4842 053d e980 413c 4785 293d
000003d0: d9fa 733d 040c 12bd 50eb 4e3d f369 92bd
000003e0: c4fb 37bd a3d4 2abd a540 833d b344 64bd
000003f0: e4fb b2bd 90de 343d 06ed 163d 1378 a8bd
0.008730344 -0.030793926 0.08795993 0.055649098 -0.009882901 0.07097442 0.10252166 0.069702856
-0.003631543 0.003130665 -0.0054548434 0.10776015 -0.0099973 -0.09301706 -0.03997841 -0.047498677
0.00405719 0.03219758 0.07361591 0.014754983 0.01584176 0.037108492 0.016405284 0.08364654
0.09632696 -0.07575319 -0.04443153 -0.11049244 0.13156408 -0.038909614 -0.058064345 -0.034089178
-0.04460638 0.11394311 -0.000691587 -0.027282542 0.061477244 -0.0065901335 0.0020871959 -0.012673547
0.021165177 0.050456624 -0.01735056 0.08357646 -0.029462676 -0.00052702584 0.018161805 -0.13052548
0.14861223 -0.031656083 -0.047847394 0.05430403 0.005003297 0.023769949 0.042726327 0.11191256
-0.048350547 0.053345434 0.06206842 -0.021084636 0.09610572 -0.0207426 0.024726564 0.03903232
-0.020984674 0.03278758 0.093267195 -0.07187491 0.10166419 -0.0021636547 -0.034017526 -0.044968642
0.067590564 -0.036810312 0.08567198 0.0070058345 0.0052117407 -0.033900402 -0.016335431 0.106051624
0.032392617 0.004194858 0.036447313 0.0073069166 0.18811636 0.088471696 -0.11974181 0.06285055
-0.045367807 -0.013681953 0.09412403 1.6336595e-05 0.110749215 -0.025012048 -0.007155347 -0.04239636
0.10395868 -0.045535646 -0.041065726 -0.030808523 0.03878541 0.097887844 0.09026063 -0.014775852
0.06428723 -0.045642715 -0.027655367 0.016052436 -0.036193892 0.070070796 -0.021668889 -0.03846315
0.07455923 0.045448333 0.030254317 -0.033982724 0.005845063 0.13044888 -0.108081974 0.07692164
-0.01845271 0.111989714 -0.022313364 0.019781416 -0.07541476 0.08778782 0.07405951 0.016568689
0.02618657 0.0048153233 -0.08303574 0.007345223 -0.03290592 0.07094586 -0.08528766 -0.0086502405
-0.043339312 -0.08348815 -0.06580654 -0.07401718 -0.023163171 0.07934092 0.02227059 -0.022863705
-0.06495531 -0.060808264 -0.054324284 -0.04053485 -0.041933157 -0.009303314 -0.0021664607 -0.012823529
-0.06874649 -0.07600416 -0.06207643 -0.03637819 0.075779736 -0.055796795 0.046174206 0.076341495
0.040203463 -0.077122904 -0.10662759 0.01411247 -0.08624243 0.0073389453 0.011999018 -0.0033636927
-0.03779941 0.042434618 0.055076506 -0.077483095 9.778562e-37 -0.05433291 -0.015460869 0.03606999
-0.028031573 0.03446586 -0.07010201 0.00022158216 -0.02837878 0.06126546 -0.023265831 -0.025677396
0.02746306 -0.04569657 -0.014055257 0.0032721404 0.059892472 -0.069605805 -0.0111388415 0.026223559
0.06390147 0.07195663 0.0144267455 -0.038047127 0.027772456 -0.057718787 -0.0019527074 -0.056527574
-0.07788522 0.053295456 0.02233867 0.015424987 0.0051607974 -0.07235897 0.07028266 -0.014153704
0.042252887 0.042964183 -0.018631369 0.048207365 0.05949447 0.07788845 -0.040572233 0.03322563
0.06375021 -0.09109129 -0.007899729 0.00071496784 -0.02048436 0.009862672 -0.028080644 -0.034724418
-0.069556415 -0.085697055 0.0002946098 0.05466669 -0.0032186236 -0.031948045 -0.0324418 0.03795337
0.04214953 3.7713762e-38 -0.0049401694 0.032061458 0.0075387466 -0.048686605 -0.06456759 -0.0012721998
0.0581427 0.032533914 0.01181052 0.04138687 0.0595654 -0.03565599 0.05051738 -0.071491145
-0.044917837 -0.041706692 0.06408814 -0.05572958 -0.087394506 0.044157565 0.036847137 -0.08226027

bias f4 [128]
00000000: 766b 8d3d 793e 62bd a104 a7bc a872 953d
00000010: 3119 cd3c d932 183d 06fa 063e 1499 5dbd
00000020: d3dc babd 8769 d53d 2a9d 7bbd 0ae7 d8b9
00000030: e560 023d 503b b53c 68da d53d 5d20 66bd
00000040: 56be 6139 ad5e bf3d 4af5 2fbd fde0 b5bc
00000050: b7ac 753c cc28 ea3a 7561 bdbc 73b0 4a3d
00000060: 35d5 07bd cc6e e53d 7606 e3bc 61ad bfbc
00000070: 98f4 9e3d b490 bcbc 8de5 663c a97a 213c
00000080: 979e ebbb eddb acbd b47a bf3d 1546 eb3d
00000090: 4f31 90ba ac45 f13d d5e1 bf3d 9114 e03b
000000a0: 032c 8bbd d21f 6dbc 4b09 bb3d 8440 e4bd
000000b0: 8779 5bbb 2935 8e3d 180e 0a3e 9922 3b3d
000000c0: ba34 9f3d 8378 4a3d a553 463d 7d1c 8dbc
000000d0: 2525 623d e4e6 803d 4a44 cbbc 0c0d b5bd
000000e0: 684e 313b bf0a a93c cc2b d13d 3358 a83d
000000f0: d0be 0f3c f60b c03d 9fe2 a3bb c732 c83d
00000100: 2bc2 9cbd 378b ab3d f6ed b13d 832f f83d
00000110: cf02 823d b71d 55bd fc50 803c dbe6 9b3d
00000120: 5790 fd3c 02fe 993d e8ba 58bd d75b 3f3d
00000130: 1b58 223d ebaa d73d 3ea8 6fbc 6c7f de3d
00000140: ca85 4ebc 56e6 e73d 82c8 d03d 5105 e63c
00000150: cebd 82bb d41a 833c fa8a d13c 2090 e23c
00000160: 7eb9 c13d fa41 bc3d 95bb f93d c75a 203d
00000170: d7b2 51bd 22b8 a43d ef43 de3d a40e 20bd
00000180: a6f0 af3d 0feb 63bd 5a08 473d 0c31 6bbd
00000190: 671e 8a3d 8d20 513d 2fd8 88bb 2857 a03d
000001a0: d739 023c 43d1 ab3d 273f e43d a85a a2bc
000001b0: e042 693d 92f6 d73d f1fe 4e3d 6db2 fa3d
000001c0: 6de0 2a3c 9cc9 b13d 5d28 973d 099d c0bd
000001d0: 8c52 d2bc c30d 4ebc 7884 50bd f6c0 bbbd
000001e0: 4241 bc3d 52a7 c03d 4e00 a83d 808c 5abb
000001f0: f4d7 143d c341 fc3c 7b50 ae3d b726 063e
0.06905262 -0.05523536 -0.02038795 0.072972596 0.025036426 0.037157867 0.13181314 -0.054101065
-0.0912415 0.10420518 -0.06142918 -0.00041370868 0.031830687 0.022123009 0.10442048 -0.056183208
0.00021528578 0.0934423 -0.042958535 -0.02220201 0.014994792 0.0017864942 -0.02311776 0.04948468
-0.033162314 0.112027735 -0.027713042 -0.023398103 0.07761496 -0.023018219 0.014092815 0.009855905
-0.0071905362 -0.08440385 0.09349576 0.114879765 -0.0011001023 0.11780867 0.09369246 0.006838389
-0.06795504 -0.014472919 0.09132632 -0.11145118 -0.0033489184 0.06943733 0.13481939 0.04568729
0.07773729 0.049431335 0.048419613 -0.017225498 0.055211205 0.06294039 -0.024812836 -0.08840379
0.002705479 0.020635007 0.10213432 0.08219948 0.008773521 0.09377281 -0.0050013806 0.0977531
-0.07654222 0.083761625 0.086879656 0.12118437 0.06348192 -0.05203029 0.015663616 0.076123916
0.030952616 0.07519151 -0.052912623 0.046718445 0.039634805 0.10530647 -0.014627514 0.108641475
-0.01260514 0.1132323 0.10194494 0.028078707 -0.0039899116 0.016004004 0.025578965 0.027656615
0.09459208 0.091922715 0.121939816 0.039149072 -0.051195946 0.08042933 0.10852801 -0.039076462
0.08590822 -0.05564409 0.04859195 -0.05741982 0.0674408 0.051056433 -0.0041761617 0.07829124
0.00794836 0.08389523 0.11144858 -0.019818619 0.056948543 0.105450764 0.0505361 0.12241063
0.010429484 0.08681032 0.073807456 -0.09404952 -0.025674127 -0.012576523 -0.050907582 -0.09167664
0.091921344 0.09406914 0.08203183 -0.0033347905 0.03633876 0.030793076 0.08511444 0.13100706

weight f4 [1, 128]
00000000: f134 abbd 42fd e63c f953 393d baa5 293d
00000010: 538a 5bbd 109e 543d ea5f e5bd 5b4a 423d
00000020: a700 883c 722b 163e 4ba8 1a3c 064b 60bd
00000030: 5c6e b13d 7356 cabd 54ed d23d 52e0 303d
00000040: 91a3 babd d1ef 18bd b88c 643d 93c7 bebd
00000050: 692e 98bd 5d16 d8bc 4f7a 8dbd 3a9d 313b
00000060: 43d1 a3bd 622a f5bd 442e 373d e195 1abd
00000070: 44d9 cebd 0c20 83bd 4cea cebd 38df a4bd
00000080: 0a4a e13d ce35 533d e65d a2bd c1da a0bd
00000090: d49c 81bd 174f 50bd 3abe ea3d cdf6 6b3c
000000a0: 97a9 7e3d 1908 e53b f639 083e 248f 123d
000000b0: 38de d4bc c9d5 c53d ec55 83bd 10f5 dbbc
000000c0: 533e 313e 7e30 bfbd d778 15bd 1e28 34bd
000000d0: d526 863d f8de edbc 3a1a 173d 18fd 583d
000000e0: 9edc bfbd c603 8fbd ec4b bebd 36c3 9dbd
000000f0: f5f7 db3d 0bb8 033e b853 d1bd 7089 90bd
00000100: cd32 8c3d 95ed a8bd 4e36 2c3e afa0 6bbd
00000110: aed9 053e b0d1 493c 9671 5abd 4a85 123e
00000120: f8de 533d 5394 c7bd d7ee 8a3d 3784 ff3d
00000130: 422e 6cbc 0957 3abd 8240 b13c 3039 05bd
00000140: 6f82 a8bd 67a8 85bd 065d 9ebd ce06 42bd
00000150: 569b 09be bf8a 8bbd 11a7 bebd 5be7 e33c
00000160: b42b a33d 41dd d1bd b5bf d1bd a966 31bd
00000170: 54d2 65bb 7afd 1cbd ebe4 0cbd fa21 cdbc
00000180: 64fe 30bd 35f8 3b3b a4aa 2dbd 4a10 d43c
00000190: 0f48 99bd 42bd 9c3d 522c 5f3c af8e 3c3d
000001a0: a7ca 8fbd 3bb4 843d 1ccd 4c3e dee1 cbbc
000001b0: 6c84 a43d 57b9 0e3e 498f a13d abb7 df3d
000001c0: 25c3 84bd 60db 61bd 38d0 413e b90c 373d
000001d0: b777 e4bc b0bc dabd 069e 483c b392 7d3d
000001e0: e36c a73d 9afe ccbd 9e3f 963d 3c12 d33c
000001f0: 23d5 aebd ce10 9bbd d728 ab3d 3b0d cfbd
-0.08359707 0.028196935 0.0452461 0.041417815 -0.053598713 0.051908553 -0.11199935 0.047434192
0.016601874 0.1466501 0.009439538 -0.054759048 0.086636275 -0.0987977 0.10299173 0.04318268
-0.09113229 -0.03733808 0.055798262 -0.093154095 -0.07430727 -0.026377851 -0.06908094 0.002710177
-0.07998898 -0.119709745 0.044721857 -0.037740592 -0.10100034 -0.06402597 -0.10103282 -0.08050388
0.1100045 0.051564984 -0.07928066 -0.07854224 -0.06328741 -0.050856676 0.11462064 0.014402104
0.062173452 0.0069894907 0.1330336 0.03578104 -0.025984868 0.09659917 -0.06412873 -0.026850253
0.17308931 -0.09335421 -0.036492195 -0.04398357 0.06550375 -0.029036984 0.036890246 0.052975744
-0.09368251 -0.069831416 -0.09291825 -0.07703249 0.107406534 0.12863176 -0.10221046 -0.07057464
0.06845627 -0.0824844 0.1681759 -0.057526287 0.1307132 0.01231806 -0.05333098 0.14308658
0.05172631 -0.097450875 0.06783836 0.1247639 -0.014415326 -0.04549316 0.021637205 -0.03252524
-0.08228003 -0.06526261 -0.077325866 -0.04736977 -0.13438162 -0.06813573 -0.09309209 0.02782028
0.0796732 -0.10247279 -0.10241643 -0.043310795 -0.0035067992 -0.03832767 -0.034398 -0.025040615
-0.043211356 0.0028681878 -0.042399064 0.025886673 -0.07484447 0.076532856 0.013621407 0.04603451
-0.07021075 0.06479689 0.20000118 -0.024887975 0.0803307 0.13937889 0.078886576 0.10923704
-0.06482533 -0.055140853 0.18927085 0.044689868 -0.027889116 -0.106805205 0.012244707 0.06190748
0.08175065 -0.10009499 0.07336353 0.02576553 -0.08536746 -0.075715646 0.08357399 -0.101099454
